fifth generation/pipeline_models_v1/stage1_domain_classifier_best.pth (torch, 3520 bytes, 4 tensors)

fc1.weight f4 [32, 5]
0.48327115 0.53376967 -0.19016902 0.3889881 -0.096005335 0.1191345 -0.06699036 0.27354777
0.44648924 -0.45922533 0.3753713 0.14247409 0.35329777 0.10926357 0.17068507 -0.041690677
0.31568265 0.045478623 -0.2061637 0.011778987 -0.37023866 0.1541366 -0.2634384 0.29721507
-0.41220817 -0.22147833 -0.25113764 -0.46250036 -0.14826648 -0.43773732 0.46478295 -0.22270878
0.43378195 0.18940566 -0.05806306 0.3373576 0.17940755 0.3108496 0.0480828 -0.16910885
0.060800407 -0.14797053 0.17292058 0.38265947 0.16565724 -0.15742649 0.20482528 0.030511227
0.17523207 -0.28314424 -0.61184084 -0.18170974 -0.5038992 0.2293455 0.18813549 0.1601443
0.33426756 0.0051148837 0.42470822 -0.44516528 0.10405256 -0.5027671 -0.07625539 -0.37905055
0.2934453 -0.081140034 0.34255773 -0.37312758 -0.37820235 -0.3049788 0.5351408 0.35340363
0.51935995 -0.24589454 -0.5383866 -0.24606478 -0.4282362 0.09647628 0.057601858 0.47681764
-0.24948487 -0.2348251 0.29183242 -0.11788278 0.23208836 -0.18182121 0.34826487 -0.5842426
-0.4309865 0.22694357 0.049867574 0.05549332 0.17736758 0.2807912 -0.36373445 -0.41769254
0.5196893 -0.34041128 -0.30282983 -0.5956141 -0.15260823 -0.035055354 -0.10899528 -0.42982176
0.087058194 -0.29088196 -0.5415488 -0.47834107 -0.613339 -0.13101564 0.63313764 0.14345124
-0.070366055 -0.5896719 -0.22422923 -0.24597043 0.046850827 -0.6547722 -0.42894605 -0.26829007
0.0034838836 -0.3180405 -0.28582096 -0.54678756 -0.15105686 -0.19367488 -0.24007744 -0.36344656
0.3357328 -0.06527609 0.57060236 0.25114048 -0.5180878 0.22121063 -0.025792046 -0.09481879
-0.54323524 -0.6080612 -0.04690075 0.029572042 0.13160904 -0.55268663 0.26525316 -0.44905168
-0.057689022 0.20697753 0.3978433 0.4328045 0.51320493 -0.5291819 0.17705509 -0.37129408
-0.15578096 -0.474097 0.45722637 -0.51296693 0.3882612 0.11503993 0.1512244 -0.37611365
00000000: 516f f73e 21a5 083f abbb 42be 7329 c73e
00000010: 729e c4bd cafc f33d 3e32 89bd 740e 8c3e
00000020: 3d9a e43e 951f ebbe ab30 c03e bae4 113e
00000030: 72e3 b43e 94c5 df3d 11c8 2e3e d8c3 2abd
00000040: 28a1 a13e cb47 3a3d 941c 53be a7fc 403c
00000050: ec8f bdbe fcd5 1d3e 66e1 86be 932c 983e
00000060: f30c d3be 37cb 62be 1d95 80be d9cc ecbe
00000070: 2bd3 17be 1b1f e0be 08f8 ed3e c50d 64be
00000080: ab18 de3e 8ff3 413e 88d3 6dbd 23ba ac3e
00000090: 9db6 373e ae27 9f3e 78f2 443d df2a 2dbe
000000a0: d909 793d 9685 17be 1812 313e f1eb c33e
000000b0: 0da2 293e 6934 21be b8bd 513e aef2 f93c
000000c0: 0970 333e 48f8 90be 9aa1 1cbf 1e12 3abe
000000d0: 8aff 00bf 8cd9 6a3e 97a6 403e defc 233e
000000e0: 1e25 ab3e c19a a73b 5b73 d93e b4ec e3be
000000f0: 8219 d53d 58b5 00bf c92b 9cbd ea12 c2be
00000100: 763e 963e bf2c a6bd ba63 af3e 940a bfbe
00000110: bda3 c1be 2e26 9cbe fdfe 083f 52f1 b43e
00000120: c6f4 043f c7cb 7bbe b4d3 09bf 68f8 7bbe
00000130: c641 dbbe 5b95 c53d edef 6b3d 7121 f43e
00000140: f678 7fbe fe75 70be 0f6b 953e 876c f1bd
00000150: 92a8 6d3e 572f 3abe c64f b23e ec90 15bf
00000160: 43aa dcbe e563 683e f141 4c3d f74c 633d
00000170: d99f 353e ddc3 8f3e 673b babe ccdb d5be
00000180: 5c0a 053f 634a aebe 830c 9bbe 2a7a 18bf
00000190: 5545 1cbe 3496 0fbd eb38 dfbd 9911 dcbe
000001a0: 914b b23d 7bee 94be f1a2 0abf 1fe9 f4be
000001b0: c903 1dbf f728 06be 4f15 223f e2e4 123e
000001c0: 141c 90bd bdf4 16bf 599c 65be acdf 7bbe
000001d0: a7e6 3f3d 279f 27bf d19e dbbe 515d 89be
000001e0: de51 643b 34d6 a2be 2057 92be 45fa 0bbf
000001f0: a6ae 1abe b552 46be dcd6 75be ab15 babe
00000200: 2be5 ab3e 78af 85bd ff12 123f 7c95 803e
00000210: 67a1 04bf 0a85 623e d749 d3bc 5b30 c2bd
00000220: 7711 0bbf e6a9 1bbf 001b 40bd 1141 f23c
00000230: 85c4 063e df7c 0dbf 43cf 873e 1aea e5be
00000240: 534b 6cbd ebf1 533e 1eb2 cb3e 8d98 dd3e
00000250: 6661 033f 7778 07bf ee4d 353e 421a bebe
00000260: 0b85 1fbe d8bc f2be 9319 ea3e cd51 03bf
00000270: 2cca c63e 0e9a eb3d 92da 1a3e f891 c0be

fc1.bias f4 [32]
0.63694555 0.29435322 0.0043797307 -0.37477994 0.44423595 0.13354896 -0.15302159 0.48028582
-0.0057075843 -0.29146948 -0.055929955 0.17618261 0.47950387 0.06349845 -0.058611117 -0.060833875
-0.3889108 0.423675 0.5722849 -0.17969622 0.1633873 0.46881714 0.336617 0.113347515
0.5034652 0.20153175 0.42930686 0.09330557 -0.032716107 0.25212583 0.024747629 0.12808073
00000000: dd0e 233f 77b5 963e d883 8f3b 28e3 bfbe
00000010: e572 e33e 0fc1 083e b1b1 1cbe 06e8 f53e
00000020: b006 bbbb 7d3b 95be cf16 65bd 3769 343e
00000030: 8881 f53e 7a0b 823d 3612 70bd f12c 79bd
00000040: 511f c7be eeeb d83e 4381 123f 4902 38be
00000050: 004f 273e cd08 f03e 1059 ac3e be22 e83d
00000060: 18e3 003f 575e 4e3e 1cce db3e fe16 bf3d
00000070: 5301 06bd a316 813e 8abb ca3c 9827 033e

fc2.weight f4 [3, 32]
0.30858245 0.26667663 0.086076245 -0.020454459 0.21366112 0.12068175 0.049826358 0.20655955
-0.09345056 -0.005755311 0.314206 0.22937503 0.16932124 0.090223156 0.0021003648 -0.014543961
0.005753715 0.29639986 0.2817832 0.31875116 0.040758014 0.059297472 0.12942977 0.35013416
0.19521758 0.11691056 0.26846525 0.08656825 -0.19223319 0.25573608 0.053529598 0.15222125
-0.36445495 -0.034839753 0.020338574 0.03185928 -0.3075114 -0.3428714 -0.15372889 -0.034286898
-0.017985413 0.06790245 -0.033353724 -0.12650838 -0.19763432 -0.31087297 -0.3080206 -0.31974432
-0.0015093052 -0.29556862 -0.21290165 -0.2758109 -0.22544362 -0.32158038 -0.32035303 -0.14073543
-0.26743436 -0.046350624 -0.2664435 -0.33906975 -0.18999033 -0.23714958 -0.21639924 -0.31924447
0.27101338 -0.07183519 0.14087276 0.0724903 0.3095932 -0.058148228 0.119048014 0.029254075
0.069263406 0.19001588 0.121634945 0.121453844 -0.08733991 0.044126913 0.11897784 -0.16358292
0.13966587 0.25620523 0.27616867 0.19743258 -0.06940573 0.04552043 0.13485055 -0.048070095
-0.028592046 -0.0152834235 0.10286615 -0.12153391 -0.24998616 0.028556312 -0.23207779 0.3337148
00000000: 85fe 9d3e d789 883e be48 b03d 1c90 a7bc
00000010: fbc9 5a3e fe27 f73d b916 4c3d 5984 533e
00000020: 0263 bfbd 0c97 bcbb 9cdf a03e 4ae1 6a3e
00000030: 8c62 2d3e ebc6 b83d 46a6 093b cb49 6ebc
00000040: a989 bc3b b9c1 973e e345 903e 5a33 a33e
00000050: e0f1 263d e8e1 723d 3d89 043e c944 b33e
00000060: 1ee7 473e ce6e ef3d 4774 893e b24a b13d
00000070: c7d8 44be d7ef 823e da41 5b3d e3df 1b3e
00000080: d799 babe 21b4 0ebd 159d a63c e07e 023d
00000090: 2272 9dbe d78c afbe 1b6b 1dbe 6b70 0cbd
000000a0: 2556 93bc 7110 8b3d ea9d 08bd 6a8b 01be
000000b0: a760 4abe be2a 9fbe e0b4 9dbe 87b5 a3be
000000c0: e1d3 c5ba c554 97be e402 5abe 1637 8dbe
000000d0: b1da 66be 2fa6 a4be 5005 a4be f31c 10be
000000e0: 28ed 88be 27da 3dbd 486b 88be 8d9a adbe
000000f0: d38c 42be 57d7 72be c397 5dbe 0374 a3be
00000100: 44c2 8a3e 541e 93bd f340 103e cb75 943d
00000110: 0083 9e3e d62c 6ebd 72cf f33d 3ea6 ef3c
00000120: f9d9 8d3d 8693 423e be1b f93d cbbc f83d
00000130: 44df b2bd 6cbe 343d a7aa f33d 4882 27be
00000140: 9204 0f3e 552d 833e fb65 8d3e c42b 4a3e
00000150: 9724 8ebd a173 3a3d 4316 0a3e 26e5 44bd
00000160: de39 eabc 5367 7abc 7dab d23d c5e6 f8bd
00000170: 5ffc 7fbe edee e93c cda5 6dbe abdc aa3e

fc2.bias f4 [3]
0.34958473 -0.21202455 0.057447318
00000000: c5fc b23e f71c 59be e14d 6b3d
