fifth generation/pipeline_models_v1/stage2_maturity_tomato_best.pth (torch, 8144 bytes, 6 tensors)

fc1.weight f4 [32, 5]
-0.35513982 -0.07612063 -0.33440396 -0.031046107 -0.2547359 0.19648294 0.24842282 0.32036793
-0.23589993 -0.2580473 0.19987117 -0.046997476 0.29837385 -0.42576712 0.42141014 -0.36635685
-0.42642123 -0.057442117 -0.2293071 -0.2593285 0.29940656 0.30788183 0.184981 -0.007361862
-0.027696025 -0.27107146 0.401912 -0.23663163 -0.40029398 0.36685047 0.0371915 0.28696755
-0.2043587 0.28885132 -0.38017276 0.33015117 0.27820262 -0.088782944 0.2154076 0.0885522
-0.4693444 0.1908366 -0.34104124 0.01749151 -0.36716136 -0.2641635 -0.20796795 -0.21973208
-0.500474 -0.15859191 -0.45104504 -0.4164303 -0.4263858 -0.2618542 -0.11517879 0.44762856
-0.2629716 -0.33528697 -0.34060752 0.4447934 -0.09872876 -0.17712815 0.22056334 -0.30218643
-0.060925856 0.43697986 0.23402794 -0.39158893 -0.15888596 0.11177601 0.16166909 -0.20454758
0.31583056 0.00991059 -0.3796324 0.057703514 -0.49671745 0.036923017 -0.4607901 -0.15938622
-0.13098958 -0.4723357 -0.18985315 -0.050794594 -0.24567059 0.054259125 0.24206404 0.06092773
-0.42493612 -0.010325357 -0.18859565 0.14097548 -0.3685822 -0.31110698 -0.016631372 0.3000066
-0.18277699 -0.054666813 -0.08812913 -0.2924294 0.040027913 0.05585696 0.060803898 0.21785074
0.16316637 0.2689739 -0.065367796 -0.1837625 0.39099425 0.3625271 0.30836448 0.37979895
0.19043873 0.37942126 0.41883248 -0.4130198 -0.4754617 -0.2227615 0.32294223 0.3602254
-0.014978117 -0.37748975 -0.22663201 0.18206455 0.39145553 0.12714276 -0.36303338 0.38552487
0.34213623 -0.1389197 -0.18488123 0.20013686 -0.26555458 0.31534868 -0.039734628 0.03606326
-0.30779722 -0.50187373 0.038953215 -0.17363416 -0.1973966 0.40350989 0.11286307 -0.09541381
-0.46453056 -0.31430638 -0.22409295 0.13332027 -0.47270146 0.22593822 0.3736389 0.10322445
-0.4165141 0.082263336 -0.20114131 0.08721446 -1.6694746e-06 0.16240786 -0.0019813771 0.031400587
00000000: e3d4 b5be 22e5 9bbd ff36 abbe 6854 febc
00000010: be6c 82be d332 493e 8d62 7e3e 4407 a43e
00000020: c08f 71be c71e 84be 07ab 4c3e 6d80 40bd
00000030: 75c4 983e 26fe d9be 12c3 d73e 2093 bbbe
00000040: e253 dabe 6d48 6bbd 7bcf 6abe b5c6 84be
00000050: d14b 993e b0a2 9d3e a96b 3d3e c63b f1bb
00000060: c6e2 e2bc e1c9 8abe 69c7 cd3e 904f 72be
00000070: 55f3 ccbe d3d3 bb3e 1d56 183d 69ed 923e
00000080: 6843 51be 52e4 933e 01a6 c2be 9309 a93e
00000090: 9370 8e3e d5d3 b5bd cf93 5c3e db5a b53d
000000a0: e94d f0be ab6a 433e f59c aebe 5b4a 8f3c
000000b0: 93fc bbbe 7040 87be 8df5 54be 7201 61be
000000c0: 101f 00bf eb65 22be 60ef e6be 5a36 d5be
000000d0: 3d4f dabe c111 86be dce2 ebbd 922f e53e
000000e0: 37a4 86be bcaa abbe 1c64 aebe f6bb e33e
000000f0: 4e32 cabd 1561 35be 5bdb 613e 2eb8 9abe
00000100: 648d 79bd d3bb df3e 05a5 6f3e 587e c8be
00000110: 00b3 22be d2ea e43d 958c 253e ec74 51be
00000120: 8bb4 a13e 0760 223c 2e5f c2be 855a 6c3d
00000130: c051 febe 973c 173d aeec ebbe 2436 23be
00000140: 2222 06be fcd5 f1be dd68 42be fe0d 50bd
00000150: 1291 7bbe d13e 5e3d a3df 773e 5b8f 793d
00000160: 3a91 d9be b02b 29bc 381f 41be e05b 103e
00000170: ceb6 bcbe 6a49 9fbe 843e 88bc 779a 993e
00000180: e429 3bbe 4fea 5fbd 0c7d b4bd 4eb9 95be
00000190: 4ff4 233d 45ca 643d 820d 793d 4414 5f3e
000001a0: 1615 273e f2b6 893e 8ddf 85bd 3d2c 3cbe
000001b0: 6630 c83e 279d b93e f3e1 9d3e 0275 c23e
000001c0: 5f02 433e 8143 c23e 3671 d63e 5577 d3be
000001d0: b76f f3be 971b 64be af58 a53e 776f b83e
000001e0: c766 75bc 5646 c1be 3912 68be 216f 3a3e
000001f0: dc6c c83e b631 023e 83df b9be 8463 c53e
00000200: 7b2c af3e f740 0ebe 8151 3dbe adf0 4c3e
00000210: c5f6 87be 6275 a13e c7c0 22bd 12b7 133d
00000220: 9997 9dbe cc7a 00bf 688d 1f3d 27cd 31be
00000230: 5622 4abe d998 ce3e c124 e73d 5168 c3bd
00000240: f3d6 edbe c4ec a0be 9f78 65be 1c85 083e
00000250: ed05 f2be 595c 673e 994d bf3e 5767 d33d
00000260: 5641 d5be ae79 a83d fdf7 4dbe 7f9d b23d
00000270: b612 e0b5 3f4e 263e fed9 01bb e79d 003d

fc1.bias f4 [32]
0.17152567 -0.27366132 0.12898664 0.3761546 0.37763515 0.021645315 -0.0061410153 0.26656377
-0.3956931 -0.09091055 0.3439052 0.08026907 -0.009309385 -0.30471033 -0.29297626 0.026997566
-0.27200422 -0.13724194 -0.20769207 0.12364999 0.08598729 -0.44013348 0.20286146 -0.05061459
-0.1981194 0.31961185 -0.23704524 -0.34898183 0.083611354 -0.18718861 -0.22843647 -0.33306113
00000000: 6da4 2f3e 561d 8cbe 1315 043e 5697 c03e
00000010: 6559 c13e 8451 b13c 923a c9bb 0c7b 883e
00000020: 4998 cabe 4f2f babd 5814 b03e 1c64 a43d
00000030: 6486 18bc fe02 9cbe fc00 96be 002a dd3c
00000040: 2344 8bbe 2789 0cbe 3bad 54be 353c fd3d
00000050: 1b1a b03d 2d59 e1be eaba 4f3e 3f51 4fbd
00000060: d0df 4abe 2aa4 a33e fdbb 72be bfad b2be
00000070: 6e3c ab3d 5fae 3fbe 40eb 69be fd86 aabe

fc2.weight f4 [32, 32]
-0.06033073 0.08624241 -0.14550619 -0.14977573 0.030798707 -0.10719091 0.11925125 0.037663978
0.08151078 -0.22316824 -0.02869627 0.0809407 -0.029527012 0.0016476243 0.1308146 -0.17592049
0.113188274 0.050094005 0.058048468 0.110247634 0.06138695 0.071332835 0.021641277 -0.19288225
0.07031016 0.10401695 0.025762688 -0.08408586 -0.121882424 -0.05157585 0.027910389 -0.08425563
0.13625713 1.2658576e-07 0.059001416 0.1330065 0.13235518 -0.070672296 0.14754753 0.1645416
0.04875378 -0.11750611 -0.0075204493 -0.12529597 -0.057890214 -0.083568536 0.07556691 0.14434478
-0.20875303 -0.066155985 -0.09499307 -0.13608865 0.19512358 -0.0973993 -0.047444727 -0.17116477
-0.0042017843 -0.15222394 -0.06602569 0.13102713 0.10691535 0.039529923 0.10890877 0.00058590976
0.011412724 -0.07893663 0.06888704 -0.17693076 0.082390845 -0.05625094 -0.005715236 -0.018244764
-0.15260458 -0.16741893 -0.14326385 -0.054166075 -0.2310369 0.20041592 0.011977543 -0.22692154
-0.24400522 -0.03977096 0.036669638 0.14565495 0.025124893 0.17298254 -0.023065045 -0.07710596
-0.030154722 -0.2014254 -5.1776445e-09 -0.022286164 0.14608322 -0.19917202 -0.06669634 -1.4784806e-07
0.004129003 0.00047452873 -0.12807871 0.12867647 -0.18416747 -0.07733434 0.037642516 -0.07342903
-0.0740846 -0.16900013 0.11732196 -0.0070657968 0.09559574 0.01683185 -0.12908985 -0.06256909
0.13347712 -0.06209789 -0.09279569 0.08880515 -0.090453796 0.018708352 -0.09862541 0.049787182
0.023521177 -0.13580644 -0.08017639 0.07914018 -0.092657104 0.10919082 -0.0029160243 -0.015319727
-0.04246399 -0.031294506 0.09606989 0.11891407 0.052391835 -0.08765287 0.20697975 0.2072241
0.079881586 -0.036850285 0.019366775 0.010343833 -0.10547 -0.1346473 -0.045723062 0.048530273
0.065153174 0.037524022 0.06178027 0.09787442 0.0025139246 0.15440822 0.042428587 -0.08534515
-0.073587574 -0.12446272 -0.082148194 -0.005174143 0.1930869 -0.010470634 0.009399372 -0.01971033
-0.053563807 -0.011798435 0.0464093 0.060743764 -0.13529027 0.0015185218 -0.11787997 -0.08571267
0.17821006 -0.025757197 0.19969797 -0.09967717 0.21684827 0.015979193 0.10578997 -0.0014113324
0.0038426346 -0.12522908 -0.1434528 0.13792753 0.12675966 -0.0025464469 -0.12740028 0.07145816
-0.002304135 -0.124343 -0.08732111 0.118541785 -0.088022046 0.007157406 -0.08849469 0.029117573
-0.07036402 -0.012507816 0.076543376 0.20759168 0.076551825 0.030550817 -0.08503654 0.04974734
0.2205057 0.1387507 0.09558793 0.038141735 0.0836951 0.056956008 0.094102405 -0.10003727
-0.040383596 -0.110465944 -0.021854583 0.025093228 -0.12567136 -0.22758502 -0.18373473 0.11504423
-0.0073536006 0.0038314015 0.00032197725 0.029241255 -0.13649674 -0.020745538 -0.051798694 -0.11031714
-0.14864588 -0.0202223 0.052533776 0.20153059 -0.076016046 0.08690195 -0.03151306 -0.21579204
-0.034929734 -0.0014895484 -0.11218053 0.021930756 0.094743386 -0.18851429 -0.0028959329 -0.11764707
0.22760789 0.08488356 -0.042452402 0.1655723 -0.15561326 0.095450856 -0.12713584 0.08298566
0.12796342 0.11028627 0.0045281504 0.03716752 -0.037196573 0.19972032 -0.04050486 -0.013126489
00000000: 5b1d 77bd dc9f b03d 93ff 14be cf5e 19be
00000010: 924d fc3c e886 dbbd 003a f43d 8b45 1a3d
00000020: 20ef a63d 3786 64be 7114 ebbc 3dc4 a53d
00000030: a2e2 f1bc 19f5 d73a 43f4 053e 8024 34be
00000040: 41cf e73d 5f2f 4d3d 3bc4 6d3d 83c9 e13d
00000050: e270 7b3d f316 923d 0c49 b13c ed82 45be
00000060: c6fe 8f3d d706 d53d 460c d33c 3535 acbd
00000070: 7e9d f9bd 3341 53bd 54a4 e43c 378e acbd
00000080: fd86 0b3e a1eb 0734 78ab 713d db32 083e
00000090: 1e88 073e a3bc 90bd b316 173e 987d 283e
000000a0: 0bb2 473d 0ba7 f0bd 1a6e f6bb 964d 00be
000000b0: 4a1e 6dbd fb25 abbd d3c2 9a3d 1ecf 133e
000000c0: 5bc3 55be ca7c 87bd ba8b c2bd d35a 0bbe
000000d0: 7ace 473e 4979 c7bd 6755 42bd d145 2fbe
000000e0: 1faf 89bb 98e0 1bbe 7a38 87bd fa2b 063e
000000f0: 6ff6 da3d 21ea 213d 900b df3d bd97 193a
00000100: 6ffc 3a3c 87a9 a1bd a614 8d3d 562d 35be
00000110: 88bc a83d 6367 66bd e046 bbbb 0b76 95bc
00000120: 6044 1cbe de6f 2bbe c2b3 12be 3fdd 5dbd
00000130: f094 6cbe d539 4d3e 753d 443c 1f5e 68be
00000140: 81dc 79be e0e6 22bd e732 163d 9226 153e
00000150: b8d2 cd3c 5622 313e e8f2 bcbc bbe9 9dbd
00000160: 0907 f7bc 7642 4ebe 0be7 b1b1 7991 b6bc
00000170: d796 153e c0f3 4bbe 1798 88bd 2ac0 1eb4
00000180: 964c 873b 2bca f839 1127 03be c4c3 033e
00000190: 6696 3cbe 7761 9ebd 0a2f 1a3d f661 96bd
000001a0: abb9 97bd 5f0e 2dbe 7f46 f03d 3388 e7bb
000001b0: b3c7 c33d f3e2 893c 2130 04be 3924 80bd
000001c0: 3aae 083e 5b5a 7ebd ab0b bebd 79df b53d
000001d0: d73f b9bd 4242 993c 1efc c9bd a5ed 4b3d
000001e0: 7caf c03c d810 0bbe 8533 a4bd 3f14 a23d
000001f0: 02c3 bdbd 709f df3d c51a 3fbb 98ff 7abc
00000200: b9ee 2dbd ab2e 00bd 4ac0 c43d 3889 f33d
00000210: d298 563d 5983 b3bd 80f2 533e 8e32 543e
00000220: f598 a33d 53f0 16bd 12a7 9e3c 2e79 293c
00000230: a800 d8bd fbe0 09be 1b48 3bbd aec7 463d
00000240: 076f 853d cab2 193d 4f0d 7d3d 6272 c83d
00000250: a8c0 243b 301d 1e3e 99c9 2d3d 70c9 aebd
00000260: 15b5 96bd 4fe6 febd 503d a8bd db8b a9bb
00000270: 93b8 453e 068d 2bbc d3ff 193c 8f77 a1bc
00000280: b965 5bbd 394e 41bc ae17 3e3d 74ce 783d
00000290: 8889 0abe 2309 c73a 0e6b f1bd 208a afbd
000002a0: b37c 363e c200 d3bc a07d 4c3e 8b23 ccbd
000002b0: 790d 5e3e cce6 823c 69a8 d83d 75fc b8ba
000002c0: b6d4 7b3b 0d3c 00be 4ae5 12be e03c 0d3e
000002d0: 49cd 013e 4ae2 26bb 3875 02be a858 923d
000002e0: f800 17bb 8ba7 febd 69d5 b2bd 09c6 f23d
000002f0: e744 b4bd ac88 ea3b b43c b5bd fa87 ee3c
00000300: 031b 90bd 95ed 4cbc c6c2 9c3d ea92 543e
00000310: 34c7 9c3d b545 fa3c a327 aebd dec3 4b3d
00000320: 3fcc 613e aa14 0e3e 9bc3 c33d 823a 1c3d
00000330: 5668 ab3d b44a 693d c3b8 c03d 57e0 ccbd
00000340: 4569 25bd f83b e2bd 6208 b3bc 5090 cd3c
00000350: feaf 00be 0c0c 69be f524 3cbe 4f9c eb3d
00000360: 79f6 f0bb 4018 7b3b 0ecf a839 5b8b ef3c
00000370: cdc5 0bbe 8cf2 a9bc de2a 54bd f4ed e1bd
00000380: a036 18be 3da9 a5bc a82d 573d 095e 4e3e
00000390: 4dae 9bbd a6f9 b13d d713 01bd 97f8 5cbe
000003a0: 7b12 0fbd f33c c3ba e8be e5bd 21a8 b33c
000003b0: d208 c23d e409 41be b1c9 3dbb f2f0 f0bd
000003c0: 0b12 693e 6fd7 ad3d 92e2 2dbd c98b 293e
000003d0: 1559 1fbe bd7b c33d e62f 02be 63f4 a93d
000003e0: d808 033e c5dd e13d e160 943b f83c 183d
000003f0: 6f5b 18bd 7c83 4c3e 6de8 25bd 7c10 57bc

fc2.bias f4 [32]
0.03596278 0.038378492 0.23397848 -0.18429708 0.11307548 -0.17412393 -0.041997973 -0.21465184
0.17670895 -0.13777226 -0.037607085 -0.15543723 0.0608048 -0.04438139 -0.039054405 -0.030525506
0.06507207 -0.020744167 -0.08904208 0.10896137 -0.025853615 -0.10091114 -0.051315792 -0.11956191
-0.116773106 0.001103475 0.0039598495 -0.2056874 -0.18351647 0.20159133 0.01892681 -0.04658511
00000000: b54d 133d c432 1d3d 0e98 6f3e 60b8 3cbe
00000010: 1e94 e73d 8b4d 32be 1106 2cbd b1cd 5bbe
00000020: 31f3 343e 2c14 0dbe e309 1abd f02a 1fbe
00000030: 740e 793d 43c9 35bd 83f7 1fbd a010 fabc
00000040: 8144 853d acef a9bc b25b b6bd 2427 df3d
00000050: f6ca d3bc 80aa cebd 8230 52bd e0dc f4bd
00000060: bd26 efbd 7aa2 903a a0c1 813b b89f 52be
00000070: beeb 3bbe f56d 4e3e 660c 9b3c 07d0 3ebd

fc_out.weight f4 [2, 32]
0.10101463 -0.09077397 0.1758424 -0.08700886 0.0119057 -0.17693599 0.032072492 -0.15773611
0.15640451 -0.029638197 -0.09045145 -0.092460185 0.113206625 0.19205438 0.09724098 0.14555642
-0.19341233 -0.085979976 -0.12484223 -0.1440012 -0.016675772 -0.091733925 0.03273996 -0.09501387
-0.2079498 -0.042738453 -0.15803435 -0.0047631618 -0.18783388 0.19230334 0.09035582 -0.09664219
-0.08979507 -0.14665075 0.07534859 -0.03205301 -0.0382656 0.06739714 0.12561446 -0.020587891
0.037752237 0.09552015 0.0040615383 0.15048727 -0.2007683 -0.115189016 -0.06308714 -0.055211928
0.10712026 0.1719352 -0.10288919 0.109893985 0.089441136 0.1832629 0.10159823 -0.013684049
0.02170341 -0.16585933 0.027139813 0.18136823 0.11595645 0.08650892 0.05672976 0.031489618
00000000: c2e0 ce3d b4e7 b9bd 0810 343e b431 b2bd
00000010: 2010 433c b52e 35be 725e 033d 9385 21be
00000020: 8128 203e cecb f2bc 9c3e b9bd c45b bdbd
00000030: e0d8 e73d e7a9 443e 4726 c73d be0c 153e
00000040: e20d 46be 4516 b0bd 48ad ffbd 0d75 13be
00000050: a19b 88bc ffde bbbd 561a 063d a296 c2bd
00000060: cbf0 54be 840e 2fbd c2d3 21be 4c14 9cbb
00000070: 8657 40be 2beb 443e 790c b93d 57ec c5bd
00000080: 7ae6 b7bd 9d2b 16be 5d50 9a3d 044a 03bd
00000090: 64bc 1cbd 8307 8a3d 14a1 003e f0a7 a8bc
000000a0: 17a2 1a3d 12a0 c33d a716 853b 5619 1a3e
000000b0: 3596 4dbe 38e8 ebbd d533 81bd e725 62bd
000000c0: de61 db3d c80f 303e 91b7 d2bd 1910 e13d
000000d0: ea2c b73d 45a9 3b3e bc12 d03d 1033 60bc
000000e0: 5acb b13c 07d7 29be 5054 de3c 98b8 393e
000000f0: 937a ed3d 972b b13d 775d 683d 42fb 003d

fc_out.bias f4 [2]
0.0020659145 -0.19304605
00000000: 4b64 073b ddad 45be
