fifth generation/pipeline_models_v1/stage2_maturity_grape_best.pth (torch, 8134 bytes, 6 tensors)

fc1.weight f4 [32, 5]
00000000: 92a2 48be d1e8 b2be 0fae ec3d 6228 2cbd
00000010: 9165 aabe d785 783e ef3f da3e 2ef2 87be
00000020: 86fc 9b3e 8e4e ecbd 2264 c93c c647 833e
00000030: 0741 94bc d92d e33e 6a16 523e dabf 7abe
00000040: fdb2 64be 376f f3be ecc3 f33d 9f8c b0be
00000050: 3a89 9cbe e838 78be e9d2 ffbe d4d3 d4be
00000060: 78b0 be3e 2c88 833e 1fbf d43e 25c9 4abe
00000070: 8f38 28be 56fd 31be 8f86 9c3d 4ea9 a4be
00000080: 9b0b 3e3b 2d65 afbe 38fe de3d 6951 d33e
00000090: 8d5c 693d 8f8b 9c3e 3c10 adbe cee0 2fbd
000000a0: fb5b 83be a94e 65bd 56b1 5cbe df5c 93be
000000b0: 8334 e6be 3d26 c2bd 73fb d23d 334a 11be
000000c0: fe85 efbe f40b d43e 443b 9f3e 03d9 87be
000000d0: 492d 573d 99f0 9a3e 6b90 d8be 120a e0be
000000e0: fac7 8b3e 5fb6 4d3c d0c0 263e 1c0e 6cbe
000000f0: fa32 063e 4b3d 893e 6b9e 10be 43be 32be
00000100: c21c c7be 67f7 c4bd 1ba5 843e 4519 debe
00000110: 504e 44bd bc16 ad3e 4003 e7bd c7dc 38be
00000120: 8c88 2dbe 00ed 5abe a7dc 6b3d dce4 f5be
00000130: 7806 6e3e de13 48bd 1c73 ba3b 7f5f 4abd
00000140: 6d38 a13e 6188 afbe b658 f5be 2789 cabe
00000150: 7faa b9be 78ac 2fbe a165 a33e 267a c8be
00000160: 872c 9cbe f196 a8be b6d3 5bbe 5596 173c
00000170: 76e5 86be 323f 943c 3f05 3c3e b4b1 aabd
00000180: 3b10 3a3e b70c ba3d 7829 d73e 480c 5cbc
00000190: aaf3 a93e a545 c83e d4c0 8c3e 7ff8 9f3e
000001a0: 51ac a8be c395 a9be 2305 6f3e ce05 573e
000001b0: 2abf e53e ebdc cebd 1fa5 a6bd 852c a83e
000001c0: 4675 213d 8eb7 e23e 8b26 7ebe 26b2 5dbe
000001d0: 7960 5ebd dbf1 423e 5843 e7be 23d7 4abe
000001e0: 1e75 a33e 396d b33d 9763 9e3e c144 22be
000001f0: f45d 90be a1b2 b1be 8e54 9abe cc88 a7be
00000200: e86d 513e c512 9b3d a869 a9be 3dcb ef3e
00000210: c268 3e3e ede5 633e 38d2 85be 59ff bd3e
00000220: a5c5 bbbe 54c1 803e a53a a1be 4f33 293e
00000230: ec85 51be 85b8 733e fc85 bdbe d86b dbbd
00000240: c92f 24be d9ac 52be 27e3 5abe 48a7 38be
00000250: c305 84bb 7bec 9e3e 4b0d 6dbc 0745 c73e
00000260: ec39 8cbe 6cd3 92be bd3a f73c df6a 68bd
00000270: 582b 453e 2c62 ee3e 4bf3 503e 153e d9be
-0.19593266 -0.3494325 0.115566365 -0.0420307 -0.33280614 0.24269806 0.42626902 -0.26551956
0.30466098 -0.115384206 0.02458388 0.25640696 -0.018097414 0.44370916 0.20516363 -0.24487248
-0.22333904 -0.47545788 0.119026035 -0.34482285 -0.30573446 -0.24240458 -0.499656 -0.41567862
0.3724401 0.25689828 0.41552064 -0.19803293 -0.16427825 -0.17381796 0.076428525 -0.3216042
0.0028998617 -0.34256878 0.10888332 0.4127305 0.05697303 0.30575225 -0.33801448 -0.042939
-0.25656113 -0.05598322 -0.21552023 -0.28781793 -0.44961938 -0.094799496 0.103018664 -0.14188461
-0.46781915 0.4141537 0.31099904 -0.26532754 0.05253342 0.30261686 -0.42297682 -0.43757683
0.27301008 0.012555688 0.1628449 -0.23052257 0.13105384 0.26804575 -0.14122932 -0.17455392
-0.38889128 -0.09617501 0.25907215 -0.43378654 -0.047926247 0.33806407 -0.11279917 -0.1805297
-0.1694662 -0.21379471 0.057583477 -0.48026168 0.23244655 -0.04884707 0.0056899916 -0.04940748
0.31488362 -0.34283736 -0.47919244 -0.39557764 -0.3626289 -0.17155635 0.31913474 -0.39155692
-0.30502722 -0.3292766 -0.2146748 0.009252151 -0.2634694 0.01809654 0.18361376 -0.083346754
0.18170254 0.090844564 0.42023826 -0.013430662 0.33193713 0.39115635 0.27490866 0.31244275
-0.32943967 -0.33122072 0.23341803 0.20998308 0.4487241 -0.101007305 -0.08136963 0.32846466
0.03941848 0.44280666 -0.2481939 -0.2164999 -0.054291222 0.19037573 -0.45168567 -0.1980863
0.3192529 0.08761067 0.30935356 -0.1584654 -0.2819668 -0.34706596 -0.30142635 -0.32721555
0.20452082 0.075719394 -0.33088422 0.46834746 0.1859465 0.22255678 -0.26136947 0.37108877
-0.36674228 0.25147498 -0.31490055 0.16523479 -0.20461243 0.23800857 -0.37016284 -0.10713929
-0.16033854 -0.20573749 -0.21375714 -0.18032563 -0.004029007 0.31039795 -0.014468501 0.3891985
-0.2738794 -0.28676927 0.030179376 -0.056742545 0.19254816 0.46559274 0.20405309 -0.42430177

fc1.bias f4 [32]
00000000: dc72 0abe a8e6 bbbd 42b3 acbe cccf 2f3e
00000010: ee6d e53e a306 5e3e 6622 543d ae86 d2bc
00000020: bff9 32be 0b2e 223c 81e5 b63e 01a6 41be
00000030: e433 a13d 9822 a1be df6e b0bd 1615 313d
00000040: f696 88be a0b1 1f3e 38ec c9be 4859 45be
00000050: 1f8a 843e 5bc8 d13e 5a9c b1bc 9ca2 85be
00000060: 1bee bcbe 0554 c8bd d865 20be b87e de3e
00000070: e6bd 9abe 5b3a a63e e3bf 073e 2328 b7bd
-0.13520378 -0.091748536 -0.33730513 0.17169112 0.44810432 0.21682219 0.051790617 -0.025698986
-0.17478083 0.009898673 0.35721973 -0.18910982 0.078712255 -0.31471705 -0.08614897 0.043233
-0.26677674 0.15595102 -0.39438033 -0.1927234 0.25886628 0.40973172 -0.021681 -0.26100624
-0.3690041 -0.097816505 -0.1566385 0.43456054 -0.30223006 0.32466397 0.13256793 -0.08943202

fc2.weight f4 [32, 32]
00000000: 2e33 d53d b162 913d 35fb 13bd 90d9 c6bd
00000010: 686b d5bc c747 aa3d af94 443e 411c 9abd
00000020: 426d a3bd a71d 11be fb7d c63d bbc6 0f3e
00000030: 67f2 e23d af38 86bd 386f 073e 9d53 afbd
00000040: 08b3 0c3e 8ff5 073e 143a ecbd 7ed8 943c
00000050: 546a 313d bf9b 09be 8f57 0b3e 7b93 8b3d
00000060: 41b0 fa3d 7dd0 8cbc 43d0 00be 61b0 59bd
00000070: 42aa 863c ec27 26bc 6722 3d3e 0c12 f53d
00000080: 3999 17bd 54f4 3abe 7b74 ec3c 1ff4 3e3e
00000090: f70b 3ebc 560a 64bd 51f8 1e3c b991 c83b
000000a0: d63c 13be ac6a 0a3e 7ffb 813d aa26 e9bd
000000b0: ceb7 9abd 747b 22bd 8ce6 123e b17f 813d
000000c0: 07b6 df3d 517f f73c aced a93d 3468 0a3e
000000d0: 9268 9a3c e57c 02be 2358 f83c 08c5 17be
000000e0: 9056 2bbd 0d58 0cbe 9915 46bd 26e8 863d
000000f0: b12d 25be e510 143e 591c 603e ca78 3fbe
00000100: 31d6 8dba 7213 22be eb77 99bd 3103 e43d
00000110: a193 de3c cd0d bc3d 15ab aebb b3b1 1a3e
00000120: eeb1 cabd 4774 963d d137 f33b 5785 993d
00000130: 7a54 1d3c e5b7 1a3e e592 473d 4a1e 8d3d
00000140: 8409 803d 0263 c63d 2abb 593e a6f3 b9bd
00000150: 05df dbbd d98e b93d 4181 003d 4afa 7dbe
00000160: 068d ee3c 944d 4bbe 7128 0dbe 5a4c 023e
00000170: 6197 113d fce6 28bc 343e 543e a453 0d3e
00000180: 64a0 a23d 0abc 58be e759 f0bd b0ac 363d
00000190: 400a 3b3e 9429 813c bf80 c83d 4afd 8d3d
000001a0: b87d dfbd 8e14 6abd 5724 263e 59fd 83bd
000001b0: 8a10 ec3d 2f7b f0bd 0da4 7ebd bf67 9b3d
000001c0: 720e 593d b31c d73d 1885 cabd 0d0c 003e
000001d0: 91c3 0bbe 3445 78bd e50c 2abe 08c5 25be
000001e0: 9140 4cbe d93d 3bbe ce5c bbbd 6b6c 29bc
000001f0: 8192 8c3d e339 113d 8f09 4f3e 4991 a5bd
00000200: ee9d c0bc 770e ea3d 66a1 48be 40cb 22bd
00000210: d2f4 453e f77e 0d3c 4f93 923c 8333 49bc
00000220: b907 e7bd 7ac6 883d 708a b0bd fa4d 3abc
00000230: 4f06 41bd 58a1 0bb8 dc31 7abd 53b6 97bb
00000240: e2a1 273e b254 e6bd 1527 8ebd 26b0 64be
00000250: 113a e63c 4c01 983d e64f 68be d43a 25bd
00000260: e4a4 9dbc d60f 00be 2679 bfbc d6e2 553e
00000270: 62be d83d 001c ec3d 1821 0a3d b53d 22be
00000280: 40f7 e0bd 058a ecbc b535 3dbd 4f06 1d3e
00000290: cc94 06be 69e9 373d 94db 5fbc 2e80 0abb
000002a0: 6bcc 253e d100 1f3d dd90 2ebd 7441 c4bd
000002b0: 0880 3fbe 1246 febd 3e97 aa3d 1f04 12be
000002c0: e1ed 183e e6c9 93bc e19a c13d e224 ce3d
000002d0: 41cb 89bb 2e36 f13c 23bd f33d 4b34 02be
000002e0: 34a6 d03d b9f2 29be 5740 023e c1c1 31bc
000002f0: c564 5ebd 3e0b 013e 795f 773d af45 fc3d
00000300: d725 08be 9aba 11be 9a9f df3d 5368 99bd
00000310: e21b 223e 2090 593e ce4a 353e 372c b5bd
00000320: fec0 94bc 3dcf e6bd 2518 debd 4e04 bcbd
00000330: 7b5f 01be 1809 1c3e f710 c73d 294c c5bd
00000340: c62a 1d3d c1a6 5a3e b507 0c3d dfab dc3d
00000350: f172 f53d e8f5 debd b278 5bbe 26be a93d
00000360: 385e 0dbe b640 113e b08a 27be 7327 c43d
00000370: 7f63 d3bb 710d f3bb fb17 4c3e 33bd 53be
00000380: deaa 01be 929e 84bd efbc c13d 1746 de3d
00000390: 8b10 133e a8a7 ed3d 4e81 593e 2bf8 78bd
000003a0: 328b 94bd 8b20 8d3c 7924 733d f417 cabd
000003b0: 7e4f 6a3d 7f45 c23d 5869 333d 0fa7 c93d
000003c0: 8a2c b93d 95be 1f3e fad9 09bc 1313 45be
000003d0: 4553 933d ea52 0e3d e37e e43d a271 82bc
000003e0: c69f fcbc bb2d 1ebe bd88 57be eadb c33d
000003f0: 6f15 ac3d 82a1 823c 5af3 0d3b 337a 4c3d
0.104101524 0.07098902 -0.03612824 -0.097094655 -0.026052192 0.08314472 0.19197343 -0.0752492
-0.07979824 -0.14171468 0.096919976 0.14040653 0.11081391 -0.0655378 0.1322602 -0.0856087
0.1374017 0.13277267 -0.11534515 0.018169638 0.043314293 -0.13438319 0.1360762 0.06815239
0.12240649 -0.017189259 -0.12579446 -0.053146724 0.016438607 -0.010141354 0.18470155 0.11966333
-0.03701136 -0.18257266 0.028864136 0.18647812 -0.011599532 -0.05567392 0.009702758 0.006120887
-0.14378676 0.13517255 0.06346797 -0.11384328 -0.07554589 -0.039668515 0.14345759 0.06323183
0.10923391 0.030212076 0.082972854 0.13516313 0.018848691 -0.12742956 0.030315464 -0.14821255
-0.0418306 -0.13705464 -0.04836044 0.065872476 -0.16130711 0.1445957 0.21885814 -0.18698421
-0.001082128 -0.1582773 -0.07493576 0.11133421 0.027170004 0.0918232 -0.005330453 0.1510685
-0.09897219 0.07346397 0.0074224253 0.07496136 0.00960266 0.15109213 0.048724074 0.06890543
0.06251815 0.09686853 0.21262804 -0.090796754 -0.10735897 0.09060449 0.031373266 -0.24802509
0.02911998 -0.19853812 -0.13784958 0.12724438 0.035544757 -0.010308977 0.20726854 0.13801438
0.07940748 -0.21165481 -0.117358975 0.04459828 0.18265629 0.015766896 0.09790181 0.06933077
-0.10912651 -0.05714851 0.162248 -0.064448066 0.11526592 -0.117422454 -0.06216817 0.07588147
0.05299229 0.10503521 -0.09888667 0.12504597 -0.13648821 -0.060612872 -0.16606481 -0.16188443
-0.19946505 -0.18285312 -0.091485605 -0.01034079 0.06863881 0.035455596 0.2021849 -0.080843516
-0.023512807 0.1142854 -0.19592819 -0.039744616 0.19331673 0.008636228 0.017892508 -0.012280348
-0.1128077 0.066784814 -0.08620155 -0.01137113 -0.047125157 -3.3290446e-05 -0.061082706 -0.004629889
0.16370347 -0.11246623 -0.06941048 -0.2233282 0.02810386 0.07422122 -0.22686729 -0.040339306
-0.019243665 -0.12506041 -0.023373198 0.20887312 0.10583188 0.11528778 0.033722967 -0.15843852
-0.10984659 -0.028874407 -0.046193797 0.15334438 -0.13142699 0.04490033 -0.013663191 -0.002113353
0.1619126 0.038819138 -0.04261862 -0.09582797 -0.18701184 -0.124157086 0.083296284 -0.14259385
0.14934494 -0.018040609 0.09453369 0.100656286 -0.004205138 0.02944478 0.11901309 -0.1271526
0.10187951 -0.16596498 0.12719856 -0.010849417 -0.05429532 0.12601945 0.060393784 0.123179786
-0.13295685 -0.14231339 0.109191135 -0.074906014 0.15830949 0.21246386 0.17704317 -0.08846324
-0.018158432 -0.11269996 -0.10844449 -0.091805086 -0.12634079 0.15237844 0.09720033 -0.09633667
0.03837087 0.21352674 0.034187037 0.10774969 0.11984814 -0.10886747 -0.2143276 0.08288221
-0.13805473 0.14184842 -0.16361499 0.09577837 -0.00645107 -0.007417374 0.19931023 -0.20677643
-0.12662837 -0.064755574 0.09459864 0.10853212 0.1436178 0.116042435 0.21240732 -0.060783546
-0.07253112 0.017227432 0.059360955 -0.0986785 0.057204716 0.094859116 0.043801636 0.09846317
0.09041698 0.15600045 -0.008413786 -0.19245557 0.07193617 0.03474704 0.11157014 -0.015923325
-0.030837905 -0.15447132 -0.21048255 0.0956343 0.08402526 0.015946154 0.0021659941 0.049921226

fc2.bias f4 [32]
00000000: 6779 0f3d 07e0 debd 833e fe3d 0338 973d
00000010: 2b29 473e cf61 34bb bf12 553e 4646 f83d
00000020: ed8f 3e3e 2a6b 5abd e0ca e3bd 8b1c 28be
00000030: 4d83 0bbe 3dff 803d ee7f 2dbe 6fe5 e4bc
00000040: 8dec 683d 5204 ff3d a6d9 cebd b92a 243e
00000050: 514c 47bd 358c 87bd c663 92bd 1f5d 4bbd
00000060: 0238 b33d 19e8 0f3d 6e48 fabd 4831 133e
00000070: b7fc 30bd c69b 20be 53b8 e23c ae1f 76bd
0.035027888 -0.108825736 0.12414267 0.0738373 0.19449298 -0.0027524119 0.20807932 0.121227786
0.18609591 -0.053324856 -0.1112268 -0.16417138 -0.13624306 0.06298683 -0.16943333 -0.027941434
0.056866217 0.12451996 -0.10100107 0.16031922 -0.048656765 -0.06618539 -0.071479365 -0.049649354
0.08750917 0.035133455 -0.12220846 0.14374268 -0.043209758 -0.15684423 0.027675783 -0.060088806

fc_out.weight f4 [2, 32]
00000000: 5236 9bbd 80f7 4ebe d709 8fbd 2268 41be
00000010: e56b 303d a0b1 f73b db9b 243d 21e8 8b3d
00000020: c436 27bd 221d 313c 5c95 aebd ce79 f23c
00000030: d12b 26be 3f62 09be 0288 403e 0f7a 22bd
00000040: 7cb9 3d3e 60cb 183e ecec 183c 197c 38be
00000050: f9e6 3e3e 0339 f43c 9eb6 643e 4968 2bbe
00000060: 32fe 89bc d835 4ebe c8a8 f43c 998c 34be
00000070: 0d7e 51be aa11 603d 3418 5a3e fdbd 493d
00000080: 653c 1bbd 1bee 633e d46e 073d f510 39bd
00000090: 9774 293e 51c0 c53d dd0a 513e 947d 203e
000000a0: d9a6 603e a822 d4bd 0fbd 9f3c f86f 5ebd
000000b0: 91a4 74bc 7349 403e 1734 3fbe a9ca d03d
000000c0: 5648 14be 7b70 32bd be88 8abd 74f0 2abd
000000d0: bdc1 f0bc b7ee d5bd da9d d43d 363c 67bd
000000e0: 411e 293e a322 e43b a414 43be 9168 223e
000000f0: 636b a7bb 0bc0 f3bd cfb0 d0bc 3ca5 19bd
-0.0757872 -0.20211601 -0.06984299 -0.1888738 0.043071646 0.0075590163 0.040187698 0.068313845
-0.040823713 0.010810168 -0.08524582 0.029599097 -0.16227652 -0.13416384 0.18801883 -0.039667185
0.18527788 0.14921331 0.00933383 -0.1801609 0.18642797 0.029812342 0.22335288 -0.16739
-0.016844843 -0.20137727 0.029865637 -0.17631759 -0.20458241 0.054704346 0.21298295 0.049253453
-0.037899394 0.22258799 0.03306468 -0.045182187 0.16548382 0.09655822 0.204143 0.15672904
0.21938647 -0.10358173 0.01949933 -0.054306 -0.014931814 0.18778019 -0.18672214 0.10194904
-0.14480719 -0.0435643 -0.06764363 -0.04173322 -0.029389257 -0.10445922 0.1038167 -0.056453906
0.16515447 0.006962137 -0.19050843 0.15860201 -0.005109237 -0.11901864 -0.025474934 -0.037511095

fc_out.bias f4 [2]
00000000: d377 a23c 0b63 52bc
0.019832527 -0.0128409965
