third generation DAprototypical network/final_model_and_config_v2.pth (torch, 262791 bytes, 62 tensors)

handcrafted_processor.0.weight f4 [128, 5]
000000 e9 d1 c9 3e ff 5d 85 3e 00 17 5d be 99 22 cb 3e
       0.3941796 0.26048276 -0.21590805 0.39674833
000010 90 6b ed 3d 3a d4 a2 3d 8d e3 d4 be e4 fa 50 3e
       0.115927815 0.07950635 -0.41579857 0.20408207
000020 66 7f 7c 3e 73 d2 af be 20 4d c3 3e 52 45 e0 3d
       0.24657974 -0.34340248 0.3814478 0.10950722
000030 08 07 cd 3e 7a 1c 93 3d 6e 7b ca 3d 50 25 88 bd
       0.40044427 0.07183166 0.098868236 -0.06647742
000040 91 af ac 3e e2 2e 37 3e ed d6 40 be 45 25 ae 3d
       0.33727697 0.17888978 -0.18831988 0.08503202
000050 d1 9a bc bd 34 13 d3 bd 5e ad bb bd 64 60 9d 3e
       -0.092092164 -0.10306397 -0.091639265 0.30737603
000060 20 ab fe be 66 36 d3 bd 1f df 2f bd dc 78 50 be
       -0.49739933 -0.1031311 -0.042937394 -0.20358604
000070 e3 d8 72 3d f4 dc 1f bf a7 7d 32 3d da be ce be
       0.05928887 -0.6244652 0.043576863 -0.40379983
000080 98 ca c6 3e ee 49 70 3d 3a 5a 8a be fe 16 97 3e
       0.38826442 0.058664255 -0.27021962 0.2950973
000090 6f f0 25 bd 1e a7 e3 3e 97 1b 22 bd d1 c8 61 bd
       -0.0405125 0.44463438 -0.039577093 -0.055123154
0000a0 8f 17 b4 3e 20 72 2f be 41 73 0c 3e 44 26 a2 3e
       0.35174224 -0.17133379 0.13715841 0.3166982
0000b0 a1 77 62 3e 64 43 6e be 15 65 4c 3e a8 25 d1 3d
       0.22115947 -0.23267895 0.19960435 0.102122605
0000c0 57 8c 6e 3e df c1 7f be a6 79 b6 be 94 9a 8d be
       0.23295723 -0.249763 -0.35639685 -0.27656996
0000d0 cb 9e cd be 71 1e 8b 3e fc b6 5b 3e 9d b3 a5 3d
       -0.40160212 0.27171662 0.21456522 0.08090899
0000e0 96 3a 47 3e 61 f2 27 bd 0a fe 94 3e 31 56 d4 be
       0.19455943 -0.041002635 0.29100066 -0.4147201
0000f0 31 51 19 bd 1f 80 e0 be 54 30 5c 3e 10 7c 1a be
       -0.037430946 -0.4384775 0.2150281 -0.15086389
000100 48 a4 f0 3c fc 9e c2 3c 99 4d f5 3e c9 0e bf be
       0.02937521 0.02375745 0.47910765 -0.37315968
000110 b6 fe 56 be c3 ff 9d 3d b6 67 a2 3e d5 81 24 be
       -0.20995602 0.07714798 0.3171975 -0.16065152
000120 b3 33 0a 3f 05 5c d6 be c1 00 69 be 82 e1 95 be
       0.53985137 -0.4186708 -0.22754194 -0.2927361
000130 28 5c d9 be d4 96 7b 3e 42 20 2f 3e 55 ad cd 3e
       -0.42453122 0.24569255 0.17102149 0.40171304
000140 5e 66 51 be 57 8e bf be 35 99 ad 3e 0f 1f e9 bd
       -0.20449206 -0.37413284 0.3390595 -0.11382877
000150 70 e9 9a 3e 48 0c 80 bb 43 27 b9 3e 20 40 92 be
       0.30256224 -0.003907714 0.36162767 -0.28564548
000160 64 fb 8e bd fd dc 77 3e 39 52 0e 3e 6b 37 a7 be
       -0.06981543 0.24205394 0.13898553 -0.32659468
000170 77 a8 8d 3e 61 5f d7 3d 7f ff a4 be 37 21 9a bc
       0.2766759 0.10516239 -0.32226178 -0.018814666
000180 ea f1 ed 3e 94 28 dc bd 8f 23 37 be 8f 5d 18 bf
       0.46473628 -0.10749927 -0.17884658 -0.5951776
000190 9a 94 52 be d2 46 0b 3e fe b2 19 be 69 42 c1 be
       -0.205645 0.13601235 -0.15009686 -0.3774598
0001a0 94 d5 d1 ba dc e6 f1 bd 17 6f 15 bf 9e fd 10 be
       -0.0016009086 -0.11811611 -0.58372635 -0.14159247
0001b0 60 60 e0 be d6 2c 75 be 38 ef d2 3e 92 e4 91 3c
       -0.43823528 -0.23942885 0.41198134 0.017809186
0001c0 75 0a 19 3c 0b 79 03 bf 2d a3 9b be 99 08 2e 3d
       0.009340872 -0.5135657 -0.3039793 0.042488668
0001d0 bb 72 78 3c da 31 12 bf 0d f4 ac be de 73 04 be
       0.015164073 -0.5710732 -0.33779946 -0.12934825
0001e0 cc 17 d3 3b 5b c6 6f be 47 e4 bd 3e 79 ab 03 bd
       0.006442046 -0.2341551 0.37088224 -0.03214595
0001f0 94 17 a6 be 89 5a 11 be b0 9d b6 be 35 d9 ce be
       -0.32439864 -0.14194693 -0.3566718 -0.4040009
000200 05 b7 7a 3e 05 f4 e3 bd d2 21 ab 3e 5d 1a 31 bc
       0.24483879 -0.111305274 0.3342424 -0.010809508
000210 9e be 03 bf c2 1b 25 3e 77 14 67 be d8 26 58 bd
       -0.51462734 0.1612387 -0.225664 -0.05277142
000220 1f 4d 0c bf 52 e7 6d be ac f1 2d 3e 09 65 fa bd
       -0.5480518 -0.23232773 0.16986722 -0.12226302
000230 88 b2 fe 3c 27 5d cf be c5 5f e3 3e e4 33 81 be
       0.03109099 -0.40500757 0.44409004 -0.25234902
000240 e4 08 ba bd cf 23 68 3e 10 ab 29 be 7d bf bc 3e
       -0.09083727 0.2266991 -0.16569161 0.36864844
000250 1d 66 33 3e d2 6c f6 be a8 9d bd bd b8 79 00 bf
       0.17519422 -0.48129898 -0.09258586 -0.5018573
000260 bf 9b 40 3d b0 ac b6 be bf 8f a9 3e 93 86 4a be
       0.04702353 -0.35678625 0.33117482 -0.19777898
000270 b8 43 5c 3e c0 e4 b4 3e 19 86 67 3e 5a de 9f be
       0.21510208 0.35330772 0.22609748 -0.31224328
000280 6f 9f 97 3e 04 e3 88 3e fc 85 5a bd d3 7b c3 be
       0.29613826 0.267357 -0.053350434 -0.38180408
000290 e1 10 4f 3e b6 0a 43 bd 18 4e 9d be b6 98 ca 3e
       0.20221283 -0.047617637 -0.30723643 0.39569634
0002a0 21 0b 4d bb 05 15 89 be 37 8a 15 bd 04 a9 02 be
       -0.003128715 -0.2677385 -0.036508765 -0.12759787
0002b0 2a 15 ae 3e 22 76 0d be bd 84 93 be 2a 00 7d bd
       0.34000522 -0.13814595 -0.2881221 -0.061767735
0002c0 e4 b1 e9 be 36 f0 3d 3e f8 ca 92 3e e8 f6 d5 be
       -0.45643532 0.18548664 0.28670478 -0.41789937
0002d0 6e c7 6a 3d c4 ae 87 3e f7 d0 2a 3e 88 4f fa bd
       0.057319097 0.26500523 0.16681276 -0.12222201
0002e0 b0 cf 6b 3e 85 43 a2 3c 26 5f 8e 3e 6d cb 47 be
       0.23028445 0.019807586 0.27806967 -0.19511195
0002f0 0e a8 05 be 04 85 04 3e 50 91 b2 3c d0 8b 2f be
       -0.13052389 0.12941366 0.021797806 -0.17143178
000300 27 3d 0c 3f dd 39 49 3e 29 f7 ed bd a1 04 0f be
       0.5478081 0.1965098 -0.11619408 -0.1396661
000310 37 62 da 3d 36 a4 80 3d f2 2f 31 3e 2a 0a 4e bc
       0.10663264 0.06281321 0.17303446 -0.0125756655
000320 98 87 85 be c0 77 96 bd df 39 f5 3e f3 7f 72 3e
       -0.26080012 -0.07347059 0.47895715 0.23681621
000330 2d 2e a9 be 9c fa 1e be 81 3a 11 bf 4c 56 19 be
       -0.33043042 -0.15525287 -0.56729895 -0.14974326
000340 c9 54 f8 bd de 0d 4f 3e 3e 65 bc 3d 15 bb 86 3e
       -0.121255465 0.20220134 0.09198998 0.26314607
000350 97 42 04 bf bc f7 8d be c3 6d 9a bd 9f cb 08 3f
       -0.5166411 -0.2772807 -0.07540467 0.534357
000360 65 b8 80 bd 83 5d 33 be 4e 2e 7d 3d ff d2 1c be
       -0.062851705 -0.1751614 0.061811738 -0.15314864
000370 d5 3e 1b bd d1 f0 f6 3e de 14 35 be 7e ba 0d bb
       -0.03790172 0.48230603 -0.17683741 -0.002162605
000380 43 59 03 bf 00 0b 59 3e a4 63 3e 3e f9 97 1e 3e
       -0.5130808 0.21195602 0.18592697 0.1548766
000390 4a c1 ce be 4f dd 19 bf 91 d4 a1 be 96 a5 ec 3e
       -0.40381843 -0.60103315 -0.31607488 0.46220082
0003a0 98 5b a9 3e d9 5d d6 3e af c7 bd 3b a8 04 0a 3e
       0.33077693 0.41868475 0.0057916264 0.13478339
0003b0 29 13 71 3d 2e f5 ad be 01 2a ab be 30 0f f6 be
       0.058856163 -0.3397612 -0.33430484 -0.48058462
0003c0 95 a3 d2 3c f3 78 a0 be 9a 43 70 3e 0f 31 ff bc
       0.025712768 -0.31342277 0.23463288 -0.031151323
0003d0 0e 3b 26 be 22 4a 82 be 4a 7b b7 be 23 73 b3 3e
       -0.16233465 -0.25447184 -0.3583625 0.3504878
0003e0 bb 6c 2c 3c 23 c5 b6 3e 5f f5 bd 3c 5e 8f df be
       0.01052397 0.35697278 0.023188291 -0.43664068
0003f0 94 af 81 3e 25 d3 c6 3c 4c 83 51 be 7b 49 9c be
       0.25329268 0.024270603 -0.20460242 -0.3052481

handcrafted_processor.0.bias f4 [128]
000000 89 9e c2 37 83 62 65 ba 39 ab fb 38 39 b0 f3 37
       2.3200426e-05 -0.0008750336 0.000120005054 2.9049917e-05
000010 22 f3 e8 ba d4 8a b3 36 ef 29 d4 b8 35 48 bc b6
       -0.0017772655 5.3507774e-06 -0.000101167585 -5.6112426e-06
000020 aa 03 7b 37 c4 b6 3f b6 5a 9a de b8 7c 48 0a b7
       1.4961619e-05 -2.8567601e-06 -0.00010614535 -8.242318e-06
000030 43 14 ab b8 cd ea 84 38 d0 bb a3 b7 c7 48 9c b8
       -8.1576894e-05 6.3379855e-05 -1.9518571e-05 -7.4522155e-05
000040 38 6e c2 b6 f5 e5 47 b7 a9 58 46 b8 16 5b e6 b8
       -5.7944817e-06 -1.1914865e-05 -4.728945e-05 -0.00010984221
000050 7b 17 ac 38 fe 46 f4 36 8a b3 f7 ba b2 c0 dc b7
       8.205973e-05 7.2800312e-06 -0.0018898111 -2.6315774e-05
000060 0c e1 6f b7 20 39 56 38 08 13 26 37 48 84 89 39
       -1.4297908e-05 5.1074778e-05 9.898802e-06 0.00026229233
000070 0e 96 91 b8 c6 70 f5 38 48 96 0b b8 21 82 a6 37
       -6.942089e-05 0.00011703516 -3.3280143e-05 1.9849338e-05
000080 96 57 15 3b 00 6a 00 37 68 11 4f 38 49 c9 6c b9
       0.00227878 7.654075e-06 4.9368857e-05 -0.00022581698
000090 a2 f3 88 b8 5d 49 c9 b8 06 86 f2 b9 2f 95 39 b8
       -6.5303655e-05 -9.598092e-05 -0.00046257692 -4.4246375e-05
0000a0 f4 1a d2 b7 54 d5 88 b8 25 7a 0c b7 38 17 47 b7
       -2.5046502e-05 -6.524721e-05 -8.373089e-06 -1.186673e-05
0000b0 47 12 71 b7 11 8e 08 3a a5 a9 a6 b8 4d bd 67 b6
       -1.4368975e-05 0.0005209158 -7.9470956e-05 -3.453187e-06
0000c0 04 b1 ba ba 3b 55 06 38 f2 2a 10 b8 07 bf b6 3a
       -0.0014243429 3.2027467e-05 -3.437227e-05 0.0013942429
0000d0 d4 86 5d b8 b7 e4 ee 3a 66 d8 db 37 04 1a 97 b7
       -5.2816074e-05 0.0018226121 2.6207603e-05 -1.8012717e-05
0000e0 0a e3 08 b9 b1 9e 49 b8 72 59 25 38 74 68 1a 3a
       -0.0001305455 -4.8069927e-05 3.9422368e-05 0.00058901985
0000f0 fc 2f 14 36 46 4a bc b6 4c 4a 62 38 6b be 80 38
       2.208165e-06 -5.611483e-06 5.3951793e-05 6.138984e-05
000100 a5 5e 88 37 fa de cf 38 56 d2 89 37 ef 7f 64 39
       1.6256536e-05 9.912062e-05 1.6429618e-05 0.00021791433
000110 fe 4e 92 b8 5e 1f 92 b8 35 f4 f8 36 e3 8f 00 38
       -6.976536e-05 -6.967665e-05 7.4194054e-06 3.0651583e-05
000120 71 0a b3 37 ac 8d 11 bb f3 9f 12 3a e8 99 69 b8
       2.1343325e-05 -0.0022209687 0.00055932923 -5.5694865e-05
000130 59 46 4e 37 8b da 1b ba 34 9e 11 38 e9 f7 87 b8
       1.2294936e-05 -0.0005945346 3.4718032e-05 -6.4834785e-05
000140 7d e9 a9 b7 02 22 79 35 28 0b 7b b7 42 8d 1f b9
       -2.0255096e-05 9.2809216e-07 -1.4963363e-05 -0.00015216044
000150 ef de 4b b8 7b a9 e5 b6 9e 3c 88 b7 96 01 8f 38
       -4.8606595e-05 -6.844462e-06 -1.624069e-05 6.819067e-05
000160 8b 94 cd ba 97 87 e9 38 e2 60 37 37 3f aa 79 ba
       -0.0015684528 0.00011135561 1.0930207e-05 -0.0009523965
000170 f4 96 f8 b8 ef dd 73 b8 27 0c cd b6 71 17 95 b8
       -0.00011853679 -5.8142406e-05 -6.110891e-06 -7.10924e-05
000180 55 c0 c6 38 fd 37 4e 38 0a ab d2 b7 f9 3d c4 38
       9.4772004e-05 4.916637e-05 -2.5113597e-05 9.3575516e-05
000190 46 80 dc 37 6f 05 94 38 09 2b 30 39 a2 36 91 3a
       2.6285776e-05 7.058202e-05 0.000168007 0.0011078904
0001a0 8a 07 b2 b7 8d 45 3e 37 c8 78 ad b7 8f 16 fb b5
       -2.1222764e-05 1.1341076e-05 -2.067945e-05 -1.8707523e-06
0001b0 92 04 bf b7 6b d5 61 b8 f9 81 e3 37 a0 98 18 34
       -2.2771103e-05 -5.384294e-05 2.7121032e-05 1.4211628e-07
0001c0 41 f5 e2 36 c2 1b d0 b8 66 f8 11 3a 46 ab 9d b7
       6.763876e-06 -9.923383e-05 0.0005568325 -1.8795614e-05
0001d0 18 66 e0 38 86 23 99 38 a9 7d 69 37 75 cb d2 3a
       0.00010700169 7.302225e-05 1.391714e-05 0.0016082363
0001e0 00 ea e3 37 ec 89 03 38 e7 6a 8c 37 ce 15 ba b6
       2.7169473e-05 3.1361284e-05 1.673908e-05 -5.5457704e-06
0001f0 40 8e f3 ba 62 55 94 b7 a6 29 21 b7 5f 88 67 ba
       -0.0018581823 -1.7682734e-05 -9.606045e-06 -0.00088322716

handcrafted_processor.1.weight f4 [128]
000000 45 df 67 3f 0d ab 89 3f b8 34 8c 3f f2 b3 70 3f
       0.9057506 1.0755326 1.0953588 0.94024575
000010 f4 ac 69 3f 81 45 6c 3f 4e 72 98 3f 4a c3 87 3f
       0.9127953 0.92293555 1.1909883 1.0606472
000020 f8 df 7e 3f 45 db 6c 3f 55 a5 57 3f bc b7 63 3f
       0.995605 0.9252208 0.8423665 0.8895223
000030 31 43 7c 3f 21 f6 5e 3f 73 10 7a 3f 54 ab 87 3f
       0.98540026 0.8709431 0.9768135 1.059916
000040 d9 f3 89 3f b1 75 9d 3f eb 37 8c 3f cf ad 73 3f
       1.0777541 1.2301542 1.0954565 0.95187086
000050 9e 1a 72 3f 23 13 71 3f 79 72 7d 3f ed f8 70 3f
       0.94571865 0.94169825 0.99002796 0.9412983
000060 dd 18 78 3f 28 bd 74 3f 52 d1 72 3f ee 22 7e 3f
       0.9691294 0.9560113 0.9485065 0.9927205
000070 b9 f0 89 3f b4 dd 7d 3f a9 0b 85 3f ea e5 66 3f
       1.0776588 0.9916642 1.0394183 0.9019457
000080 35 6f 7c 3f 06 40 97 3f bb 8c 87 3f cf d6 8b 3f
       0.9860719 1.1816413 1.0589823 1.0924929
000090 a3 ee 92 3f 61 4f 89 3f cb 0e 79 3f 92 7c 68 3f
       1.1479076 1.072735 0.972882 0.9081508
0000a0 4e 2d 6a 3f 07 0b 83 3f d0 85 85 3f f8 ed 82 3f
       0.9147538 1.023774 1.0431461 1.0228872
0000b0 48 46 63 3f c4 7b 80 3f 4a 11 7a 3f 3f b8 75 3f
       0.88779116 1.003777 0.9768263 0.9598426
0000c0 32 dd 8a 3f d6 cf 8b 3f bf f6 8a 3f 8c 02 64 3f
       1.0848753 1.0922801 1.0856551 0.89066386
0000d0 f6 56 84 3f 26 12 7a 3f 35 c1 83 3f e9 f6 8f 3f
       1.0339038 0.9768394 1.0293337 1.1247226
0000e0 2b f3 80 3f 0c 7c 7e 3f 6a 07 83 3f d0 95 75 3f
       1.0074209 0.9940803 1.0236638 0.9593172
0000f0 42 c4 71 3f 61 39 87 3f ab 5d 74 3f ac 2e 72 3f
       0.9444009 1.0564386 0.95455426 0.94602466
000100 4e 35 7e 3f e1 07 71 3f 56 9b 73 3f cd 12 69 3f
       0.99300086 0.9415265 0.951589 0.9104431
000110 7a 7a 76 3f f1 b0 8a 3f 98 5d 8e 3f 7b 2c 77 3f
       0.96280634 1.0835248 1.1122313 0.96552247
000120 95 ab 84 3f 6b 38 82 3f 5c 3d 74 3f 68 2f 7b 3f
       1.0364863 1.0173467 0.95406127 0.9811921
000130 c7 3d 8c 3f 8e 96 8b 3f 77 99 84 3f 11 7a 83 3f
       1.0956353 1.0905321 1.0359334 1.0271627
000140 fe eb 6a 3f f9 2d 76 3f a7 b7 7b 3f 58 3d 84 3f
       0.91766346 0.961639 0.98327106 1.0331221
000150 64 c1 7b 3f a7 f3 90 3f e0 2d 77 3f 0a 33 5a 3f
       0.98341966 1.1324357 0.96554375 0.8523413
000160 59 87 95 3f e0 8f 8a 3f 2e 85 90 3f 5a 10 98 3f
       1.168193 1.0825157 1.1290643 1.187999
000170 21 3b 89 3f c0 71 97 3f a7 d2 81 3f e1 76 85 3f
       1.072117 1.1831589 1.0142411 1.0426904
000180 97 a4 7f 3f ed 98 8d 3f 51 ea 6f 3f ef f3 8c 3f
       0.9986052 1.1062294 0.93716913 1.1011943
000190 c6 2d 94 3f 3e 6f 82 3f d2 ae 89 3f f7 d6 6a 3f
       1.1576469 1.0190198 1.0756476 0.9173426
0001a0 09 fe 71 3f b5 2a 71 3f 70 88 72 3f 87 56 67 3f
       0.9452825 0.9420579 0.9473944 0.90366405
0001b0 80 1f 87 3f d5 6f 80 3f 39 c2 6b 3f 2e 0d 73 3f
       1.0556488 1.0034128 0.92093235 0.94941986
0001c0 f4 35 61 3f 9c 08 70 3f 85 6c 90 3f a6 dd 8f 3f
       0.8797295 0.93763137 1.1283118 1.1239517
0001d0 40 55 8b 3f 28 64 8f 3f cb a4 7f 3f 7d 30 52 3f
       1.0885391 1.120244 0.9986083 0.8210524
0001e0 4d cd 80 3f 31 34 82 3f c2 61 5c 3f bf a8 80 3f
       1.0062653 1.0172178 0.86086667 1.0051497
0001f0 ef b8 7a 3f 15 a2 77 3f 56 e7 79 3f 4f f7 83 3f
       0.97938436 0.9673169 0.97618616 1.0309848

handcrafted_processor.1.bias f4 [128]
000000 b9 9f 26 be d5 5b 3b be 90 0e e7 39 41 11 67 bd
       -0.16271867 -0.1829675 0.00044070603 -0.05641294
000010 9a 08 33 be ff 41 82 bd b0 fc 02 3e 2e bb b8 bd
       -0.1748375 -0.06360244 0.12791705 -0.09020077
000020 b3 5c 11 be b9 fd e7 bd c4 48 5b be 52 8e 53 bc
       -0.14195518 -0.11327691 -0.21414477 -0.01291235
000030 bc e8 ff bc 28 70 4a be b0 39 71 be 2d 34 b4 bd
       -0.031238906 -0.19769347 -0.23557162 -0.08799014
000040 f7 8b 07 be 9d 75 c4 3d dc c7 35 be 22 01 1b be
       -0.13236986 0.095927455 -0.17752022 -0.15137151
000050 4c 20 19 be 01 0f 11 be 0c 5a 9a 3c bb 9c 3c bd
       -0.14953727 -0.1416588 0.018841766 -0.046047907
000060 b7 22 36 be c9 10 fe bc 29 39 91 bb 4a b9 0d be
       -0.1778668 -0.031013863 -0.004431863 -0.13840213
000070 12 8c 5f bd cf b4 12 be f4 95 99 3d 6d 5c 48 be
       -0.05457694 -0.14326786 0.074993044 -0.19566508
000080 12 ee 9b bc 38 b9 25 3d f0 ad 2d be 70 8a b9 bd
       -0.01903442 0.04045984 -0.16960883 -0.09059608
000090 a7 2f 0f be ed 44 cb bd 97 fd 95 bc 31 68 a4 3b
       -0.13983022 -0.09925256 -0.018309398 0.0050173034
0000a0 ac c0 ff bd d1 e9 e0 bd 45 de 49 3c a1 b2 7e bd
       -0.12487921 -0.10982097 0.01232106 -0.062182073
0000b0 24 59 fd bd 5b 1b 0a be 31 dd 49 3c 39 d3 93 bd
       -0.12370518 -0.13486998 0.012320803 -0.07218022
0000c0 c5 89 04 be 88 3e cc bd 00 b8 db bd 10 89 98 bd
       -0.1294318 -0.099728644 -0.107284546 -0.074480176
0000d0 5f bf 67 bd 82 35 9e bd 41 1a 5e bd 43 aa b4 bd
       -0.05657899 -0.077250496 -0.054224256 -0.08821537
0000e0 a4 5b a2 bd c0 97 33 3d d3 f0 0c 3d b6 e2 6a bd
       -0.07927635 0.043845892 0.034409355 -0.057345115
0000f0 a2 a7 cf bd 88 cd 81 3b 5b 8f 85 3d af 4a c5 bc
       -0.10139395 0.003961269 0.065214835 -0.024083463
000100 a3 f6 f3 bd c5 73 b5 bd 2f 22 49 bd 31 59 02 be
       -0.119122766 -0.08859972 -0.049104866 -0.12729336
000110 75 b9 8f bd e4 23 0d 3d 2c 57 98 39 19 34 ce bc
       -0.07017795 0.034458056 0.00029056647 -0.025171326
000120 bb 3a 70 be 1b 45 83 3c 84 7a 07 be 6e 36 10 be
       -0.23459904 0.016024163 -0.1323033 -0.14083263
000130 09 e4 28 bd b6 24 a4 bd d6 47 d3 bd bf d2 74 bd
       -0.041233096 -0.080148146 -0.10316436 -0.059771296
000140 63 48 32 be 8a dc b4 bd 76 c8 82 3d 42 17 1b be
       -0.17410426 -0.08831127 0.06385891 -0.15145591
000150 aa e8 d0 bd c4 0f 5f 3d b2 33 14 be 8b 48 2e be
       -0.10200627 0.054458395 -0.14472845 -0.1701986
000160 fe 29 63 3e 58 66 c4 bd 19 3e b1 bc 50 42 4b bd
       0.22183987 -0.09589833 -0.021636056 -0.049623787
000170 3c 2d db 3d 75 4e 0f bd 94 29 0b bd 0e af 9a 3b
       0.10701987 -0.03498693 -0.0339752 0.004720575
000180 a6 5d 4d bd 5e b9 f7 3d 00 9d 38 be be 8d 11 be
       -0.05013814 0.12095903 -0.18028641 -0.14214227
000190 75 b1 83 bd 0b 04 1d be b7 e3 1c be 63 13 b6 bd
       -0.064303316 -0.15333574 -0.15321241 -0.088904165
0001a0 8f 0e 62 bd 55 37 88 bd a0 68 0e bd bd 21 35 be
       -0.055189665 -0.06651179 -0.034767747 -0.17688651
0001b0 40 5c b0 bd e0 f6 36 bd f3 14 71 bd c6 a2 e7 bd
       -0.08611345 -0.044669032 -0.05885787 -0.113103434
0001c0 b7 54 3c be 9f db 32 be f1 52 a0 bd 2f 5a 92 bd
       -0.18391691 -0.17466591 -0.0782832 -0.071461074
0001d0 7b 79 d9 bc be c6 8a 3d d5 c2 06 be a7 68 db bd
       -0.026547184 0.06776188 -0.1316026 -0.1071332
0001e0 e2 4d 70 bd de 3d 35 be ec e9 1f be bc 4c 39 3d
       -0.058668025 -0.17699382 -0.15616578 0.045239195
0001f0 65 ec a6 bc 95 b6 98 bd 8b 73 d5 bd 00 1d 2b be
       -0.020376394 -0.074567 -0.10422429 -0.16710281

handcrafted_processor.1.running_mean f4 [128]
000000 bf 36 24 bd 9b d4 47 bc e1 26 0e bd 1a 0d 09 3c
       -0.040091272 -0.012196685 -0.034705047 0.00836494
000010 02 94 e9 39 6a db 4e b9 77 ae c6 bb d9 92 e2 bc
       0.00044551498 -0.00019727429 -0.0060632783 -0.027657913
000020 99 e4 00 bd 64 bf af 3c d9 4e 1f 3d 99 65 8a bc
       -0.031468008 0.021453567 0.038893554 -0.016894149
000030 bb e2 f6 3b 86 27 ea bb 79 ed 02 bd 42 e7 21 3d
       0.0075343526 -0.007145825 -0.031964753 0.039527185
000040 bc 80 ef 3c 8d 99 9e 38 bf 1f 80 bc f9 c1 0e bc
       0.02923619 7.562628e-05 -0.015640138 -0.008713239
000050 50 d0 9e 3c 12 0f 10 3c 38 59 56 bd 87 05 35 bc
       0.01938644 0.008792656 -0.05233118 -0.011048681
000060 3c 05 e8 ba 05 c1 36 3c ef 89 2e bd 4a ec 92 3b
       -0.0017701755 0.011154418 -0.042612012 0.0044837343
000070 f2 35 af b8 50 c4 d2 bc bd cf 81 3c 88 14 9d 3c
       -8.3546984e-05 -0.025728375 0.015846128 0.01917483
000080 22 89 e6 bc 7a 44 a8 3b f5 f6 0a 3b c7 89 4b 3b
       -0.028141562 0.005135116 0.0021204327 0.0031057463
000090 f6 f6 0c bb d8 8e 4c bb e5 9c 91 39 6c 44 72 3c
       -0.0021509505 -0.0031213071 0.0002777345 0.014786821
0000a0 c7 39 e9 3c 26 b8 99 3c d6 f1 8c bc f5 6f 71 bd
       0.028469933 0.018764567 -0.01720516 -0.05894466
0000b0 31 96 bb bb 9c 6b f9 bc 0f 19 0f 3d 4f 29 cd bc
       -0.0057246913 -0.03044682 0.034936007 -0.025044112
0000c0 24 33 c2 bb 25 c5 12 3d 79 58 d4 ba ae 73 16 3d
       -0.0059265066 0.035832543 -0.0016200683 0.036731414
0000d0 c5 c4 e7 bc 04 5c 40 bd 14 14 0e bd 09 bf 18 3b
       -0.02829207 -0.046962753 -0.034687117 0.0023307225
0000e0 f4 f2 64 bb 69 64 93 3c 1c 81 f7 3a 60 42 d3 3c
       -0.003493485 0.017992215 0.0018883082 0.025788486
0000f0 b8 82 8a bc b0 8d bf bc 48 03 e1 bc cf c7 1c bc
       -0.016908035 -0.023382992 -0.027467385 -0.009569122
000100 ee 78 28 3c 52 92 fd 3c ef c7 1f bd 70 05 56 3c
       0.010282738 0.03095356 -0.03900903 0.01306282
000110 59 01 1c bc 60 3f f8 3a b1 e3 d7 bb f8 b7 0d 3c
       -0.009521806 0.0018939786 -0.006588422 0.008649819
000120 f3 30 be 3c 3c c6 d1 bc 3a 84 2b bd 54 03 19 3c
       0.0232167 -0.02560722 -0.041874148 0.009339172
000130 fe 90 f1 bc 2a b7 ff bc c0 04 6f 3b 67 ad de 3a
       -0.029488083 -0.03121527 0.0036471337 0.0016988934
000140 0f c8 4e bb 62 57 c0 3c da 30 fc 3c 29 1e 28 3b
       -0.003155235 0.023479167 0.030785013 0.0025652742
000150 99 f7 97 3c e0 a3 a5 bb f9 4d 94 bc c8 47 da bc
       0.018550681 -0.005054936 -0.018103587 -0.026645556
000160 95 4b 85 3c ab af 9c 3b 22 91 13 3c e4 4c 0f bc
       0.016271392 0.0047816834 0.00900677 -0.0087463595
000170 e4 e2 40 3b 72 09 f6 3c 72 53 12 bd 87 0e c7 bb
       0.0029432112 0.0300338 -0.03572411 -0.00607473
000180 1e f5 0e bd c1 bd f2 3c 70 04 74 bc 75 24 88 3b
       -0.03490173 0.029631497 -0.014893636 0.0041547366
000190 6f b2 e1 3c 6a 96 19 bc a4 e3 91 3b 4f dc ae 3c
       0.027550904 -0.00937424 0.0044521857 0.021345286
0001a0 08 bd fa 3a f7 6e 0c 3d e8 04 0b bc b2 60 f9 bc
       0.0019129822 0.03428551 -0.008485056 -0.030441616
0001b0 6a af fa 3c 9c 99 30 bc 17 ae c9 bb 81 47 18 3d
       0.030601222 -0.010778811 -0.0061547863 0.037177566
0001c0 e2 46 02 bd 2e 94 80 3c 56 1f 04 3d 9e 59 7d 3a
       -0.03180588 0.015695658 0.032256447 0.0009664538
0001d0 d4 6d b8 bc 6a 5e a1 b8 c6 0d 7f bc fb 11 d9 3c
       -0.022513308 -7.694664e-05 -0.015567249 0.026497832
0001e0 e0 cf 52 3b c5 52 25 3d 46 7c 10 bd 76 bb 24 3c
       0.003216736 0.04036214 -0.035274766 0.01005446
0001f0 be 82 87 bb 18 4a db 3c a4 86 b3 3c de 3b 03 3c
       -0.0041354587 0.02676873 0.021914788 0.008009879

handcrafted_processor.1.running_var f4 [128]
000000 da 29 9d 3e 57 23 c2 3d c3 68 df 3e 4c 33 a2 3d
       0.30695993 0.09479397 0.43634614 0.0791994
000010 8e 47 9b 3e da 24 bf 3e 2d e2 86 3d 91 d9 6f 3e
       0.3032803 0.37332803 0.06586108 0.23422839
000020 c6 4c 8c 3e bb ee 12 3f ee 52 aa 3e c3 06 06 3f
       0.27402323 0.57395524 0.33266395 0.5235407
000030 3d 10 2c 3e 67 fc 93 3d 6d 33 ce 3d a4 9b 98 3e
       0.1680307 0.07225876 0.100684024 0.29806244
000040 52 a4 6a 3e 99 a7 30 3d cd 96 c5 3d 35 ab 18 3f
       0.22914246 0.043128584 0.096479036 0.5963624
000050 e8 87 58 3e b1 11 8c 3f 42 75 ab 3e 14 28 4e 3f
       0.21145594 1.0942899 0.33487898 0.80529904
000060 e5 ea 02 3e 22 aa 6a 3e a6 ac 6b 3e 46 57 8e 3e
       0.12784918 0.22916463 0.23015079 0.2780096
000070 32 6b 5b 3d 48 b0 04 3f d4 dc 81 3f 9a fa 81 3f
       0.053569026 0.51831484 1.0145516 1.0154603
000080 7c b2 3a 3e 29 ee be 3d 26 77 c0 3d 5a e2 03 3e
       0.18232149 0.09322769 0.09397726 0.12879315
000090 fe a5 88 3d c1 82 07 3d 94 28 e5 3e 36 e3 16 3e
       0.066722855 0.03308368 0.4475752 0.14735112
0000a0 b3 5b 4a 3f c4 45 61 3f 3e 55 bd 3e ae df 98 3e
       0.7904617 0.8799708 0.36979097 0.29858154
0000b0 f0 8a 1d 3f 11 4e b5 3e d2 e2 d0 3f f2 ac d6 3e
       0.61540127 0.35411122 1.631922 0.41928822
0000c0 8f f2 6c 3c 74 0a 6d 3e 61 87 d0 3c 7e 04 82 3e
       0.014462127 0.23148519 0.025455179 0.25394052
0000d0 aa 3b 2c 3e 10 8b 4d 3e 82 37 e5 3e cc a2 c7 3d
       0.16819635 0.2007258 0.44768912 0.09747848
0000e0 69 60 14 3d dc d1 ab 3e ae 6e c8 3f 17 d7 e2 3e
       0.036224756 0.33558547 1.5658777 0.44304726
0000f0 c3 d4 64 3e 4b b4 10 3e 43 05 6d 3e c9 69 69 3e
       0.22346787 0.14131276 0.23146538 0.2279426
000100 89 cb 10 3f 77 b6 88 3f 55 df 06 3f 49 77 35 3d
       0.5656057 1.0680684 0.5268453 0.044303212
000110 e3 83 f8 3e aa 64 86 3d 10 47 85 3f d3 23 ae 3d
       0.48538122 0.06562169 1.0412312 0.08502927
000120 68 14 74 3e 95 24 8e 3e 80 9f 83 3e c8 45 67 3f
       0.2383591 0.27762285 0.25707626 0.9034085
000130 9d 20 88 3e d6 8f aa 3d aa 34 12 3e a5 f5 50 3d
       0.26587382 0.08328216 0.14277902 0.051015515
000140 e0 2d d6 3e 68 f7 c4 3f c8 c9 54 3e c6 7d 96 3d
       0.41831875 1.5388002 0.20780098 0.07348208
000150 80 7a 31 3e 32 38 49 3f 13 11 9f 3e 7d 74 5d 3e
       0.17331886 0.7860137 0.31067714 0.21626468
000160 c4 90 11 3e b2 bc 84 3e e5 e6 be 3e 50 c7 c1 3d
       0.1421538 0.25925213 0.37285534 0.09461844
000170 58 6c 53 3d b0 ac 82 3e a5 e9 3e 3f d1 3c 90 3f
       0.051616997 0.25522375 0.74575263 1.126856
000180 6b 5c 29 3e 91 bd 9a 3e 3b ad e0 3d 52 3c 3f 3d
       0.16539161 0.30222753 0.10970541 0.046688385
000190 d7 0c 3e 3e dc 7c cd 3c 10 77 25 3d 20 ce 23 3f
       0.18559586 0.025083952 0.04039675 0.63986397
0001a0 50 2a 76 3e d7 1a f2 3e 5e 44 3d 3e 87 8e c8 3e
       0.24039578 0.47286102 0.18483111 0.3917124
0001b0 29 d5 9c 3e 4c cf 3f 3f f5 b6 57 3e a3 77 a3 3e
       0.30631378 0.74925685 0.21065886 0.31927213
0001c0 70 42 9d 3e 59 ce 97 3f 5b 40 a6 3e c4 68 70 3d
       0.3071475 1.1859847 0.32470974 0.058693662
0001d0 e4 0e 4d 3e 50 f8 b1 3c d7 30 89 3d 97 12 3b 3e
       0.20025212 0.02172485 0.066987686 0.1826881
0001e0 b7 b7 f4 3d 5d 7b b9 3e 5b 5e a5 3e d7 0f 51 3f
       0.11949103 0.3622693 0.3229855 0.81664795
0001f0 2f 61 0c 3f ff 0b c2 3e a8 86 de 3e 4d 10 d5 3e
       0.5483579 0.37899777 0.4346211 0.41614

signal_cnn_layers.0.conv1.weight f4 [16, 1, 5]
000000 f1 59 93 be 7c e7 f6 be 97 9e 5c 3e 0f 8c 93 3d
       -0.28779557 -0.48223484 0.21544872 0.072044484
000010 a1 e5 81 be 46 78 ec 3e 5a 85 46 be ec 2a 8d 3e
       -0.25370505 0.4618551 -0.19386807 0.2757181
000020 fa 42 34 3e be 6b c3 be c0 7c 99 3e a2 23 cc be
       0.17603675 -0.38168138 0.2997799 -0.39870936
000030 41 4e 8c be 93 f1 92 be ab 45 5c be e0 71 cf 3e
       -0.27403453 -0.28699932 -0.21510951 0.40516567
000040 98 e8 39 be e7 9d e2 3d e9 f5 e1 be 21 3a 79 3e
       -0.18155134 0.11065274 -0.44132927 0.2433858
000050 19 95 0b be 9d 06 ac be 29 f5 8a 3d c0 7c 63 3e
       -0.13631095 -0.33598796 0.06785042 0.22215557
000060 9c 59 ca 3e 0f 1c 8b be dc 32 5d be 97 73 cb 3d
       0.39521492 -0.27169845 -0.21601433 0.099341564
000070 b6 c3 0c 3e e5 fb 47 3e 1b f6 a6 3e df 54 1c bd
       0.13746533 0.19529684 0.3260964 -0.038166877
000080 2e fb 2f 3e c3 05 71 3e 09 db 1f be f7 6d 8a 3e
       0.17185661 0.23537354 -0.15610899 0.27037022
000090 4d 68 31 3e 38 6b a8 3e 49 f6 a0 be c9 a6 8b be
       0.17324944 0.328943 -0.314379 -0.27275684
0000a0 03 57 19 be 55 0f a2 3b a6 6c 84 3e 1a dc 86 be
       -0.14974599 0.0049456754 0.25864142 -0.263398
0000b0 40 a7 5f 3e d0 56 69 be a8 a1 59 3e ef c2 48 bd
       0.21841145 -0.22787023 0.21253073 -0.04901403
0000c0 b4 ae dc be c4 7e 80 be 2e 6d bf be 1d e7 1c 3e
       -0.43102038 -0.25096714 -0.37387985 0.15322538
0000d0 3c 1e 87 be 67 2d 1b bd ea 50 df 3d 4a 22 66 be
       -0.26390254 -0.037885096 0.10904105 -0.22474018
0000e0 11 9a 10 3e 60 75 b8 be b1 a1 b1 be 24 37 fc be
       0.14121272 -0.3602705 -0.34693673 -0.4926082
0000f0 28 28 a6 bd 45 13 dd bd e1 f4 fc 3d 41 a5 d5 bc
       -0.08113128 -0.10794691 0.123513944 -0.026079776
000100 61 09 8c 3e d8 27 d4 3e 56 ce 23 3e d7 00 3f be
       0.27350906 0.41436648 0.1599668 -0.18652664
000110 01 24 df be f4 d4 0b 3e c5 f3 84 be 5c b0 41 3e
       -0.43582156 0.13655454 -0.2596723 0.18914932
000120 ca 5a 6c 3e 92 b2 e2 3d 1d 55 01 3f d1 77 e4 3e
       0.23081508 0.11069216 0.505205 0.44622663
000130 0b b4 09 3e be fa 89 be aa 2d ee 3e ce 90 2b be
       0.13447587 -0.26949114 0.46519214 -0.16754457

signal_cnn_layers.0.bn1.weight f4 [16]
000000 7a 6f 6e 3f 16 f5 87 3f 5a 10 76 3f 2b 78 81 3f
       0.9313885 1.0621669 0.961187 1.0114797
000010 f4 bb 6d 3f f3 31 8a 3f b6 13 7d 3f 9d fb 6c 3f
       0.9286492 1.0796493 0.988582 0.9257143
000020 47 cc 8c 3f 15 e0 7d 3f 3f b1 77 3f ff 8b 7e 3f
       1.099984 0.9917005 0.9675483 0.9943237
000030 94 8a 85 3f b7 fe 84 3f d0 e1 76 3f 48 e0 7d 3f
       1.0432916 1.0390233 0.9643831 0.9917035

signal_cnn_layers.0.bn1.bias f4 [16]
000000 e7 ec 8f bd ee ab 41 3d 5c 0b 5b bd a0 20 04 3d
       -0.070276074 0.047283106 -0.05347763 0.032257676
000010 82 1e 84 3d fc ca bd bd 0b 93 27 3b 1a 2b 6d bd
       0.064511314 -0.09267232 0.0025569822 -0.057902433
000020 4d 93 c2 3d ef 7f 7f bd 08 9d 85 bd 97 68 6b bd
       0.09500752 -0.062377866 -0.06524092 -0.05747279
000030 cd cd b5 bc 76 d2 20 3b cb d8 02 bc 6f 94 e9 3c
       -0.02219286 0.0024539507 -0.007986258 0.028513161

signal_cnn_layers.0.bn1.running_mean f4 [16]
000000 07 4e bd bf 0e 6a 3e 3f 6f 27 e2 bf 09 4b 86 3e
       -1.4789437 0.74380577 -1.7668284 0.26229122
000010 02 8a e4 3e 87 05 e5 bd bf 67 91 3f 96 63 9b 3e
       0.44636542 -0.11182695 1.1359786 0.30349416
000020 97 00 13 3e ba 2d c1 bf d5 0f 59 bf 84 05 26 c0
       0.14355694 -1.509208 -0.8478978 -2.5940866
000030 ef 4f bb 3e 7e 83 4a 3e ed 7d c9 3f 34 fd 9e 3f
       0.36584422 0.19776723 1.5741554 1.2421021

signal_cnn_layers.0.bn1.running_var f4 [16]
000000 db 84 9d 40 70 cc a0 3f c5 5a e0 40 70 23 32 3e
       4.9224677 1.2562389 7.0110803 0.17396331
000010 07 48 e8 3e 95 21 0e 3d 54 bd 39 40 a1 83 6b 3e
       0.45367453 0.034699995 2.9021807 0.22999431
000020 0c 66 42 3d 52 a5 a3 40 c9 d6 ce 3f 47 c3 71 41
       0.0474606 5.1139307 1.6159297 15.110175
000030 98 28 9b 3e 39 d8 bf 3d 93 36 b2 40 24 10 5e 40
       0.30304408 0.09367413 5.569162 3.4697351

signal_cnn_layers.0.conv2.weight f4 [16, 16, 5]
000000 e9 bf d4 bb 8a b2 f6 3d bb a4 b8 3d 71 7d 3e 3d
       -0.006492604 0.120457724 0.09015795 0.04650635
000010 3e 8a 2f 3c df cb 1a be 39 b2 91 bd d6 92 31 3d
       0.010714112 -0.15116833 -0.071140714 0.043352924
000020 67 3a 0f bd e5 03 56 bd 06 f4 21 3b c5 54 b8 bc
       -0.034967806 -0.052249808 0.00247121 -0.022501359
000030 4e 9a c8 3d fd d9 57 3c d9 99 91 3d cb 90 a0 bd
       0.09795056 0.013174531 0.07109422 -0.07840117
000040 62 b1 16 bc ff ca 78 bc 80 d3 35 bd d1 f1 0f 3c
       -0.009197565 -0.015185117 -0.044391155 0.008785681
000050 d6 e0 47 3d 02 8e 69 3d d8 f7 ce bc b9 49 b2 bd
       0.048798405 0.057020195 -0.025264665 -0.08705468
000060 a5 12 1d be 8a e3 db 3d ac 78 9d 3d ea fa a2 bd
       -0.15339144 0.10736759 0.07689032 -0.07958014
000070 73 b3 0e 3d 2d 10 05 3d 19 17 bd 3c 4d 93 cf bc
       0.034839105 0.03248613 0.023082303 -0.025338793
000080 e1 83 d0 bd 6d 10 db bd 4d 8c b3 bd 80 d0 c8 bd
       -0.10181404 -0.10696492 -0.087669946 -0.09805393
000090 15 06 2d 3d 94 17 b2 bb af ea 21 3d 21 ee 6d bd
       0.04224213 -0.0054349396 0.039530452 -0.058088426
0000a0 78 c4 ce bc d4 b0 95 bc 87 8a 55 be 68 fb 49 bd
       -0.025240168 -0.018272795 -0.20853625 -0.049312025
0000b0 92 ce 86 bd 1a ab 2c bd 92 0b 89 bd bf f5 14 3e
       -0.06582369 -0.042155363 -0.0669166 0.1454687
0000c0 06 25 c4 3d 85 14 6a 3d b7 79 04 3e 6a e7 ca bc
       0.09577374 0.057148475 0.12937056 -0.02476855
0000d0 6d 7e 36 3c 1d 69 68 3d d6 1c 9e bc 9b d2 22 3b
       0.011138541 0.05674087 -0.01930086 0.002484477
0000e0 9a cb 97 bd 72 13 8a 3d f5 5f 7a bd cb f5 1d 3b
       -0.07411881 0.0674199 -0.061126668 0.0024102803
0000f0 c9 f9 40 3e f9 1c ea bc 85 c5 a0 bd 18 6f 08 3e
       0.18845285 -0.028578268 -0.07850174 0.13323629
000100 dd a5 c1 3c e3 43 7d bd 0b 40 6a 3d c3 64 d5 bd
       0.02363866 -0.06183232 0.057189982 -0.104196094
000110 ae 58 12 be 87 2f ff bd 9c 76 b8 bd af f3 ea bd
       -0.14291641 -0.12460237 -0.09006998 -0.1147226
000120 29 48 f3 bd fe 3e 5b bc d5 9c 1c bd 7c 7b c0 bd
       -0.11878998 -0.013381718 -0.038235504 -0.09398553
000130 c7 c5 15 be b7 41 c9 bd fe dd e0 bd a9 c8 c8 bd
       -0.14626227 -0.09826987 -0.10979842 -0.09803898
000140 db b3 63 bd 69 81 15 3d ad 42 07 bd 4e c9 b6 bd
       -0.055591445 0.03650037 -0.03302257 -0.089251146
000150 99 31 cd bd 7b 47 97 bc 3a 7a 08 be af b3 0d be
       -0.100192256 -0.018466702 -0.13327876 -0.13838075
000160 28 ec 08 39 e4 54 d8 bc ad 16 d6 3d 2a 22 7b bd
       0.00013057946 -0.026407667 0.10453544 -0.06131188
000170 99 93 ac bd b5 d8 40 bd 17 ff a6 3d d3 df 4d bd
       -0.084265895 -0.047081668 0.08154123 -0.050262284
000180 55 14 14 be f2 55 b3 bd fb 52 1c be 26 de ac bd
       -0.14460881 -0.08756627 -0.1526603 -0.08440809
000190 e1 d9 a3 bd ba 9e 35 3d fb fb a1 3d 49 bb 88 bd
       -0.080005415 0.044340827 0.079093896 -0.06676347
0001a0 96 ef dd bb ce 52 7d 39 6b a5 a8 3c d1 ac ca 3d
       -0.0067729456 0.00024158807 0.02058669 0.09896243
0001b0 54 f0 5b 3d bf 9d 05 3d 78 ec 08 3d 15 29 b4 bd
       0.05369599 0.03262114 0.03342864 -0.08796898
0001c0 a0 4a 04 be 09 d9 84 3b c3 b8 07 3d c7 1b 47 3d
       -0.12919092 0.004054193 0.033135187 0.048610475
0001d0 14 a3 f0 bc 7f 6a 00 be c9 cd a9 bc cd 2a 68 3c
       -0.029374637 -0.12540625 -0.020728009 0.014170361
0001e0 50 33 27 be bc 41 85 bd da f9 59 bd c4 4e ba bc
       -0.16328168 -0.065066785 -0.053216793 -0.022742637
0001f0 49 f4 d0 3b 12 bc 80 3c 82 cd 0e 3d 0c ce 05 ba
       0.0063767773 0.015714679 0.034863956 -0.0005104251
000200 05 1d 8c bc 4f 6e e7 bd b0 c0 02 3e 1c 3b a3 3c
       -0.017103681 -0.113003366 0.12768817 0.019925646
000210 a8 44 a7 3c 82 c9 81 3c 9c 75 a4 39 fb 0a 8b bd
       0.02041848 0.015843157 0.00031368143 -0.06789204
000220 c7 eb c0 3d 6c 0d 7b bd 3c 03 76 bd db d9 85 3c
       0.09419971 -0.061292097 -0.06006168 0.016339233
000230 ab 02 a9 bb e7 c6 1e bd 1b 6f 08 3b 0f 03 0f 3c
       -0.0051577887 -0.038763907 0.0020818177 0.008728757
000240 84 c9 80 3d 5c 1d c3 bd 25 4e 13 bd 3a fa 3a be
       0.06288436 -0.09527084 -0.035963196 -0.18259516
000250 e8 c5 07 be e9 c5 9a bd df e7 2b bd f1 24 b0 bc
       -0.13259089 -0.075572796 -0.041969176 -0.02150199
000260 22 84 0e be fd 68 a5 bc 15 04 9d 3c b7 1a 9f ba
       -0.13917592 -0.020191664 0.019166986 -0.0012138699
000270 18 ff 2c be d0 ae 09 be 90 a6 39 be 71 23 1a be
       -0.16894186 -0.13445592 -0.18129945 -0.15052582
000280 d6 d4 c0 3d 7c ea 36 bc 76 e5 44 3d 77 13 c9 bd
       0.09415595 -0.011164304 0.048070394 -0.09818166
000290 9c 4f 7a bd 40 98 df bd fd 5b 79 3c 67 94 b9 bd
       -0.061111078 -0.10917711 0.015219686 -0.090615086
0002a0 fd f8 90 bd 2d 8c 0b be 49 a5 10 3d db df ec 3d
       -0.07078741 -0.13627692 0.03531388 0.115661345
0002b0 2a 84 2f 3d ea 45 c7 bd 0a 00 ac bd 07 51 58 bd
       0.04285065 -0.09730132 -0.08398445 -0.05281165
0002c0 36 90 04 be ae 59 4c 3d 1a ba 1e bd 76 b7 5a bc
       -0.12945637 0.049890213 -0.0387517 -0.013349405
0002d0 d9 9f a8 bd e8 05 7c bd 92 18 4a bc ca b1 85 3c
       -0.082336135 -0.06152907 -0.01233496 0.016320128
0002e0 c2 e6 46 3b c4 e0 95 bd c4 40 df 3d 66 0f 01 bd
       0.0030349945 -0.07318261 0.10901025 -0.031508826
0002f0 ba d7 97 bd 15 5a b3 bd eb 13 8f 3d ba e2 21 bd
       -0.074141935 -0.08757416 0.06986221 -0.039522864
000300 56 33 5f bd 29 54 ae bd 45 ef 84 bd 57 0e 0b be
       -0.054492317 -0.08512146 -0.064909495 -0.13579689
000310 9f 24 04 be 54 43 96 3c df 73 45 3d 7a 0f 86 3d
       -0.12904595 0.018342651 0.048206206 0.06545921
000320 1c 1f f8 bd f9 0e 00 3d c5 66 d3 bd 94 36 14 3d
       -0.12115309 0.03126428 -0.10322336 0.036184862
000330 2d fa 62 3d 88 e2 00 3e 95 15 a8 3d e1 66 67 3d
       0.055414367 0.12586415 0.082072414 0.056494597
000340 49 f4 00 bd 25 f7 13 bd e5 f9 9d bb 3d 0a 64 3d
       -0.03148297 -0.036124367 -0.0048210495 0.055673826
000350 9a ba f3 bc e5 a5 01 bd d6 6d 30 be b3 1c 03 3c
       -0.029752064 -0.03165235 -0.17229399 0.008002448
000360 90 df 45 bd fc 8c 42 bd 4f 6d dc bd 12 b6 3c be
       -0.04830891 -0.047497734 -0.107630365 -0.1842883
000370 c1 a6 b1 bc bb 42 f1 3c 77 dc 1b 3d 44 06 02 3e
       -0.02168596 0.029450765 0.03805205 0.12697703
000380 b8 3f 74 bd e4 58 1d be 12 26 e2 3a 5a b9 ad 3c
       -0.05963108 -0.1536594 0.0017253777 0.021206547
000390 f9 4d 1b be d9 73 34 bc 62 51 5f 3d fd 0a 04 bd
       -0.15166463 -0.011013948 0.054520972 -0.03223704
0003a0 c6 f3 da bd c5 93 64 3d 57 7c 77 3c 25 5b 07 3d
       -0.10691027 0.055804987 0.0151053285 0.033045907
0003b0 6e 29 ed bd 5b db d2 3c 6a d3 ef bd 49 75 94 3d
       -0.11580168 0.025739362 -0.11710246 0.07248933
0003c0 aa 71 d9 39 53 27 c3 3d 1e 84 3e 3d fd 2f 05 3d
       0.00041474152 0.09528985 0.046512716 0.03251647
0003d0 41 0a f6 bb 03 6e ed bc 07 f4 ee bd c4 76 23 be
       -0.0075085466 -0.028983122 -0.11667638 -0.15963274
0003e0 69 13 b6 bd 09 a8 fc 3c 42 19 a5 bb 55 0b 67 3d
       -0.08890421 0.030841844 -0.0050384114 0.05640729
0003f0 ea af 06 bd 05 50 aa 3d 9a 47 92 3d 2f a0 dc bc
       -0.03288261 0.08316044 0.07142563 -0.02693185

signal_cnn_layers.0.bn2.weight f4 [16]
000000 48 11 81 3f ae 6a 7f 3f 96 84 72 3f 82 1a 6b 3f
       1.0083399 0.99772155 0.9473356 0.9183732
000010 db e4 81 3f 91 13 8c 3f f3 e1 8b 3f 11 b4 6b 3f
       1.0147966 1.0943471 1.0928329 0.92071635
000020 9e d9 80 3f a9 73 6d 3f 41 b0 67 3f 42 90 87 3f
       1.0066411 0.9275461 0.9050332 1.0590899
000030 35 85 87 3f 42 f0 6f 3f 73 b8 7d 3f 5e ea 7d 3f
       1.0587527 0.9372598 0.9910957 0.9918574

signal_cnn_layers.0.bn2.bias f4 [16]
000000 4f d3 4c bc 42 d6 d1 bb b2 f5 fb 3c ae db dc bd
       -0.012501552 -0.0064037153 0.030756805 -0.10784088
000010 e0 a4 9d 3d a8 3e 5e 3d 97 fb ca bd e8 a1 ae bd
       0.07697463 0.054258972 -0.09911268 -0.08526975
000020 fc 42 20 be d9 2c 82 bd 9c 49 6e ba e4 8f e6 3d
       -0.15650553 -0.0635621 -0.0009089948 0.11257914
000030 7f 8a 06 3d ef 69 94 3d 4b 53 44 bd e4 46 43 bb
       0.032846924 0.07246768 -0.047930997 -0.0029796893

signal_cnn_layers.0.bn2.running_mean f4 [16]
000000 86 0c 12 bf 2b 94 72 bf 3a 99 25 bf b1 c9 dd be
       -0.5705036 -0.94757336 -0.6468693 -0.4331794
000010 46 cf 18 3f 45 00 a3 3c b4 fa 39 3f dc 94 27 3e
       0.59691274 0.01989759 0.7264817 0.16365379
000020 0b e5 6b 3e 61 71 2b bf 83 8f 51 3e 9c f1 a2 bd
       0.23036592 -0.6696988 0.20464902 -0.079562396
000030 ce 8d 33 3d 27 1c 82 bf 05 bb 1b be 91 68 9d 3f
       0.043836407 -1.0164841 -0.15208061 1.2297536

signal_cnn_layers.0.bn2.running_var f4 [16]
000000 04 dc 8c 40 b8 3f af 40 68 b2 b4 3f f9 cc 84 40
       4.4018574 5.476528 1.4116945 4.150021
000010 62 3e bd 3f c0 61 4d 40 65 26 4f 40 74 c9 9d 3f
       1.4784663 3.2090912 3.2367184 1.2327104
000020 ba 36 cd 40 c5 11 bc 3e c6 24 fd 3f cd 2a ec 3e
       6.4129305 0.36732307 1.9776847 0.46126404
000030 b7 63 f0 3e 58 7a 14 41 26 2c cd 3f 82 e2 97 40
       0.46951076 9.279869 1.6029098 4.7464

signal_cnn_layers.0.downsample.0.weight f4 [16, 1, 1]
000000 f2 b6 28 be 36 bb 77 3e 5b 3f 18 3e 26 03 0b 3e
       -0.16476038 0.24192509 0.14867918 0.1357542
000010 09 2c 13 be 11 19 09 be ea 55 47 bd 29 0d 8d bd
       -0.14372267 -0.13388468 -0.04866592 -0.06887276
000020 7e 6f a1 bd 2f 8a 06 3d 9a 09 98 3d 88 3a b2 bd
       -0.078825936 0.032846626 0.07423706 -0.0870257
000030 19 3a 01 3e 50 cb 06 be 0b c6 01 3e 37 5c 0a 3e
       0.12619819 -0.13163495 0.12673204 0.1351174

signal_cnn_layers.0.downsample.1.weight f4 [16]
000000 bb 95 88 3f 66 12 82 3f 06 e0 83 3f 91 f2 88 3f
       1.0670694 1.0161865 1.0302742 1.0699025
000010 47 79 82 3f 41 54 8a 3f c4 fa 6d 3f 49 fb 75 3f
       1.0193261 1.0806962 0.9296076 0.96086556
000020 be 29 6f 3f 5c 9a 66 3f 95 80 69 3f ee 38 6b 3f
       0.9342307 0.90079284 0.91211826 0.9188374
000030 05 e2 8a 3f 31 28 8c 3f 47 bb 84 3f 79 8b 84 3f
       1.0850226 1.0949765 1.0369653 1.0355064

signal_cnn_layers.0.downsample.1.bias f4 [16]
000000 4f d3 4c bc 42 d6 d1 bb b2 f5 fb 3c ae db dc bd
       -0.012501552 -0.0064037153 0.030756805 -0.10784088
000010 e0 a4 9d 3d a8 3e 5e 3d 97 fb ca bd e8 a1 ae bd
       0.07697463 0.054258972 -0.09911268 -0.08526975
000020 fc 42 20 be d9 2c 82 bd 9c 49 6e ba e4 8f e6 3d
       -0.15650553 -0.0635621 -0.0009089948 0.11257914
000030 7f 8a 06 3d ef 69 94 3d 4b 53 44 bd e4 46 43 bb
       0.032846924 0.07246768 -0.047930997 -0.0029796893

signal_cnn_layers.0.downsample.1.running_mean f4 [16]
000000 b0 d0 af be 20 89 09 3f b6 ba 9d 3e 19 c9 8f 3e
       -0.34338903 0.5372486 0.30806512 0.28083113
000010 e2 d3 95 be 06 81 8b be f8 0d c3 bd b6 8e 10 be
       -0.29263216 -0.27246875 -0.09524149 -0.1411694
000020 3b 89 1b be 1c d4 85 3d e5 d7 19 3e f2 f7 2b be
       -0.15189068 0.06534597 0.15023763 -0.16793802
000030 7c da 82 3e 6a 4b 89 be a5 7b 84 3e 5f 44 8c 3e
       0.25557315 -0.2681535 0.25875583 0.27395913

signal_cnn_layers.0.downsample.1.running_var f4 [16]
000000 cf 96 87 3e 99 2b 27 3f ea 42 5a 3e 01 58 35 3e
       0.26482245 0.653009 0.21314588 0.17709352
000010 de f4 44 3e 84 b0 2a 3e 74 b7 a7 3c 89 3b 37 3d
       0.19234034 0.16668898 0.02047322 0.04473451
000020 7b ae 55 3d 59 4a 1d 3c 43 c3 4f 3d 85 4b 82 3d
       0.05216835 0.009600245 0.050723325 0.063620605
000030 d1 27 16 3e fa 4a 25 3e ab e8 19 3e 71 8a 2c 3e
       0.14663626 0.16141883 0.15030162 0.16849686

signal_cnn_layers.1.conv1.weight f4 [32, 16, 3]
000000 aa 82 c3 3d 01 76 66 bd c9 84 e7 bc d7 42 91 bd
       0.095464066 -0.05626488 -0.02826156 -0.07092827
000010 df 49 e5 bd 00 c8 c2 bd 8e 29 23 be 42 dd 01 be
       -0.111957304 -0.09510803 -0.1593382 -0.1268206
000020 40 02 a2 bc c8 43 b5 bd c8 75 e5 bd f5 f7 e7 3d
       -0.019776464 -0.08850819 -0.112041056 0.11326591
000030 6e 76 db bc c6 d8 21 be 1d 10 38 be 9c 10 5a 3d
       -0.02678987 -0.15805349 -0.17974897 0.053238496
000040 0c c5 4f be 61 83 32 be dc a2 fd bd ab e2 2b bd
       -0.20290011 -0.1743293 -0.123845786 -0.041964214
000050 6c 8b 4b 3a d3 02 03 be a3 3c 04 3d 85 4a 51 be
       0.0007764611 -0.12794046 0.03228439 -0.20438583
000060 43 53 e4 3d 2e d8 cc bd 16 31 12 bd f6 b3 07 3c
       0.111486934 -0.100021705 -0.035691343 0.008282652
000070 80 d5 b3 bd f9 3c db 3d 03 80 03 be 32 dd f8 bc
       -0.08780956 0.10704989 -0.12841801 -0.030378912
000080 76 39 eb bd 40 14 98 3d 87 36 e4 3d 99 c7 8c 3d
       -0.11485569 0.074257374 0.11143213 0.06874008
000090 9a 80 62 3c e3 f7 a0 bd c4 a4 09 3e f9 3a 70 3d
       0.013824606 -0.07859781 0.1344176 0.05864999
0000a0 0e bc 91 3d 55 0c 17 be 07 48 a6 bd 35 aa 29 be
       0.07115947 -0.14750798 -0.08119207 -0.16568835
0000b0 95 61 aa 3d f9 a5 fb 3c 49 04 cc bd 1d e8 8c 3c
       0.083193935 0.03071879 -0.09961755 0.017200524
0000c0 d4 f8 69 bd 9a 66 74 3c ca 81 52 3d e1 6e fb bd
       -0.057122067 0.01491704 0.051393308 -0.12277008
0000d0 0f d0 3a 3b be 63 f2 bd f4 3f 2a 3d 3e a5 fe bd
       0.002850536 -0.118354306 0.041564897 -0.12433861
0000e0 83 1e 4f 3d 00 f0 97 3d df 73 8c 3d 8f 73 cc 3b
       0.050566208 0.07418823 0.06858038 0.0062393616
0000f0 15 02 a5 3d 38 ae c8 3d 8e ec bb bc 5c cd 4e 3d
       0.08057038 0.097988546 -0.022939947 0.050488815
000100 c2 96 1b 3b 4e 5f 0a 3e 3f 10 1e 3e 59 cf 54 bd
       0.0023740982 0.13512918 0.15435885 -0.051955555
000110 0b 9a ca 3c 71 2f 92 bd ee 4a 02 3d b7 56 05 be
       0.024731657 -0.07137955 0.03180974 -0.1302136
000120 6e 6e 8f 3b 96 df b8 bd f8 0a ad 3c 74 d0 5d 3d
       0.004377178 -0.09027021 0.021123394 0.054153875
000130 b1 00 8e bd 2f fa ab 3d 0e af 9a 3d 38 31 dc bd
       -0.069337256 0.08397328 0.0755292 -0.10751575
000140 29 83 1f 3e bf ec 09 3e 58 4a fe 3d 23 d3 a5 3c
       0.15577377 0.13469218 0.12416524 0.02024228
000150 39 ab 8a 3d e2 f9 76 bd 68 d6 08 bd 51 8d 02 3e
       0.067709394 -0.0602969 -0.0334076 0.1274922
000160 36 07 ea 3d 41 cb d1 3d 9e 87 9b bd 8a b9 20 3e
       0.114271566 0.10243846 -0.07594226 0.15695778
000170 11 26 20 bc ef 8b 19 3e 22 07 16 3e e8 3d a1 3d
       -0.009774701 0.14994787 0.14651158 0.07873136
000180 1d 8a 45 3e 2d a1 e7 3d aa e7 0e 3e b5 bc 11 bd
       0.19290967 0.11310039 0.1395556 -0.035580356
000190 c6 1f 0f 3e ee f7 1e 3e 00 c3 c1 3d 07 5d c4 bc
       0.13976964 0.15524265 0.094610214 -0.02397014
0001a0 2d 7a 20 3e 18 e1 84 3d 57 22 f8 bd b6 a0 c1 3d
       0.15671606 0.06488246 -0.12115925 0.09454481
0001b0 3b 72 09 be b4 01 a8 bd 32 f4 3a be 34 56 a3 3b
       -0.13422482 -0.0820345 -0.18257216 0.0049846414
0001c0 f2 95 2f be 63 fe f2 bd ec 3f 8b 3c f6 f7 36 3d
       -0.17147043 -0.11864927 0.016998254 0.044670068
0001d0 b9 ea 33 be a3 02 f7 bd 8e de b0 bd ee fc cc bd
       -0.17570008 -0.1206105 -0.08636199 -0.1000918
0001e0 6c 14 92 bd b3 46 db 3d 87 91 23 be 50 85 08 be
       -0.071328014 0.10706844 -0.15973483 -0.13332105
0001f0 0e a5 4d bc e0 d6 a7 bd 2f d7 89 3d 2c 8e 1f be
       -0.012551559 -0.08195281 0.06730496 -0.15581578
000200 21 b0 92 bd 8f be 06 3e 14 96 57 bd 29 45 fd 3d
       -0.071625 0.1315863 -0.05263336 0.12366707
000210 50 72 c9 bd b2 18 54 bd 45 3c 11 be 0a 20 47 bd
       -0.098362565 -0.051781364 -0.14183147 -0.04861454
000220 d3 9b f0 3c 88 0e a7 bd 6b 5a 2a 3d 62 4a b0 3c
       0.029371178 -0.081570685 0.041590136 0.021519843
000230 02 e4 fc 3d c7 22 62 3d e5 43 b7 3d 10 a7 58 bb
       0.123481765 0.055208948 0.08948497 -0.0033058561
000240 9a 07 a5 3d cf a3 60 3e 0a e7 51 3d 37 c2 16 be
       0.080580905 0.21937488 0.051245727 -0.14722525
000250 ec b3 c8 bd 58 e2 1f be 5d 9f e8 3c 99 7b 17 be
       -0.097999424 -0.15613687 0.028396303 -0.14793243
000260 db 1e 17 3e f7 26 2f bd cf 13 93 bc 19 15 15 be
       0.14757864 -0.04276177 -0.017953781 -0.1455883
000270 6d 10 2a bd 10 8a df 3d 50 ea c6 bc c6 31 89 bc
       -0.04151957 0.10915005 -0.02428165 -0.016747367
000280 1d c1 23 3e 7b 20 33 bc 9c 23 84 bb 49 a2 24 3e
       0.15991636 -0.010933037 -0.0040325653 0.16077532
000290 0d ed 59 3d cd 1f 05 bd 02 bb da 3d 52 ae 14 3e
       0.053204585 -0.03250103 0.106802 0.14519623
0002a0 c6 03 95 bd f6 3f 12 3e 0c d6 a7 3d 22 67 a8 3c
       -0.0727611 0.14282212 0.08195123 0.02055699
0002b0 54 01 36 3e 2a bd 8e bd 95 a9 ed 3d ef 99 38 bd
       0.17773944 -0.06969674 0.11604611 -0.045068678
0002c0 c9 a9 b3 bd 42 82 19 3e d6 2b 62 3c 61 39 f1 3c
       -0.08772618 0.14991096 0.013804397 0.029446306
0002d0 87 63 d5 3d dd 0b b7 bd 60 62 b3 bd 11 2d 47 3d
       0.10419374 -0.089378096 -0.08758998 0.048626963
0002e0 16 64 56 3e 33 b1 00 bb e6 4b 10 3d 42 fc fc 3c
       0.20936617 -0.001963687 0.035228632 0.030882005
0002f0 be c1 56 3c f2 9b 78 bd 6d 0c 2c 3e 91 8e df 3d
       0.013107715 -0.060695596 0.16801615 0.10915864
000300 0e c6 8f ba d7 c8 8f 3d 80 54 1e be 91 b9 08 3d
       -0.0010969059 0.07020729 -0.15461922 0.033380095
000310 b1 9e 53 bd 6b 99 83 3c 3a 1b 9e 3d 8e 0d bd 3d
       -0.05166501 0.016064366 0.07720037 0.09231101
000320 51 29 6a 3d 36 c0 b5 bd 4d fd 8e bd a7 96 6a 3b
       0.05716831 -0.08874552 -0.06981907 0.0035795362
000330 26 f9 40 bd 7f e6 08 be 5d 18 0a 3e 64 65 25 3c
       -0.047112606 -0.13369177 0.13485856 0.010094974
000340 34 4c 01 be f9 f8 1b 3d cd 78 d9 3d c4 fb b7 3a
       -0.12626725 0.038079236 0.10618744 0.0014036824
000350 f4 4c 84 3d b1 a9 b9 bd 5e 82 33 3d be 59 01 3e
       0.0645999 -0.09065569 0.0438255 0.1263189
000360 b6 8b 9c 3d fc e1 34 3d 8f 2b 5c bd c8 88 9c 3d
       0.07643835 0.044160828 -0.05375248 0.076432765
000370 b4 84 02 3e 1c 73 a0 3d 79 c8 28 3d c2 78 92 3d
       0.12745935 0.07834455 0.04120681 0.07151939
000380 fc dc b1 3c 68 ef 17 bc 68 e4 fa bd d1 13 f1 bd
       0.021711819 -0.0092733875 -0.12250596 -0.11771358
000390 ae 38 72 bc fc 65 5c 3e 4b 0e ee 3d 51 19 9f bd
       -0.014784021 0.21523279 0.1162382 -0.077685006
0003a0 1e 93 41 bc ad 1a 2e 3d a4 61 b7 3c 5a 22 97 3c
       -0.011814861 0.04250591 0.022385426 0.018448997
0003b0 60 3d 99 bc 11 ec 5c 3d 2e 5c d3 3d fb 23 c2 3d
       -0.018706024 0.053936068 0.10320316 0.09479519
0003c0 50 26 cc 3d f6 61 01 3e 2b 05 1e 3c 24 e6 2d 3d
       0.09968245 0.12635025 0.009644787 0.042455807
0003d0 4a 52 96 bd fc b8 d0 3d 48 61 d4 bd c8 9d 6a 3d
       -0.07339914 0.10191533 -0.103701174 0.05727938
0003e0 6a 71 3e bd aa 34 43 3d 25 91 9a bd 90 5b de 3d
       -0.04649488 0.047657646 -0.07547215 0.10857308
0003f0 64 cf 77 3d 5d 45 06 3e 5e 77 39 be 4a 31 90 bd
       0.060500517 0.13112397 -0.18111941 -0.07040651

signal_cnn_layers.1.bn1.weight f4 [32]
000000 8a 3f 85 3f cf 61 6d 3f 18 c1 80 3f 61 0c 8a 3f
       1.0410016 0.9272737 1.0058928 1.0785028
000010 12 50 73 3f 35 c1 61 3f 2f 84 71 3f dd f8 82 3f
       0.9504405 0.88185436 0.9434232 1.0232197
000020 f4 45 67 3f c9 e6 84 3f 3e 87 5e 3f df a3 80 3f
       0.90341115 1.038293 0.86925113 1.005001
000030 f9 59 85 3f e0 19 86 3f 62 d8 7a 3f 11 6e 7b 3f
       1.0418082 1.0476646 0.97986424 0.98214823
000040 19 ef 81 3f 1c 57 88 3f 7d 4a 80 3f cf ec 77 3f
       1.0151092 1.0651584 1.0022732 0.96845716
000050 6d 11 70 3f ab f8 87 3f 05 ce 84 3f b0 ea 89 3f
       0.9377659 1.0622762 1.0375372 1.0774746
000060 d3 75 75 3f ed 8a 65 3f 45 65 7a 3f 98 10 68 3f
       0.9588291 0.8966511 0.97810775 0.9065032
000070 3d 1f 5b 3f fd 95 80 3f 71 e8 8e 3f de 46 8b 3f
       0.8559454 1.0045773 1.1164685 1.0881002

signal_cnn_layers.1.bn1.bias f4 [32]
000000 32 e6 9b 3c 58 c0 af bd db dd ca bd 98 fb 1e 3e
       0.019030664 -0.085816085 -0.09905597 0.15525663
000010 16 dd f9 bd 84 04 b4 bd dd 42 b6 bc 89 05 33 3d
       -0.12200372 -0.08789924 -0.02224868 0.04370645
000020 56 62 e0 bd 8b 2b 63 bd ba b4 24 be 85 33 f6 3a
       -0.10956256 -0.055461448 -0.16084567 0.0018783665
000030 3d 64 8f 3d e8 90 6f 3d 3e 53 18 3c 1e ae 74 3d
       0.07001541 0.058487803 0.00929719 0.059736364
000040 64 a6 f7 bc 0f 2e 05 3d 63 0d ca bd 08 e0 90 bd
       -0.030230708 0.032514628 -0.098658346 -0.070739806
000050 2d fc b8 bd be 4d f0 3d 81 a2 53 3d 7a e4 50 3d
       -0.09032474 0.11733578 0.051668648 0.050999142
000060 74 03 80 bd 04 64 27 be 04 62 b9 bc 03 19 d3 bd
       -0.06250659 -0.16346747 -0.022629745 -0.10307505
000070 2d 58 dc bd ef fa 8d 3d b9 48 57 3d 4e d1 a3 bc
       -0.10759006 0.069326274 0.052559588 -0.019997265

signal_cnn_layers.1.bn1.running_mean f4 [32]
000000 6a e9 40 bf b6 3e 3b 3f 1e 7c a7 be 1e f9 4b 3f
       -0.7535616 0.73142564 -0.3271188 0.79677
000010 8a de d7 3e 33 3f f8 be 4a 9c 4e bf 4e 35 f4 be
       0.4216197 -0.48485717 -0.8070723 -0.47696918
000020 43 57 2e be d4 fb 2f 3f ea ad 29 3f 60 ab 06 3f
       -0.17025475 0.68743634 0.66280997 0.5260525
000030 5f 1a 01 bf 26 3e 30 bf 97 25 97 3e f1 93 88 3e
       -0.50430864 -0.6884483 0.29520866 0.2667537
000040 6a 8b 86 3f 55 5a ae be bd 19 49 be a3 36 0b bf
       1.0511296 -0.34053293 -0.19638725 -0.54380244
000050 77 56 06 3f 4c 8c d1 be c4 3b fc 3e 3f 7e 4a 3f
       0.52475685 -0.4092735 0.49264348 0.79098886
000060 59 e1 19 3f 79 e1 3f bf f8 7f 55 3f 4f 4b 48 bd
       0.6010948 -0.7495342 0.8339839 -0.048899945
000070 2e 68 34 3f 16 8c 5e bc dc 2e 32 3f 61 a5 54 3e
       0.70471466 -0.013583204 0.6960275 0.20766212

signal_cnn_layers.1.bn1.running_var f4 [32]
000000 39 fb ba 3e 49 76 28 3f cb ce 22 3e c7 76 83 3e
       0.36519793 0.6580549 0.15899198 0.25676557
000010 b2 f5 ca 3f 62 5d 18 40 1e f6 33 40 83 6d 82 3f
       1.585623 2.3806996 2.8118968 1.018967
000020 c2 f8 3a 3f 38 82 a9 3e 06 19 1b 3f 24 46 07 40
       0.73035824 0.33107162 0.6058506 2.113656
000030 ac ba ad 40 39 ad 11 40 1e 07 04 40 10 20 a9 3f
       5.429037 2.2761977 2.0629344 1.321291
000040 5c 37 81 3f c3 d8 89 3e 8d a8 a3 3e 59 a6 c6 3f
       1.0095019 0.2692319 0.31964532 1.5519515
000050 97 42 34 3f 40 a8 af 3f 99 bf 04 40 22 24 10 3f
       0.7041411 1.3723221 2.0741942 0.56305134
000060 15 ad e4 3e a4 bd f8 3e d3 e7 98 40 15 b1 41 40
       0.446633 0.48582184 4.778299 3.0264332
000070 26 cd e3 3f 83 d3 26 40 32 fa 51 40 f3 58 0d 40
       1.7796981 2.6066597 3.2808957 2.208554
