sixth generation(prototypemixing)/pipeline_models_dg_zsl_phase_split/phase2_feature_extractor_handcrafted_dg_best.pth (torch, 11704 bytes, 4 tensors)

fc1.weight f4 [32, 5]
0	0x3e9776fd	0.29582968
1	0x3ec8a113	0.3918539
2	0xbe207ee0	-0.15673399
3	0x3eb8a398	0.36062312
4	0xbd5c92fa	-0.053851105
5	0x3dc51657	0.096234016
6	0xbe4ff106	-0.20306787
7	0x3e86fe13	0.26365718
8	0x3ecd7874	0.4013096
9	0xbea1369f	-0.31486985
10	0x3ec4d1ef	0.38441417
11	0x3de20519	0.110361286
12	0x3e9ba278	0.3039739
13	0x3d1be203	0.03805734
14	0x3e72a549	0.23695864
15	0xbd707e50	-0.05871421
16	0x3eae488f	0.34039733
17	0x3d7da7a7	0.061927464
18	0xbe5a0d1a	-0.2129406
19	0x3de00a80	0.10939503
20	0xbe76a388	-0.2408582
21	0x3c4d1493	0.012517112
22	0xbe4c6fcc	-0.19964522
23	0x3e94d26e	0.29066795
24	0xbea52824	-0.32257187
25	0xbe730ce6	-0.23735389
26	0xbd6fe09b	-0.05856381
27	0xbe8b619c	-0.27222908
28	0x3d5d399f	0.05401003
29	0xbed1cae0	-0.40975094
30	0x3ec96e16	0.393418
31	0xbec000ae	-0.3750052
32	0x3eb2cc85	0.3492166
33	0x3da43def	0.080196254
34	0xbe0b5516	-0.13606676
35	0x3e82de73	0.2556034
36	0x3e019a2a	0.12656465
37	0x3eaaa6a9	0.33330277
38	0x3cf22790	0.02955988
39	0xbdcd840b	-0.10034951
40	0x3de600a5	0.11230592
41	0xbddb50b4	-0.10708752
42	0x3e2ecc99	0.17070235
43	0x3ec57f3a	0.3857363
44	0x3e891ea1	0.2678118
45	0xbe5e4350	-0.21705365
46	0x3e8290d6	0.25501126
47	0x3d34e1df	0.04416072
48	0x3e4480f7	0.19189821
49	0xbe897c6d	-0.26852742
50	0xbee25fd0	-0.44213724
51	0xbe2be4e5	-0.16786535
52	0xbea64f09	-0.32482174
53	0x3ec5d57e	0.38639444
54	0x3e0cbbe3	0.13743548
55	0x3e4c01ab	0.19922511
56	0x3e0f2889	0.13980307
57	0xbd2ce6bc	-0.042212233
58	0x3ea293bf	0.31753346
59	0xbea00abc	-0.3125819
60	0x3d2b2525	0.04178347
61	0xbea5e226	-0.323991
62	0x3e216a8e	0.15763304
63	0xbe108452	-0.14112976
64	0x3de9f01c	0.1142275
65	0xbdbeb9d8	-0.09312791
66	0x3ec1ef34	0.3787781
67	0xbe807523	-0.25089368
68	0xbe7c48d8	-0.24637163
69	0xbe82d392	-0.2555204
70	0x3ec8f2ac	0.39247644
71	0x3e22e5f3	0.15908031
72	0x3eddce75	0.43321577
73	0xbeb79726	-0.35857505
74	0xbee70ecd	-0.4512848
75	0xbea50213	-0.32228145
76	0xbeb49b82	-0.35274893
77	0x3e3b488a	0.1828939
78	0x3e199948	0.14999878
79	0x3ec06032	0.3757339
80	0xbe54f530	-0.20796657
81	0xbeb80908	-0.3594439
82	0x3e60f7cd	0.21969528
83	0xbe53aace	-0.20670626
84	0x3e8f96d3	0.28044757
85	0xbe0b5950	-0.13608289
86	0x3ea9c385	0.33156982
87	0xbeb7d039	-0.3590105
88	0xbe621ffe	-0.22082517
89	0x3e1f0af8	0.15531528
90	0x3d9934e3	0.074807905
91	0xbd7fe858	-0.06247744
92	0x3e81d71e	0.25359434
93	0x3e9aae7f	0.30211255
94	0xbe9e0bdb	-0.3086842
95	0xbe840b19	-0.25789717
96	0x3ed9f98a	0.42573196
97	0xbe2fe6a1	-0.17177822
98	0xbe339a4b	-0.17539327
99	0xbedc1a01	-0.4298859
100	0xbe747783	-0.23873715
101	0x3dd15d47	0.10222869
102	0xbcf0c679	-0.029391514
103	0xbe9742f4	-0.2954327
104	0xbb2d31c1	-0.002642736
105	0xbe84e3b2	-0.25954968
106	0xbee093ca	-0.43862754
107	0xbe51fb30	-0.20505977
108	0xbeb70795	-0.35747972
109	0xbea1fa04	-0.3163606
110	0x3ef27eb2	0.47362286
111	0x3e118d7e	0.14214131
112	0x3e179f05	0.14806755
113	0xbecacf90	-0.39611483
114	0xbe85a2fd	-0.26100913
115	0xbe0bb8d1	-0.1364472
116	0x3d5e4d0b	0.054272693
117	0xbebc71c8	-0.36805558
118	0xbe3207e7	-0.17385827
119	0xbe87abba	-0.26498204
120	0x3cf3c32c	0.029756151
121	0xbe4125b6	-0.18862042
122	0x3980d24d	0.0002457075
123	0xbe8e6010	-0.27807665
124	0xbea4b964	-0.32172692
125	0xbe81932e	-0.25307602
126	0xbe09fa8b	-0.13474481
127	0xbea855f8	-0.3287809
128	0x3ed10fe9	0.4083245
129	0xbdae6719	-0.08515758
130	0x3eb59e21	0.35472205
131	0x3e407926	0.18796214
132	0xbed4b3ec	-0.4154352
133	0x3e8e90b8	0.27844787
134	0xbda6e71a	-0.08149548
135	0xbe06bc4a	-0.13157764
136	0xbedc6ec2	-0.43053252
137	0xbed70a1f	-0.4199991
138	0x3e0ea420	0.13929796
139	0xbdd73419	-0.10507984
140	0x3e1f2950	0.15543103
141	0xbed97761	-0.4247389
142	0x3e8e7b2f	0.27828357
143	0xbec42b0b	-0.3831409
144	0xbd76aea0	-0.06022513
145	0x3da13b55	0.07872645
146	0x3e6e7b4e	0.23289225
147	0x3ea9dbab	0.33175406
148	0x3ec2ba17	0.380326
149	0xbeb9e23f	-0.36305425
150	0x3dc99667	0.0984314
151	0xbe84ab9d	-0.2591218
152	0xbd1913c5	-0.03737237
153	0xbeac0fff	-0.33605954
154	0x3eba72d4	0.36415732
155	0xbeb9d0ed	-0.3629221
156	0x3e82d404	0.2555238
157	0x3ddde83c	0.10835311
158	0x3dc34d0a	0.095361784
159	0xbe5c246d	-0.2149827

fc1.bias f4 [32]
0	0x3ee5d935	0.44892278
1	0x3d9818fe	0.07426642
2	0x3db251d5	0.087070145
3	0xbecc2285	-0.39870086
4	0x3e50c812	0.20388821
5	0xbd76b660	-0.06023252
6	0xbe5a3e0b	-0.2131273
7	0x3ed09923	0.40741834
8	0x3de7a68d	0.11311064
9	0xbe706564	-0.23476177
10	0xbe73447e	-0.23756596
11	0xbc30b92b	-0.010786335
12	0x3e68d266	0.2273651
13	0xbdfadb81	-0.12248898
14	0xbe7b1bce	-0.24522325
15	0xbe21aac7	-0.15787803
16	0xbea55a03	-0.32295236
17	0x3e36cc83	0.17851453
18	0x3eb6ae5e	0.35679907
19	0xbeccd7f2	-0.40008503
20	0x3d9eb3fd	0.07749174
21	0x3e40596c	0.18784112
22	0x3d993bd9	0.07482118
23	0xbe3bcdf9	-0.18340291
24	0x3e4fff3e	0.20312211
25	0x3e5945c7	0.21218024
26	0x3e47e868	0.1952225
27	0xbddccf59	-0.10781736
28	0xbd88052f	-0.06641614
29	0x3d5d88e6	0.054085635
30	0xbdcb30b1	-0.099213965
31	0xbdc6f501	-0.097146995

fc2.weight f4 [64, 32]
0	0x3e076acc	0.13224334
1	0x3e0ab727	0.1354643
2	0xbc22ebfb	-0.009943957
3	0xbd0c0dcb	-0.03419284
4	0x3c9b76c3	0.018977528
5	0xbb0cc00b	-0.0021476771
6	0x3d31bbe9	0.043392096
7	0x3d747f12	0.059691496
8	0xbe22112b	-0.15826862
9	0xbd619729	-0.0550758
10	0x3e383457	0.17988716
11	0x3d850549	0.06495149
12	0x3b39caf3	0.0028349727
13	0xbd83d6f7	-0.06437486
14	0xbde1bc08	-0.11022192
15	0xbe136a89	-0.14396109
16	0xbd686ad2	-0.056742497
17	0x3dd052c6	0.10172038
18	0x3dce5813	0.100753926
19	0x3dcc78a6	0.09983949
20	0xbdf6c096	-0.120484516
21	0xbd9ed589	-0.07755572
22	0xbcc4a79d	-0.024005705
23	0x3e431d8c	0.1905424
24	0x3c880986	0.016606104
25	0xbc9a6f83	-0.018852001
26	0x3dc471c3	0.09592011
27	0xbd7d2736	-0.061804973
28	0xbe342421	-0.17591907
29	0x3df78e76	0.12087719
30	0xbd9b3b96	-0.075797245
31	0xbc22a912	-0.009928005
32	0xbe307a67	-0.17234193
33	0x3dd930f3	0.106050394
34	0x3e0e2280	0.13880348
35	0x3d8f9a08	0.07011801
36	0xbdf393e0	-0.11893439
37	0xbe353dfc	-0.17699426
38	0xbe10d7f2	-0.14144877
39	0x3e0437ca	0.12911907
40	0x3da02538	0.07819599
41	0x3e2165c7	0.15761481
42	0x3df09a6e	0.11748205
43	0x3d2d8c89	0.042370353
44	0xbb744c75	-0.0037277017
45	0xbddff1a0	-0.10934758
46	0xbe1e2293	-0.15442877
47	0xbe2612bd	-0.16218086
48	0x3d6c0387	0.05762055
49	0xbd5309da	-0.051523067
50	0xbd5f8134	-0.054566577
51	0xbda3c0cc	-0.079957575
52	0xbb8386e9	-0.0040138853
53	0xbde1edf2	-0.110317126
54	0xbdeadcfd	-0.114679314
55	0x3d8371ea	0.06418212
56	0xbd90c188	-0.07068163
57	0x3df65a1b	0.12028905
58	0xbd397bde	-0.045284145
59	0xbe11b6c8	-0.14229882
60	0xbda397fe	-0.079879746
61	0xbdbbf8bf	-0.09178304
62	0xbd6884fc	-0.05676745
63	0xbe2152f6	-0.15754303
64	0x3df1728a	0.11789425
65	0xbe0c7ce0	-0.13719511
66	0x3dc6c0ed	0.097047664
67	0x3dac15f4	0.08402625
68	0x3e123368	0.14277422
69	0xbe008576	-0.12550911
70	0x3e021648	0.12703812
71	0xbd973bf2	-0.073844805
72	0x3d8c35d1	0.06846202
73	0x3e356522	0.1771436
74	0x3b9feea9	0.0048807454
75	0xbb5dc819	-0.0033841191
76	0xbcdf50ee	-0.02726027
77	0xbddf1031	-0.1089176
78	0x3da994de	0.08280347
79	0xbe258014	-0.16162139
80	0x3de3a474	0.11115351
81	0x3e2fc56b	0.17165153
82	0x3e1ff0d2	0.1561921
83	0xbcc82d39	-0.024435626
84	0xbde4efbf	-0.111785404
85	0x3d893c0f	0.067009084
86	0x3dccddf6	0.10003273
87	0xbe1fbf92	-0.15600422
88	0xbd39f274	-0.045397237
89	0xbda33773	-0.079695605
90	0x3be7f2bf	0.007078498
91	0xbda2f6d2	-0.079572335
92	0xbe048c87	-0.12944232
93	0xbd7821f2	-0.060579248
94	0xbe26188e	-0.16220304
95	0x3e2e028e	0.16993162
96	0x3e2c3294	0.16816169
97	0xbd243a6a	-0.04009477
98	0xbc395b5f	-0.0113132885
99	0xbd84e8e6	-0.06489734
100	0xbe1368a9	-0.14395393
101	0xbe263e90	-0.16234803
102	0x3d8c6e88	0.0685702
103	0xbdb147a8	-0.086562455
104	0xbde38908	-0.11110121
105	0xbb0d8ff0	-0.0021600686
106	0xbcdd11ba	-0.026985992
107	0xbd70bb2e	-0.05877226
108	0x3c78c4cb	0.015183638
109	0x3b9a4262	0.0047076205
110	0xbd7b0585	-0.06128456
111	0xbd9149ca	-0.07094152
112	0xbe12996a	-0.14316335
113	0x3e3f9abb	0.18711369
114	0xbda466df	-0.080274336
115	0x3d8529bd	0.065021016
116	0xbcde0b2f	-0.027104942
117	0x3d2ac9df	0.041696426
118	0x3e2e3c57	0.17015205
119	0x3dd001b6	0.10156576
120	0xbe239c68	-0.15977633
121	0x3dc5f004	0.0966492
122	0x3e42a9de	0.19010112
123	0x3d56a603	0.052404415
124	0x3d6f175f	0.058371898
125	0x3e2d5231	0.16925885
126	0xbcc6655d	-0.024218256
127	0x3d78b499	0.060719106
128	0xbdee89d9	-0.11647386
129	0xbd303b80	-0.043025494
130	0x3e07c555	0.1325887
131	0x3dc3d7e7	0.095626645
132	0xbdd6a0ca	-0.10479887
133	0xbe0a6bad	-0.13517638
134	0xbdeb2e3c	-0.11483428
135	0xbe2f6b6d	-0.17130823
136	0xbe0c72fe	-0.13715741
137	0xbd08c9d3	-0.0333956
138	0x3e0f89c4	0.14017397
139	0x3d02a8aa	0.03189913
140	0xbdfe5e93	-0.12420382
141	0xbdf19c5a	-0.117974
142	0x3dae9426	0.08524351
143	0xbe0520a3	-0.13000731
144	0xbcf98d3f	-0.03046286
145	0x3defbc97	0.117058925
146	0xbdbb307c	-0.09140107
147	0xbaa24afb	-0.0012381965
148	0x3c8c5a23	0.017132824
149	0xbcad6da9	-0.021170454
150	0xbda75443	-0.081703685
151	0xbe16da65	-0.14731748
152	0xbe0d43a7	-0.13795339
153	0xbd9c1a7f	-0.07622241
154	0x3e401a5a	0.18760052
155	0xbda652d4	-0.08121267
156	0xbe1e7905	-0.15475853
157	0x3d2b7f35	0.04186936
158	0x3d5a27b3	0.053260516
159	0x3dde134f	0.108435266
160	0x3e1f0762	0.1553016
161	0x3da94fd8	0.08267182
162	0xbe2a3990	-0.16623521
163	0x3ca0188d	0.019542957
164	0x3dfebc7c	0.12438294
165	0xbc0aaf90	-0.008464709
166	0xbdd16818	-0.102249324
167	0x3e3947df	0.18093823
168	0xbd7fdf48	-0.062468797
169	0xbdb7489d	-0.08949397
170	0xbe01a28c	-0.12659663
171	0x3b96948a	0.004595344
172	0x3db8dbe2	0.09026314
173	0x3dacb0a2	0.084321275
174	0x3d07df78	0.0331721
175	0xbdf2a85a	-0.11848517
176	0xbe27fea2	-0.16405728
177	0x3d3ebfbb	0.046569567
178	0x3e19242d	0.14955206
179	0x3df84b99	0.12123794
180	0xbd865785	-0.06559662
181	0x3bbc7dbb	0.005752293
182	0xbdfde230	-0.123966575
183	0xbd8585c4	-0.065196544
184	0x3cb2b7d6	0.021816175
185	0x3dfef6eb	0.124494396
186	0x3e2fc063	0.17163233
187	0xbe1f1fab	-0.15539424
188	0x3d5bd1ee	0.053667
189	0xbe07c6f1	-0.13259484
190	0x3d934eb6	0.07192747
191	0x3e35ad5d	0.17741914
192	0x3ca128f2	0.019672845
193	0x3e193c86	0.14964494
194	0xbe134b49	-0.14384188
195	0xbd791b61	-0.060817126
196	0x3df880a8	0.12133914
197	0xbcdb7548	-0.026789322
198	0xbd0a7225	-0.033800263
199	0xbd808209	-0.06274802
200	0x3dfff266	0.12497406
201	0x3dc7cf7c	0.097563714
202	0x3db2014f	0.08691656
203	0xbdcb1e31	-0.09917868
204	0xbe043fe7	-0.12915002
205	0x3d761a6b	0.060083788
206	0x3d5a8a56	0.053354584
207	0xbd8ac748	-0.06776291
208	0xbd463cd5	-0.048397858
209	0x3e25d54d	0.16194649
210	0x3bbecde6	0.005822885
211	0x3cd6fb7f	0.02624297
212	0xbbfad236	-0.0076544536
213	0xbe030a47	-0.12796889
214	0xbe21c261	-0.15796806
215	0xbd801742	-0.06254436
216	0xbdc4cdb6	-0.09609549
217	0x3da9f269	0.08298189
218	0xbcfcaf89	-0.03084542
219	0xbd6fcace	-0.05854302
220	0x3de628fa	0.112382844
221	0x3d6ff5bb	0.058583956
222	0x3e05c0ae	0.13061783
223	0xbd75fe7d	-0.060057152
224	0xbdc3c2a2	-0.09558608
225	0x3d24f45c	0.0402721
226	0xbe122a5d	-0.14273973
227	0xbddf53f0	-0.10904682
228	0xbcd0d015	-0.025489846
229	0xbd91f8fb	-0.071275674
230	0xbe071664	-0.13192135
231	0x3d9bcea3	0.07607772
232	0x3df21f31	0.118223555
233	0x3c4bcf95	0.012439628
234	0xbd15e87f	-0.03659868
235	0xbe3511f2	-0.17682627
236	0xbda2a36f	-0.07941329
237	0x3d18773d	0.03722309
238	0x3d8297be	0.06376599
239	0xbc88bf91	-0.016692908
240	0xbda0147b	-0.07816406
241	0x3dd08dcb	0.10183295
242	0xbe2d5510	-0.1692698
243	0x3ddc139d	0.107459284
244	0xbd9aa5c7	-0.07551151
245	0xbc7edd94	-0.015555758
246	0xbd51026c	-0.0510277
247	0x3cc98093	0.024597442
248	0xbd95cca3	-0.07314422
249	0x3df9e528	0.12201911
250	0xbce37422	-0.027765337
251	0x3debfb88	0.11522585
252	0x3e24064e	0.1601803
253	0xbdd96eed	-0.106168605
254	0xbe0e0cbe	-0.13872048
255	0x3e0bc1b8	0.13648117

fc2.bias f4 [64]
0	0x3d293199	0.041307066
1	0xbceeaa6b	-0.029133996
2	0x3db05a87	0.08611017
3	0xbdb3ad2b	-0.087732635
4	0x3dc95bbb	0.09831949
5	0xbdedfd5d	-0.11620591
6	0xbd6e27df	-0.058143493
7	0xbdd6e370	-0.10492599
8	0x3d4bc10e	0.04974466
9	0xbd322010	-0.04348761
10	0xbe37fee4	-0.17968327
11	0xbd87ba50	-0.06627333
12	0xbd3acfcb	-0.045608323
13	0xbe023dd1	-0.12718894
14	0xbc30eedb	-0.010799135
15	0x3ce1eb86	0.027578127
16	0x3b08da4d	0.002088207
17	0xbd1839e1	-0.037164573
18	0x3d166d88	0.03672555
19	0xbe2f7b0f	-0.17136787
20	0xbe12af6b	-0.14324729
21	0xbbe21c8e	-0.0069003766
22	0x3df9d17e	0.121981606
23	0xbdabaf00	-0.08382988
24	0x3d86a357	0.06574123
25	0xbd67dcdb	-0.05660711
26	0xbce4d563	-0.027933782
27	0xbe08332a	-0.13300768
28	0x3de6e6c9	0.112744875
29	0x3e49257a	0.19643202
30	0x3cfee645	0.03111566
31	0x3e173b8c	0.14768809
32	0x3e2919ee	0.16513798
33	0x3d5a2645	0.053259153
34	0x3d8a0899	0.06739921
35	0xbe317136	-0.17328343
36	0xbe4049f6	-0.18778214
37	0xbdcd4994	-0.100237995
38	0x3d91830f	0.071050756
39	0xbe066102	-0.13122943
40	0xbe0dfdce	-0.1386635
41	0xbd57b931	-0.052666847
42	0xbe015afd	-0.12632366
43	0xbc8ab913	-0.016933953
44	0x3d771c5f	0.06032979
45	0xbd8a45c4	-0.06751588
46	0x3df30bd3	0.1186749
47	0xbd0bf2cb	-0.034167092
48	0xbd9faa4a	-0.07796152
49	0x3dd3b44a	0.10337122
50	0x3df00c84	0.11721137
51	0x3c4c561d	0.012471703
52	0xbe227938	-0.15866554
53	0xbe006b98	-0.12541044
54	0x3d232ddb	0.039838653
55	0x3dcaf923	0.099108
56	0x3df01653	0.11723008
57	0xbd3083df	-0.043094512
58	0xbe03b866	-0.12863311
59	0xbe41df28	-0.18932784
60	0xbd243050	-0.040085137
61	0xbcaa5d83	-0.020796543
62	0xbd384167	-0.044984248
63	0xbdd6ee78	-0.10494703
