sixth generation(prototypemixing)/pipeline_models_dg_zsl_phase_split/phase1_feature_extractor_handcrafted_best.pth (torch, 11680 bytes, 4 tensors)

fc1.weight f4 [32, 5]
0	0x3ea6c5cf	0.3257279
1	0x3ec72382	0.38894278
2	0xbdf95f4d	-0.1217638
3	0x3ec9bd89	0.39402416
4	0xbdb3cc3c	-0.08779189
5	0x3dc1d1eb	0.09463867
6	0xbe4e5a56	-0.20151648
7	0x3e899254	0.26869452
8	0x3ecf9234	0.40541232
9	0xbeaa721e	-0.3329019
10	0x3ec395e0	0.38200283
11	0x3dc7374a	0.097273424
12	0x3ea2c0b2	0.3178764
13	0x3d465d78	0.048428982
14	0x3e68d639	0.2273797
15	0xbd6a9c59	-0.05727801
16	0x3ead825b	0.33888516
17	0x3d76bb09	0.060236964
18	0xbe5bcaf7	-0.21464144
19	0x3ddd7337	0.10812991
20	0xbe6437e9	-0.22286953
21	0xbcf0fd16	-0.029417556
22	0xbe4b5548	-0.19856751
23	0x3e9030cf	0.28162238
24	0xbeb24371	-0.3481708
25	0xbe64bb57	-0.2233709
26	0xbdd7e9bc	-0.10542628
27	0xbe910a14	-0.28328001
28	0x3cf68aff	0.030095575
29	0xbedeaaa8	-0.43489575
30	0x3ec8bd4c	0.39206922
31	0xbec216b8	-0.37907958
32	0x3eb181f6	0.34669465
33	0x3d9b6735	0.075880446
34	0xbe096758	-0.13418329
35	0x3e85f0d7	0.2616031
36	0x3db58558	0.08863324
37	0x3eb03d5a	0.34421808
38	0x3d055a04	0.03255655
39	0xbe05121a	-0.12995186
40	0x3de6465b	0.11243888
41	0xbdf1c080	-0.118042946
42	0x3e3a267e	0.18178746
43	0x3ec90554	0.39261878
44	0x3e868f36	0.26281136
45	0xbe4de89b	-0.20108263
46	0x3e871f07	0.2639086
47	0x3d8ed9b9	0.06975121
48	0x3e5e601a	0.21716347
49	0xbe8fd56f	-0.28092524
50	0xbede90b3	-0.43469772
51	0xbe3885b8	-0.1801976
52	0xbea9e0b7	-0.33179256
53	0x3ec17d52	0.37790924
54	0x3e0b6854	0.13614017
55	0x3e4385a6	0.19093952
56	0x3e1fc1c7	0.15601264
57	0xbc9ef73d	-0.019405002
58	0x3eadd8f9	0.339546
59	0xbea78b1e	-0.32723325
60	0x3cf21dd1	0.029555233
61	0xbe9bfeeb	-0.30467924
62	0x3e1401d1	0.14453818
63	0xbe16ca87	-0.14725696
64	0x3e050bf4	0.12992841
65	0xbda0a39c	-0.07843706
66	0x3eb4e38a	0.3532985
67	0xbe7ec160	-0.24878454
68	0xbe80894b	-0.25104746
69	0xbe890f8a	-0.26769668
70	0x3ec89165	0.39173427
71	0x3e272e09	0.16326155
72	0x3ede72dd	0.4344701
73	0xbeb66276	-0.35621995
74	0xbee95c6c	-0.45578325
75	0xbead7299	-0.33876494
76	0xbea2e956	-0.31818646
77	0x3e42be13	0.1901782
78	0x3e2a6545	0.16640194
79	0x3ebb7c29	0.36618164
80	0xbe61c086	-0.22046098
81	0xbea44a68	-0.32088017
82	0x3e7a667b	0.24453156
83	0xbe352bcf	-0.17692493
84	0x3e88e637	0.2673814
85	0xbdf29b8c	-0.118460745
86	0x3e8d4686	0.27592868
87	0xbeb91df2	-0.3615566
88	0xbe747686	-0.23873338
89	0x3e18d276	0.14924034
90	0x3da7f6b4	0.08201352
91	0xbdc0cb67	-0.09413796
92	0x3e811083	0.2520791
93	0x3e956ca0	0.29184437
94	0xbea66a68	-0.32503057
95	0xbe795497	-0.24348675
96	0x3ed400c7	0.41406843
97	0xbe26d167	-0.16290818
98	0xbe2ee704	-0.17080313
99	0xbedf60d3	-0.4362856
100	0xbe7a12aa	-0.24421182
101	0x3dc0d070	0.09414756
102	0xbd406aba	-0.046976782
103	0xbea08286	-0.3134958
104	0xba372af1	-0.0006987295
105	0xbe92b17f	-0.28651044
106	0xbecd6554	-0.4011637
107	0xbe69808e	-0.22802946
108	0xbebf75b8	-0.373945
109	0xbe986530	-0.297647
110	0x3ee7cea9	0.45274857
111	0x3dd571e6	0.10422115
112	0x3e0662ed	0.13123675
113	0xbed6f31a	-0.41982347
114	0xbe93e4cc	-0.28885496
115	0xbe13545e	-0.14387652
116	0x3d693048	0.05693081
117	0xbec622b7	-0.3869836
118	0xbe3f3dfa	-0.18675986
119	0xbe8aecd6	-0.27133816
120	0x3c305939	0.01076346
121	0xbe3ae167	-0.18250047
122	0xbc81fd88	-0.015867963
123	0xbe94b801	-0.29046634
124	0xbea1f266	-0.31630248
125	0xbe7ce651	-0.24697234
126	0xbe2f12f0	-0.17097068
127	0xbeae14cb	-0.3400024
128	0x3ec63ab1	0.38716653
129	0xbdc60824	-0.096695215
130	0x3ec0a2f2	0.37624317
131	0x3e2215ac	0.1582858
132	0xbec95c65	-0.39328304
133	0x3e976569	0.29569557
134	0xbdd7b991	-0.10533441
135	0xbe1fbc64	-0.15599209
136	0xbec77160	-0.38953686
137	0xbedb2f34	-0.4280945
138	0x3e127e97	0.14306103
139	0xbdcebaf9	-0.10094256
140	0x3e341a46	0.17588148
141	0xbebdcb42	-0.37069136
142	0x3ea82fdd	0.32849017
143	0xbea9e86c	-0.33185136
144	0xbd8b0e9d	-0.06789897
145	0x3da887ed	0.08229051
146	0x3e7de1d2	0.24793175
147	0x3eb194e1	0.34683898
148	0x3ecae1d7	0.39625427
149	0xbebec3a8	-0.3725865
150	0x3df88c3e	0.12136124
151	0xbe572b4a	-0.21012607
152	0xbd10ddf8	-0.035367936
153	0xbea4bd1b	-0.32175526
154	0x3ec7fbb5	0.39059225
155	0xbeaeb8d2	-0.34125382
156	0x3e8130f9	0.25232676
157	0x3e114d37	0.14189611
158	0x3e066edc	0.13128227
159	0xbe721bed	-0.23643465

fc1.bias f4 [32]
0	0x3ed8c621	0.4233866
1	0x3dc8325f	0.097752325
2	0x3d8f9cd1	0.07012332
3	0xbeccc905	-0.39997116
4	0x3e5217d6	0.20516905
5	0xbd5463e5	-0.05185308
6	0xbe5be4e3	-0.21474032
7	0x3ecd7e41	0.40135387
8	0x3dd8898f	0.10573112
9	0xbe75bb36	-0.23997197
10	0xbe72f6f9	-0.23727025
11	0xbc056bbc	-0.008143362
12	0x3e7973ce	0.24360582
13	0xbe06005d	-0.13086076
14	0xbe778205	-0.24170692
15	0xbe2690bd	-0.16266151
16	0xbeaf567a	-0.34245664
17	0x3e31f518	0.17378652
18	0x3eb8fa2e	0.36128372
19	0xbed5113d	-0.41614714
20	0x3dbb4da5	0.09145669
21	0x3e59a9b5	0.21256144
22	0x3db5d24a	0.08878
23	0xbe2a2335	-0.16614993
24	0x3e5f7734	0.21822816
25	0x3e6326a2	0.22182706
26	0x3e3a71ee	0.18207523
27	0xbdc36a0d	-0.09541712
28	0xbdeb6c23	-0.11495235
29	0x3d82fd85	0.06396011
30	0xbdbe43a4	-0.09290245
31	0xbdf5b57e	-0.119975075

fc2.weight f4 [64, 32]
0	0x3e048121	0.12939884
1	0x3e271995	0.16318353
2	0xbb7a8812	-0.0038228077
3	0xbd097cf5	-0.033566434
4	0x3ca10c89	0.019659298
5	0x3b5a68f0	0.0033326708
6	0x3d642599	0.05569992
7	0x3d8858c5	0.066575564
8	0xbe14efc8	-0.14544594
9	0xbd5b8192	-0.053590365
10	0x3e27924a	0.16364399
11	0x3db3977e	0.08769129
12	0x3c14a509	0.009072551
13	0xbdb53df9	-0.08849711
14	0xbdbc5e36	-0.09197657
15	0xbe17838c	-0.14796275
16	0xbd4a45a6	-0.04938283
17	0x3d9de8a3	0.077103876
18	0x3dff8943	0.124773525
19	0x3dbd480c	0.092422575
20	0xbe0fff8a	-0.14062324
21	0xbdb24e14	-0.087062985
22	0xbc84d51d	-0.016214902
23	0x3e3fedd8	0.18743074
24	0x3d1d4597	0.038396444
25	0xbced4efd	-0.028968329
26	0x3db828dd	0.08992169
27	0xbd5368ec	-0.051613733
28	0xbe038e37	-0.1284722
29	0x3e16c227	0.147225
30	0xbd8b4ed3	-0.06802144
31	0xbca409aa	-0.02002414
32	0xbe2b501a	-0.16729775
33	0x3e07356c	0.13203973
34	0x3e18e738	0.14931953
35	0x3d90d2fe	0.070714936
36	0xbdf05098	-0.11734122
37	0xbe329a4e	-0.17441675
38	0xbe02666b	-0.12734382
39	0x3e103d71	0.14085938
40	0x3dc1dbae	0.09465729
41	0x3e2682f3	0.1626089
42	0x3dc94aa0	0.09828687
43	0x3d820fa3	0.06350639
44	0x3b687020	0.0035467222
45	0xbe095250	-0.13410306
46	0xbe08e565	-0.13368757
47	0xbe27c995	-0.16385491
48	0x3d8e1ea8	0.06939441
49	0xbda500a8	-0.08056766
50	0xbd00d862	-0.03145636
51	0xbdb66109	-0.08905227
52	0xbcec9d57	-0.02888362
53	0xbdfa280d	-0.1221467
54	0xbddc18ef	-0.10746943
55	0x3d6af318	0.05736074
56	0xbd496b4d	-0.049174596
57	0x3ddc411e	0.107546076
58	0xbd3bad8d	-0.045819808
59	0xbe07594f	-0.13217662
60	0xbd088ef3	-0.033339452
61	0xbd87a02d	-0.06622348
62	0xbd4819b3	-0.048852634
63	0xbe2a2a6a	-0.16617742
64	0x3deb2c9c	0.11483118
65	0xbde50eb1	-0.11184443
66	0x3dd18003	0.102294944
67	0x3daf8e6c	0.08572087
68	0x3e12e0e3	0.143436
69	0xbdf84beb	-0.12123855
70	0x3e0fba40	0.14035892
71	0xbd89155e	-0.066935286
72	0x3da44a89	0.08022029
73	0x3e35d85d	0.17758317
74	0xbc2a2183	-0.010383966
75	0x3c8d7954	0.017269768
76	0xbcba7d6b	-0.022764882
77	0xbe04d11e	-0.12970397
78	0x3dcbcd4b	0.09951266
79	0xbe2935e7	-0.16524468
80	0x3df102fc	0.11768147
81	0x3e191316	0.14948687
82	0x3e377541	0.17915823
83	0xbcfcd64e	-0.030863907
84	0xbe050b92	-0.12992695
85	0x3d711b26	0.05886378
86	0x3ddfc318	0.10925883
87	0xbe23346d	-0.15937968
88	0xbcdf3f34	-0.027251817
89	0xbdb724cd	-0.08942566
90	0x3a7e2191	0.0009694333
91	0xbd928381	-0.07153989
92	0xbdb14506	-0.08655743
93	0xbd1d93cf	-0.03847104
94	0xbe1f74b7	-0.15571867
95	0x3e245d06	0.1605111
96	0x3e283ca3	0.16429381
97	0xbc813327	-0.015771462
98	0xbbdabb02	-0.006675125
99	0xbd860c53	-0.065453194
100	0xbe11e8a4	-0.14248902
101	0xbe21c646	-0.15798292
102	0x3d9d8c00	0.076927185
103	0xbda42d7f	-0.0801649
104	0xbdcacc2a	-0.099022225
105	0xbb085f6d	-0.0020808831
106	0xbd365230	-0.044511974
107	0xbd1aa2f6	-0.037753068
108	0x3cbf3eab	0.023345312
109	0xbca20555	-0.019777933
110	0xbd3cd599	-0.04610214
111	0xbd986772	-0.07441606
112	0xbe0aa71d	-0.13540311
113	0x3e295b32	0.16538695
114	0xbd6f8251	-0.05847389
115	0x3d6bf8e5	0.05761041
116	0xbd3baf94	-0.04582174
117	0x3d083fcd	0.03326397
118	0x3e343409	0.17597975
119	0x3dc7be87	0.09753137
120	0xbe0ea98a	-0.13931862
121	0x3db21c23	0.08696773
122	0x3e3d24af	0.18471025
123	0x3d7b7367	0.061389353
124	0x3dd75055	0.10513369
125	0x3e44a052	0.19201782
126	0xbc77d2fb	-0.015125985
127	0x3d51860c	0.051153228
128	0xbde1adfd	-0.11019514
129	0xbcbb091d	-0.022831494
130	0x3e132b36	0.14371952
131	0x3dc6bb65	0.097037114
132	0xbdd26c23	-0.10274532
133	0xbe0c31ba	-0.13690844
134	0xbdd6d04f	-0.104889505
135	0xbe23b087	-0.15985309
136	0xbdf8980d	-0.121383764
137	0xbcea2564	-0.028582282
138	0x3e01b3fc	0.12666315
139	0x3d48b9f1	0.049005453
140	0xbdfe1211	-0.1240579
141	0xbe0c6faa	-0.13714471
142	0x3dd16a77	0.10225385
143	0xbe02b507	-0.12764369
144	0xbca60ebb	-0.020270696
145	0x3dcb0d1d	0.099146105
146	0xbd956509	-0.072946616
147	0xbbe3f4d3	-0.0069566756
148	0xba94037c	-0.0011292542
149	0xbd05d019	-0.03266916
150	0xbd9d9713	-0.07694831
151	0xbe1da724	-0.1539579
152	0xbe0458f9	-0.12924565
153	0xbdb26b09	-0.087118216
154	0x3e403820	0.1877141
155	0xbda8062f	-0.082043044
156	0xbdf7f62e	-0.12107502
157	0x3d799012	0.06092841
158	0x3d7dd7f6	0.061973535
159	0x3dd5707c	0.10421845
160	0x3e1afd06	0.15135583
161	0x3de03b64	0.10948828
162	0xbe2523f1	-0.16126992
163	0x3cb048ba	0.021519054
164	0x3dff5863	0.1246803
165	0xbb34259d	-0.002748824
166	0xbdb89105	-0.09012035
167	0x3e3ea84d	0.18618889
168	0xbd4f04c9	-0.050541673
169	0xbdb5cff5	-0.08877555
170	0xbe132066	-0.14367828
171	0x3cd90800	0.026493073
172	0x3dc46d3b	0.095911466
173	0x3d6e4114	0.058167532
174	0x3d53e3b9	0.051730845
175	0xbdfc1113	-0.12307944
176	0xbe214b40	-0.15751362
177	0x3cac4504	0.021029003
178	0x3e313c5f	0.17308186
179	0x3de763eb	0.11298355
180	0xbdb16c33	-0.086632155
181	0xbb64f337	-0.0034935006
182	0xbdf333f9	-0.11875147
183	0xbd8ca454	-0.068672806
184	0x3d38a101	0.04507542
185	0x3de9391c	0.11387846
186	0x3e27ec3b	0.16398709
187	0xbe14ecf0	-0.1454351
188	0x3dd5839c	0.10425493
189	0xbdd8e4a9	-0.105904885
190	0x3da1ddfc	0.07903668
191	0x3e297c15	0.1655124
192	0x3ca2689e	0.019825276
193	0x3e3164f9	0.17323674
194	0xbe0ba92b	-0.13638751
195	0xbd753712	-0.059866972
196	0x3df7f19a	0.12106629
197	0xbcc6aea4	-0.024253197
198	0xbcb3c1f5	-0.021943072
199	0xbd644dd6	-0.055738293
200	0x3e0c93d0	0.13728261
201	0x3dcb23e7	0.09918957
202	0x3d93796c	0.07200894
203	0xbda4ac1b	-0.08040639
204	0xbe00bc7d	-0.12571903
205	0x3d1b39c6	0.037896894
206	0x3d8e2949	0.06941468
207	0xbd90af0e	-0.07064639
208	0xbd28da38	-0.041223735
209	0x3e0d20aa	0.13781992
210	0x3cd8593b	0.026409736
211	0x3c9ecba8	0.01938422
212	0xbcde3bce	-0.027128126
213	0xbe0f313c	-0.13983625
214	0xbe1cf813	-0.15329008
215	0xbd8a2861	-0.06745983
216	0xbd9f1d5f	-0.07769274
217	0x3d93ce6d	0.07217107
218	0xbd0af182	-0.033921726
219	0xbd5687db	-0.052375656
220	0x3e1e5dd4	0.1546548
221	0x3da4f1bb	0.08053919
222	0x3e0e9635	0.13924487
223	0xbd8d3abc	-0.06895968
224	0xbdab39f1	-0.08360661
225	0x3d71ff38	0.059081286
226	0xbe041f5f	-0.12902592
227	0xbdd87cfd	-0.105707146
228	0xbcab2923	-0.020893639
229	0xbd9ddbfa	-0.07707973
230	0xbdf118fd	-0.11772344
231	0x3dbc3271	0.091893084
232	0x3e056540	0.13026905
233	0x3cbb497f	0.022862194
234	0xbd24f903	-0.04027654
235	0xbe25ff90	-0.1621077
236	0xbda46290	-0.08026612
237	0x3d066c5f	0.032818194
238	0x3dabdad6	0.08391349
239	0xbc9ffa19	-0.019528436
240	0xbd96869d	-0.07349894
241	0x3db2b338	0.087255895
242	0xbe1a85ec	-0.1509015
243	0x3dd4847a	0.103768304
244	0xbda28d23	-0.07937076
245	0xbc4cebef	-0.012507423
246	0xbd3aed1a	-0.045636274
247	0x3c21a91a	0.009866977
248	0xbd7fef7c	-0.06248425
249	0x3dee4c94	0.116357
250	0xbc916b16	-0.017751258
251	0x3e01c4c8	0.12672722
252	0x3e399587	0.18123446
253	0xbdb29516	-0.08719842
254	0xbe0e085d	-0.13870378
255	0x3e0cadbe	0.13738152

fc2.bias f4 [64]
0	0x3cd544da	0.026033808
1	0xbd3506f0	-0.04419607
2	0x3d90bbbd	0.07067058
3	0xbdce468d	-0.1007205
4	0x3daed444	0.0853658
5	0xbe07f237	-0.13275991
6	0xbd970d8e	-0.07375632
7	0xbddbf3a1	-0.10739828
8	0x3d86facd	0.06590805
9	0xbcce6735	-0.025195697
10	0xbe387d04	-0.1801644
11	0xbda79da1	-0.08184362
12	0xbd782721	-0.06058419
13	0xbe12880a	-0.14309707
14	0x3b70a2a1	0.0036718028
15	0x3d31d8b9	0.043419573
16	0xbc618fbb	-0.013767178
17	0xbd5bd11d	-0.053666223
18	0x3c9acd96	0.01889686
19	0xbe22e760	-0.15908575
20	0xbe01ea94	-0.1268714
21	0x3b9a1336	0.004701997
22	0x3e0c892c	0.13724202
23	0xbd953a2d	-0.07286487
24	0x3da763e7	0.08173352
25	0xbd8e6811	-0.06953443
26	0xbd0261bc	-0.031831488
27	0xbe17d235	-0.14826281
28	0x3e0172ec	0.12641495
29	0x3e4320cf	0.19055484
30	0x3c824d41	0.015905978
31	0x3e06ae19	0.1315235
32	0x3e25e113	0.1619914
33	0x3d8e6f06	0.0695477
34	0x3d9a8313	0.07544532
35	0xbe36719b	-0.17816775
36	0xbe3c6b3b	-0.1840028
37	0xbdee9e07	-0.11651235
38	0x3d955687	0.072918944
39	0xbe14aebe	-0.14519784
40	0xbe19b949	-0.15012087
41	0xbd89275f	-0.066969626
42	0xbe125ae6	-0.14292488
43	0xbbd4b096	-0.0064907772
44	0x3d348d34	0.044079974
45	0xbdac804c	-0.08422908
46	0x3e06459d	0.13112493
47	0xbd467bbe	-0.048457853
48	0xbd861b6a	-0.065481976
49	0x3decdcfd	0.11565588
50	0x3e0759fe	0.13217923
51	0xbaec1f98	-0.0018014787
52	0xbe137c74	-0.14402944
53	0xbddd95ee	-0.108196124
54	0x3ce407c1	0.027835729
55	0x3db78fcd	0.08962975
56	0x3dd343ea	0.10315688
57	0xbd6ee509	-0.058323894
58	0xbe167b1f	-0.14695404
59	0xbe31acd1	-0.1735108
60	0xbd2157b2	-0.039390273
61	0xbbdfda46	-0.00683144
62	0xbd761ad9	-0.060084198
63	0xbdf54e39	-0.119778104
