sixth generation(prototypemixing)/pipeline_models_dg_zsl_phase_split/stage2_maturity_classifier_strawberry_ft_cnn_best.pth (torch, 19296 bytes, 4 tensors)

fc1.weight f4 [32, 128]
00000000: 7e65 103d 6108 66bd 58ed f8b9 fedf 0cbd
00000010: c89d 873d dcf5 323c 1059 1ebd f1f9 83bd
00000020: 0024 4bbd b9cc f03c 49d9 b1bd dfa7 abbc
00000030: af8a 5fbd f3ac 8a3d 89a9 c33c ed39 52bd
00000040: 3bce 4cbd 2d0a 28bd 85c1 7ebd d29b 183d
00000050: e1be 5f3d b811 9f3d 37f6 873d 6326 9c3b
00000060: f30b d7bb 4ccf ec3c 3597 8cbd 2cce 793d
00000070: 4866 61bd 21ef 9bbd 23be 80bc 5726 2d3d
00000080: 922c 07bd e7c3 d0bc cc9c 7dbb f91e e93c
00000090: 052d 8a3d 87c1 5fbd 4fb9 893d ced1 83bd
000000a0: 4a64 ae3d 190e cd3b 1c05 6e3d 6b05 b0bc
000000b0: 47cd 1bbd 80b2 aa3d 1cf5 8c3d 3ef1 39bd
000000c0: bea0 b03b 6ead 983d a6e7 c73c 6f0a 443d
000000d0: 7f7e 8f3b df01 4bbd 1645 b9bd ecc8 26bd
000000e0: fb2c 903d 095a 8ebd c112 003d 62ea 14bd
000000f0: 4606 b9bd 3363 6abd 9c3c dabc ae4f b73d
00000100: 44d6 653d 549c 74bd 9735 e13c d410 483d
00000110: 4679 7a3d bc9b 953d 9f13 06bd 2442 563d
00000120: 78ca 6dbd d798 a9bd 9679 a23d 7024 913c
00000130: 307e ac3c 2ac6 8dbc 3c2c 93bd b827 abbd
00000140: 09c7 9abc c000 a43d bd8c b3bd 0fae 8c3d
00000150: 95cd 6fbd c17d 76bc 3295 813d aa83 2fbc
00000160: adb9 6c3c 2872 a23d 4490 66bd 2245 843d
00000170: d430 473c 4979 9cbd 95d4 87bd c940 823d
00000180: 448f 603c 9f5e 66bd 52ec 453d 8808 54bd
00000190: 5725 113d d9ef 7f3d 31d7 72bd bdeb 9c3c
000001a0: 7f87 6ebc 685a 163c 9017 99bb a393 23bd
000001b0: dcf0 8ebd 13f5 5d3d e301 213d 191e c2bc
000001c0: 5c08 9ebd 0ab8 94bc 7e08 403d 889f 2cbd
000001d0: 70ac acbd 8b8e a8bd ec5a 42bd 3884 a03d
000001e0: 9790 fa3c 45c2 853b 7263 edbb 02ee 323d
000001f0: 6e50 b3bc 3c3a 943d 0ecc 78bd a4de 0ebd
00000200: 7d37 88bd 6642 1d3d 9975 acbd 9592 393d
00000210: 1136 403d 74e5 acbd 1ef2 5abd 2788 4ebd
00000220: 8c96 da3c 4bd0 413d 0e9a 143d 92c2 243d
00000230: 6c54 84bd 388d 90bd 1695 71bc 4ec8 143c
00000240: dff9 e1bc 27e9 b5bc 2209 2cbd 3158 5a3d
00000250: d0b7 c73c 7d9b f6bc 604c 893d 8d69 a4bd
00000260: becf a1bd 1688 843d f866 f5bc 26e4 81bd
00000270: bf73 aabd a596 81bd 4d81 7fbd 001f 63bd
00000280: bda6 743d 5551 633d f3cd 92bd 55af d1ba
00000290: 7962 853c d932 c73c 62bf 923d e298 9f3d
000002a0: 61eb 32bb 058b ac3d e49b 81bd a45d c2bc
000002b0: 8623 953d d5c7 05bd 7a6b 053d f0b3 8f3d
000002c0: 3c76 02bd efa4 773d 9de1 e9bc d579 5ebd
000002d0: 54ba 5ebb 3135 eb3c 7968 c43c 8f41 8abd
000002e0: c48d 533d 4bbd 303d 7079 043b 385f c7bb
000002f0: dcc5 1339 7b6d 4cbc c5eb 5bbd 09a6 bb3c
00000300: 510e 84ba 394f 3cbc b4bd 8c3d fa36 eb3c
00000310: d14e 67bd 109b b2bc 7183 7fbb 44dd acba
00000320: 52c9 bf3b 4706 413d 44c6 9dbd 21b4 07bc
00000330: 72f0 1e3b 93d3 16bc 7c70 c2bb 418d 46bd
00000340: 4d54 9dbb 0d2b 2a3d e98f 633d 64ac 9dbd
00000350: fa67 77bd 81be ac3b 0fe1 85bd fead 2fbd
00000360: bb4f 87bd c1a8 183d 26ef 08bc 226f 063d
00000370: 0ad5 38bc 5b04 83bd 7ace 8c3a f6f6 97bd
00000380: 6124 28bd b42f c038 ad3c 6e3c 1f96 96bb
00000390: 9454 acbc 29f7 0cbd 3851 463d a52a 02bc
000003a0: 2228 623d c1c2 95bd 1868 71bd 2b4a ae3d
000003b0: d5a2 b23d 1273 993d 1b6d 9abd 3865 9b3d
000003c0: 443e 88bd b5c3 8fbd d72e 7dbc c4a0 c5bc
000003d0: 0a94 1e3c 751d 253d 82e7 313d 4b23 363c
000003e0: f18d 31bd 83a2 6dbc 0e4b 853d ae88 693d
000003f0: 60d6 233d 76c6 81bd 6107 cd3c befd 8ebd
0.03525304 -0.056160334 -0.0004747908 -0.034393303 0.06621891 0.010922875 -0.038659155 -0.06444157
-0.04959488 0.029394494 -0.08684022 -0.02095407 -0.05457562 0.06771269 0.023884552 -0.051324774
-0.050001364 -0.04102533 -0.062196273 0.037257977 0.054625396 0.077670515 0.06638759 0.0047653182
-0.0065627038 0.02890744 -0.06864778 0.060987636 -0.055029184 -0.076139696 -0.015715664 0.04227289
-0.03300149 -0.025484039 -0.0038698195 0.028457152 0.06746868 -0.05462792 0.06724798 -0.064365014
0.08515222 0.006257784 0.05811034 -0.021486958 -0.038037565 0.083348274 0.068826884 -0.045396082
0.0053902557 0.07454954 0.02440245 0.047861513 0.004379093 -0.04956233 -0.0904638 -0.040718958
0.07039829 -0.069507666 0.031267885 -0.036356337 -0.090344 -0.05722351 -0.026640229 0.089507446
0.056112543 -0.0597194 0.027491374 0.048844174 0.06115081 0.073050946 -0.032733556 0.05230917
-0.058054417 -0.08281105 0.07933347 0.01771757 0.021056265 -0.017306406 -0.071861714 -0.08357185
-0.018893735 0.080079556 -0.08767078 0.068691365 -0.058545668 -0.0150446305 0.06327285 -0.0107125435
0.014448565 0.0793193 -0.056289926 0.064584985 0.012157638 -0.07640321 -0.06632344 0.06360013
0.013706032 -0.05624258 0.048321076 -0.05176595 0.035436 0.062484596 -0.059287254 0.019155378
-0.014558672 0.009176828 -0.0046719983 -0.03993572 -0.06979534 0.0541888 0.03930844 -0.023695992
-0.07716438 -0.018154163 0.0468831 -0.04214433 -0.08431327 -0.08230313 -0.04744999 0.07837719
0.030586524 0.0040819966 -0.007244521 0.043684013 -0.021888938 0.0723767 -0.060741477 -0.034880295
-0.066512085 0.0383934 -0.084208675 0.045305807 0.04692656 -0.08442202 -0.053453557 -0.050422814
0.026683114 0.047317784 0.03627973 0.04022462 -0.06461415 -0.07058185 -0.0147450175 0.0090809595
-0.027584968 -0.022205902 -0.042000897 0.053306762 0.02437964 -0.03010344 0.067040205 -0.08027945
-0.07900952 0.06471269 -0.029956326 -0.06342344 -0.08322858 -0.06327561 -0.06237917 -0.055449486
0.059729327 0.055497486 -0.07168188 -0.0015997688 0.016282307 0.024316238 0.071654096 0.07792832
-0.0027300941 0.08424953 -0.06328562 -0.023726292 0.07282166 -0.032661278 0.0325732 0.07016742
-0.03185104 0.060460027 -0.028549964 -0.054315407 -0.0033985572 0.028711887 0.023975598 -0.067507856
0.05164887 0.043149274 0.0020213984 -0.006084349 0.00014092721 -0.012477274 -0.053691644 0.02290632
-0.0010075067 -0.0114934975 0.068721205 0.028712738 -0.05647165 -0.021802455 -0.0038988257 -0.0013188501
0.0058528567 0.047125127 -0.07703832 -0.008282692 0.0024252203 -0.009205717 -0.0059338193 -0.048474554
-0.004801309 0.041544963 0.055557165 -0.076988965 -0.060401894 0.0052717333 -0.06537067 -0.04289054
-0.06607004 0.03727031 -0.008357799 0.03282083 -0.011281261 -0.06397315 0.0010742687 -0.07420151
-0.04105032 9.164159e-05 0.014540833 -0.0045955325 -0.021036424 -0.034415398 0.0484173 -0.007944738
0.055214055 -0.07312537 -0.058937162 0.0851024 0.08722464 0.07492651 -0.075403415 0.07587665
-0.06652501 -0.0701975 -0.015453062 -0.02412451 0.00967885 0.040311296 0.043433674 0.011116813
-0.043348256 -0.014504078 0.06508456 0.057015114 0.039999366 -0.063366815 0.025027933 -0.06981991

fc1.bias f4 [32]
00000000: b686 8cbd 4b94 383d 7f15 b33d 1f8f 8f3d
00000010: cdd5 53bd 57aa 8f3d 911c adbd 4fe1 883d
00000020: f62d 1d3d 2f2a ae3d fc80 893c 3230 a23d
00000030: 6ca2 373d f39f 1c3d 88e9 833d 34a4 2e3d
00000040: 5282 8c3c 1ba0 88bd c950 94bd db40 98bd
00000050: be81 1e3d c4fb 63bd 9beb 25bd 6610 b1bd
00000060: 2d71 873d 00d8 b73c 8861 48bd 021d 2abd
00000070: 8fb5 163d a258 4f3d d093 8dbc df3f 9b3d
-0.068616316 0.0450633 0.087443344 0.0700972 -0.05171757 0.070149116 -0.08452714 0.06683599
0.03837391 0.0850414 0.016785137 0.07919349 0.044832632 0.038238477 0.06441027 0.042637065
0.017151985 -0.06671163 -0.07241971 -0.07434245 0.03869795 -0.055660024 -0.040507894 -0.08645706
0.066133834 0.022441864 -0.048921138 -0.04153157 0.03679424 0.050621636 -0.017282397 0.07580542

fc_out.weight f4 [2, 32]
00000000: 36bb f73d 0463 e8bd dca9 17bd 7bc0 223e
00000010: 2a72 47bd e3e4 2e3e 1740 303e 0487 76bd
00000020: fc80 693d 2f05 cebd f8a0 793a cb5a 1d3d
00000030: 3dda 82bc 6c53 7e3d 76a0 1f3d fcc5 c0bd
00000040: 03e2 8c3d 303a 933c 5315 103e 75ff dfbd
00000050: c040 51bd 0529 ffbd 38bd f33b ae76 a93d
00000060: 7023 49bd 75e0 073e e70e f9bd bc6b 81bd
00000070: 2b36 fdbd a18d 053e 729b a8bd 0595 253c
00000080: 4d10 37bd 26c4 c3bd b8c2 623d 3812 7abb
00000090: 432f ef3c a883 11bd 48ba 083d 9c5f a3bd
000000a0: 24e4 3a3d 1b0a 1fbe 219d 0cbe 2fde 5cbd
000000b0: 1858 1c3e 7a1a 253e 2217 46bd dfad 03be
000000c0: 481d 6d3c 80a0 acbc a2cb d03d ea56 e83d
000000d0: 12da df3d 8822 9abd d297 fabd a501 463d
000000e0: e623 913d c200 b8bd 7311 1d3e 0e60 cd3d
000000f0: a904 2fbe a2c9 ce3d 4623 c63d 3bef 233e
0.120962545 -0.11347011 -0.037027225 0.15893738 -0.04869286 0.17079501 0.17211948 -0.060187355
0.057007775 -0.100595824 0.00095225824 0.038416665 -0.015973205 0.062091276 0.038971387 -0.094127625
0.06879046 0.017972082 0.14070635 -0.109373964 -0.05108714 -0.12458996 0.007438328 0.082745895
-0.04910606 0.13269217 -0.121610455 -0.06319377 -0.12363847 0.13042308 -0.08232774 0.01010633
-0.04469328 -0.09558897 0.05536148 -0.0038157832 0.02919734 -0.035525948 0.033380777 -0.079772204
0.045627728 -0.15531199 -0.13731815 -0.05392283 0.1526798 0.16123381 -0.048361905 -0.12859295
0.014472313 -0.021072626 0.1019509 0.113447025 0.109302655 -0.075261176 -0.12235989 0.048341412
0.07086925 -0.089845195 0.15338688 0.100280866 -0.17091621 0.10097052 0.096746966 0.16009228

fc_out.bias f4 [2]
00000000: 31fa 2e3e 3ecb c33c
0.17087628 0.023900624
