sixth generation(prototypemixing)/pipeline_models_dg_zsl_phase_split/stage2_maturity_classifier_strawberry_ft_handcrafted_best.pth (torch, 11232 bytes, 4 tensors)

fc1.weight f4 [32, 64]
0	0xbdb0b32e	-0.08627926
1	0xbdec78c4	-0.11546472
2	0xbd8a5458	-0.067543685
3	0x3dbfc1ee	0.09363161
4	0x3dfaa412	0.12238325
5	0xbd526634	-0.051367
6	0xbda5aee8	-0.08090001
7	0xbde36cc4	-0.1110473
8	0x3d6d3cc4	0.05791928
9	0xbd4e33e4	-0.050342456
10	0x3dbf5940	0.09343195
11	0xbd350820	-0.0441972
12	0x3dea352e	0.114359245
13	0x3da50b16	0.08058755
14	0x3da8a2ec	0.082342
15	0x3d882a60	0.066487074
16	0xbdcdb624	-0.10044506
17	0x3c8c806c	0.01715108
18	0xbd98ba7a	-0.074574426
19	0xbd1d563c	-0.038412318
20	0x3d9e8f9c	0.07742235
21	0xbd821626	-0.06351881
22	0x3da16fd2	0.07882656
23	0x3bd35764	0.0064496268
24	0xbd72c50c	-0.05926995
25	0xbd78a384	-0.060702816
26	0xbdf8dba4	-0.12151268
27	0x3d2f9f98	0.04287681
28	0x3b9d4ae4	0.0048001874
29	0x3de3ecdc	0.11129162
30	0x3d388a04	0.045053497
31	0x3d1f0258	0.038820595
32	0xbbd995c4	-0.006640168
33	0x3d6f4780	0.058417797
34	0xbc97ed5c	-0.018545799
35	0x3d4d4674	0.050116017
36	0xbd68d3b0	-0.056842506
37	0x3da1e108	0.079042494
38	0x3d0c6578	0.034276456
39	0x3d873bde	0.06603216
40	0x3c0a4ea4	0.008441601
41	0x3d7300e0	0.059327006
42	0x3de75b3c	0.112966985
43	0x3c9d9434	0.019235708
44	0x3db1fe2e	0.08691059
45	0xbdea63cc	-0.11444816
46	0xbc220e24	-0.009891067
47	0xbdde7dac	-0.10863814
48	0x3c126ec4	0.008937541
49	0x3cc04cb4	0.023474075
50	0x3d109394	0.03529699
51	0xbd59efe8	-0.053207308
52	0x3d6faa4c	0.058512017
53	0xbd576ed8	-0.052595943
54	0xbd023fb0	-0.03179902
55	0x3dbffd4c	0.093744844
56	0xbdeb981a	-0.115036204
57	0x3ccfd18c	0.025368474
58	0xbddc4164	-0.1075466
59	0x3d5c061c	0.053716764
60	0xbdd5c614	-0.10438171
61	0xbdf05082	-0.11734106
62	0xbd0e9f60	-0.03481996
63	0x3dccbe20	0.09997201
64	0x3d8157cc	0.06315574
65	0x3da48776	0.080336496
66	0xbcee8f2c	-0.029121004
67	0x3de222ce	0.11041795
68	0xbd6974b0	-0.056996047
69	0xbc0f5c24	-0.008749995
70	0xbdeb1446	-0.11478476
71	0x3bce5de4	0.0062978137
72	0x3ceac44c	0.028658055
73	0xbdf5b4be	-0.119973645
74	0x3dd735e4	0.10508326
75	0x3cc0a784	0.023517378
76	0x3df423de	0.119209036
77	0xbd5c6890	-0.053810656
78	0x3bbf0144	0.0058290083
79	0xbd2451ac	-0.04011695
80	0x3dd872c2	0.10568763
81	0xbd8f1b6e	-0.06987654
82	0x3d9356b0	0.07194269
83	0xbdb3c4a8	-0.087777436
84	0x3dc05fe8	0.09393293
85	0xbdee5b48	-0.11638504
86	0xbd7e881c	-0.062141523
87	0xbd67140c	-0.056415603
88	0xbcade06c	-0.021225177
89	0xbacb2ec4	-0.0015501608
90	0x3d257504	0.040394798
91	0x3de59308	0.112096846
92	0x3d96cee8	0.07363683
93	0xbd76e178	-0.060273618
94	0x3df08c8a	0.11745556
95	0xbc96cab4	-0.018407203
96	0xbd8ec086	-0.06970315
97	0x3d3f61a8	0.04672399
98	0xbcb2724c	-0.021783017
99	0x3df4501a	0.11929341
100	0x3c647634	0.013944197
101	0x3da96ef2	0.08273114
102	0x3d03d4b4	0.03218527
103	0xbda74ccc	-0.08168945
104	0x3cd78444	0.026308186
105	0xbd942538	-0.072336614
106	0xbd091a1c	-0.033472165
107	0xbd24ef00	-0.04026699
108	0xbdcad744	-0.0990434
109	0x3d46254c	0.048375413
110	0x3db52602	0.0884514
111	0xbdfc467e	-0.12318133
112	0x3d8b58dc	0.06804058
113	0xbdca203a	-0.09869428
114	0xbdfa8952	-0.12233223
115	0x3d3091c0	0.043107748
116	0xbb359c84	-0.0027711699
117	0xbd9cf07c	-0.07663056
118	0x3de536a2	0.11192061
119	0x3c271ca4	0.0101997
120	0xbda091e8	-0.078403294
121	0x3d6adfb8	0.05734226
122	0x3c10f3f4	0.008847225
123	0xbca3e68c	-0.020007394
124	0xbdb63e50	-0.08898604
125	0xbc1492d4	-0.00906821
126	0x3d94257a	0.072337106
127	0xbd7a2188	-0.061067134
128	0x3d72775e	0.05919587
129	0xbdfd7249	-0.12375314
130	0xbd47e94e	-0.04880648
131	0xbd4d3b92	-0.05010564
132	0xbde77257	-0.113011055
133	0x3d112c39	0.035442565
134	0xbdc4c133	-0.09607162
135	0x3d9ae8e0	0.07563949
136	0x3cd93e8c	0.026519082
137	0xbae3f26d	-0.0017390974
138	0xbd6fdf4c	-0.058562562
139	0xbd36f18f	-0.044663962
140	0x3cfccb47	0.030858649
141	0x3e01de12	0.1268237
142	0xbd9dc532	-0.07703628
143	0xbda99b0f	-0.08281528
144	0xbd88ed3d	-0.066858746
145	0xbd988cdb	-0.07448741
146	0xbc49255e	-0.012276975
147	0xbdd21547	-0.102579646
148	0x3da7dc92	0.08196367
149	0x3dad04cd	0.08448181
150	0xbd9faddb	-0.07796832
151	0x3ddd7db9	0.10814995
152	0x3d01fbe0	0.031734347
153	0xbd99d0b8	-0.07510513
154	0x3ca9a4f2	0.020708535
155	0xbdf1fc4c	-0.118157
156	0xbd8a97c0	-0.06767225
157	0xbdc35d72	-0.09539308
158	0xbd7c5a8c	-0.06160979
159	0xbd019172	-0.031632848
160	0x3ce86d4c	0.02837243
161	0x3c02a240	0.007973254
162	0xbe0f7b1e	-0.14011809
163	0xbddf3671	-0.10899056
164	0xbc8efdac	-0.017454945
165	0x3de11953	0.10991158
166	0x3d4a1779	0.04933879
167	0x3dc71861	0.09721447
168	0xbd74ded8	-0.059782833
169	0x3d1d609b	0.03842221
170	0xbddb7764	-0.10716131
171	0x3d99e68e	0.07514678
172	0xbc1c84ce	-0.0095531475
173	0xbc90e15a	-0.017685581
174	0xbd8398e5	-0.06425647
175	0xbdd6b015	-0.10482804
176	0xbd4ebfde	-0.050475948
177	0xbc58ca07	-0.013231761
178	0xbd89f237	-0.06735652
179	0x3d3f602a	0.04672257
180	0xbcf79b7c	-0.030225508
181	0x3b9e0442	0.004822285
182	0xbddb6d40	-0.10714197
183	0x3c969ef0	0.018386334
184	0xbd841d29	-0.06450874
185	0xbdc4be20	-0.09606576
186	0xbcf71b96	-0.030164521
187	0xbdcec927	-0.100969605
188	0xbdc415e0	-0.09574485
189	0x3dd579e3	0.10423639
190	0x3de38fc2	0.11111404
191	0xbdb59f83	-0.08868315
192	0x3c22f256	0.009945473
193	0xbda11c8a	-0.078667715
194	0x3dcb0eae	0.09914909
195	0x3d6095d0	0.054830372
196	0x3d139fdb	0.036041122
197	0xbdfe88dd	-0.12428448
198	0xbd9325b7	-0.07184928
199	0xbd325eb1	-0.043547336
200	0xbdd51fd9	-0.10406465
201	0xbdb225dd	-0.08698628
202	0x3cc364fb	0.023851862
203	0xbdd30be6	-0.10305004
204	0x3ca30f2e	0.0199047
205	0xbc963fc3	-0.01834095
206	0xba66a706	-0.0008798692
207	0xbceead5b	-0.029135397
208	0xbd8521c3	-0.0650058
209	0xbdf33d80	-0.118769646
210	0xbdc85ecc	-0.09783706
211	0x3dbc6312	0.09198584
212	0xbb3f2ed2	-0.0029172194
213	0x3e0d5572	0.13802126
214	0x3cbce1b4	0.023056842
215	0xbd028cef	-0.031872686
216	0x3dc0dfc6	0.094176814
217	0xbe06d58a	-0.13167396
218	0xbd93dc80	-0.072197914
219	0x3d956803	0.07295229
220	0xbc70e5b6	-0.014703205
221	0x3ddea7f0	0.10871875
222	0xbc3c1380	-0.011479259
223	0x3da40bae	0.0801004
224	0x3cb72266	0.02235527
225	0x3cbdefc1	0.023185613
226	0xbdbac708	-0.091199934
227	0xbd5a2ceb	-0.053265493
228	0xbc0d257a	-0.008614892
229	0x3d44d162	0.048051246
230	0x3c512c76	0.012766948
231	0xbd4c9a0f	-0.04995161
232	0xbc42cdeb	-0.011889915
233	0x3e03ce27	0.1287161
234	0x3d9179b1	0.07103289
235	0x3ce2f3d4	0.027704157
236	0xbdc89ebc	-0.09795901
237	0xbd79bba6	-0.06096997
238	0x3dbe9cd6	0.09307258
239	0x3e0961d5	0.13416226
240	0xbd2c76cb	-0.042105477
241	0x3d0e7ca2	0.034786828
242	0xbc739b25	-0.014868532
243	0x3db7f911	0.089830525
244	0xbd16a344	-0.036776796
245	0xbdc92fc3	-0.09823563
246	0xbe0bf4f8	-0.13667667
247	0x3c027a9a	0.007963801
248	0x3ca07b62	0.019590084
249	0xbdb22bb2	-0.086997405
250	0x3df8e26c	0.121525615
251	0x3d686d07	0.0567446
252	0x3db99c6a	0.09063037
253	0x3d9a60ee	0.07538019
254	0xbe0ae7ab	-0.13564937
255	0xbd1f709a	-0.038925745

fc1.bias f4 [32]
0	0xbde9abdc	-0.11409733
1	0x3d911836	0.07084696
2	0xbcf339aa	-0.029690582
3	0xbdcdcda9	-0.10048992
4	0x3c9ab8ad	0.018886888
5	0xbc4bc774	-0.01243769
6	0x3dce92dc	0.10086605
7	0x3d1a8202	0.03772164
8	0xbd9dd598	-0.077067554
9	0xbc2facd0	-0.010722354
10	0xbdc1c52a	-0.09461434
11	0x3d936096	0.07196157
12	0x3d15c5dc	0.036565647
13	0x3d733d61	0.059384707
14	0xbdbd776e	-0.09251295
15	0xbd8e7f90	-0.06957924
16	0xbd85ad08	-0.06527144
17	0xbdbc57a9	-0.09196407
18	0xbdeec828	-0.116592705
19	0xbdce7b7e	-0.10082148
20	0x3d9d6650	0.0768553
21	0xbce2e030	-0.027694792
22	0xbc362e5d	-0.011119452
23	0x3d12a984	0.035806194
24	0x3cea5d82	0.028609041
25	0x3d25f5f6	0.04051777
26	0xbdb4c14c	-0.08825931
27	0x3df77471	0.12082756
28	0x3ba9d3dd	0.005182727
29	0xbd4057db	-0.046958786
30	0x3db533fb	0.08847805
31	0xbdd4d926	-0.1039298

fc_out.weight f4 [2, 32]
0	0xbdd7d14f	-0.10537969
1	0x3dcc08be	0.09962605
2	0x3d88ddb9	0.06682915
3	0xbd4ed9fa	-0.050500847
4	0xbc1204fd	-0.008912322
5	0xbd043c98	-0.03228435
6	0x3da958b5	0.08268873
7	0x3d4d5e98	0.05013904
8	0x3d84ac62	0.06478192
9	0x3e284350	0.16431928
10	0xbdeffdda	-0.1171834
11	0xbdfd88e5	-0.12379626
12	0xbd2bc76c	-0.04193823
13	0xbd8aa606	-0.06769948
14	0xbe00bbac	-0.12571591
15	0x3e27feed	0.1640584
16	0x3e28a89b	0.16470568
17	0x3e20f6bf	0.15719126
18	0xbddefb0f	-0.108877294
19	0xbcab3ddc	-0.02090352
20	0xbe02f819	-0.12789954
21	0xbd37171c	-0.044699773
22	0x3e29ec53	0.16594057
23	0x3d01c75c	0.031684265
24	0x3d8573ef	0.06516253
25	0xbe24c524	-0.16090828
26	0x3d952788	0.072829306
27	0x3e04eed1	0.12981726
28	0xbd3ba6a8	-0.045813233
29	0x3e1e6063	0.15466456
30	0x3db5c1d0	0.088748574
31	0xbe042c36	-0.1290749
32	0xbe07b1f2	-0.13251474
33	0x3b22a584	0.0024817893
34	0xbe2cdbff	-0.16880797
35	0xbe127ab9	-0.14304627
36	0x3d82ed36	0.06392901
37	0xbd6e3c80	-0.058163166
38	0xbc8bd593	-0.017069614
39	0xbdb1f8e8	-0.08690053
40	0x3dea526e	0.114415035
41	0x3e01e6f6	0.12685761
42	0x3dfc3c1f	0.12316155
43	0xbe2d73f8	-0.1693877
44	0xbd5611c2	-0.05226303
45	0x3d9521b2	0.072818175
46	0x3dd620ca	0.10455473
47	0xbd224818	-0.039619535
48	0x3da35e9a	0.07977028
49	0xbca13b4d	-0.019681597
50	0x3ca0dacc	0.01963558
51	0x3df3f006	0.11911015
52	0x3de3e9d1	0.11128581
53	0xbe1349f8	-0.14383686
54	0xbe00f99f	-0.12595223
55	0x3d598107	0.053101566
56	0x3dd1bb04	0.102407485
57	0xbd654abd	-0.05597948
58	0x3e2086d5	0.15676434
59	0xbcfddc0f	-0.030988721
60	0xbde4cabe	-0.111714825
61	0xbd1d2f7c	-0.038375363
62	0xbe236b1e	-0.1595883
63	0x3d605844	0.054771677

fc_out.bias f4 [2]
0	0xbe179680	-0.14803505
1	0x3e192201	0.14954378
