sixth generation(prototypemixing)/pipeline_models_dg_zsl_phase_split/stage2_maturity_classifier_grape_ft_handcrafted_best.pth (torch, 11128 bytes, 4 tensors)

fc1.weight f4 [32, 64]
000000 c6 2a 64 bd d0 e9 a9 bd 9c 6e 58 bd de a7 58 3d
       -0.055704854 -0.08296549 -0.05283986 0.052894466
000010 53 98 73 3d 1d bf ca 3d a3 44 a2 bd f9 fb 17 bd
       0.05947144 0.09899733 -0.07923248 -0.037105534
000020 23 a4 14 3e c7 f1 a6 bd bd d1 95 bd 64 67 01 bd
       0.14515738 -0.08151584 -0.07315395 -0.03159274
000030 76 49 05 be 19 84 f0 bd f3 40 c3 3d ab 39 28 3d
       -0.13016304 -0.11743946 0.095338725 0.04107062
000040 fc 65 2a 3d 7f df 94 3d 72 22 a1 3d 11 cd 79 3d
       0.041601166 0.07269191 0.07867898 0.060986582
000050 20 48 99 3d 5e 7d 86 3d e9 fe e6 3d 84 87 84 3d
       0.0748446 0.06566881 0.11279089 0.0647116
000060 54 de b8 bb 97 96 cf bb e8 0c 2c bd f9 3d d1 bd
       -0.005641738 -0.0063350904 -0.042004496 -0.102168985
000070 94 a7 0f 3e fa 3a 9c bd ca da 63 bd fd 28 c9 bd
       0.1402877 -0.076284364 -0.055628575 -0.09822271
000080 16 25 9e bd 10 2b 01 3d 8f a0 37 3d 77 c5 b7 bd
       -0.07721917 0.03153521 0.044830855 -0.0897321
000090 52 7e 4c bb f3 dd f8 bd b1 83 e2 3c be 7c 40 3d
       -0.0031203222 -0.121517085 0.027650686 0.046993963
0000a0 d6 e6 8d bd f3 b5 0b bd 80 03 bc 3d 2d 89 73 bd
       -0.06928794 -0.034109067 0.09180355 -0.059456993
0000b0 d9 29 9d bc ee 78 07 be 4b 44 bf 3d 11 37 59 3d
       -0.019184994 -0.13229725 0.09339198 0.05303103
0000c0 2c 8c d5 bc d7 58 95 3d dc 30 be 3d 33 34 8f 3d
       -0.026067816 0.072923355 0.09286663 0.06992378
0000d0 fe a1 de bd a9 aa 3f bd 13 c1 df 3d 1d 47 94 3d
       -0.10870741 -0.046793614 0.10925498 0.07240126
0000e0 a5 92 2b bd c5 26 55 3d 39 0a 94 bd 10 e0 5d 3c
       -0.041887898 0.052038927 -0.07228512 0.01354219
0000f0 bf cf ff 3d 8d 32 3e 3d e9 db ff bd 5c fa 56 3c
       0.12490796 0.046434928 -0.124931164 0.013121214
000100 14 ac 8e 3d 88 0a b2 3d 68 65 a8 bd 4c d0 b7 bc
       0.06966415 0.08693415 -0.08222467 -0.02243819
000110 a4 2d d5 bb cc 07 b3 bc 5c 41 e3 bc 3c 7c 38 bd
       -0.006505685 -0.021854304 -0.027741127 -0.045040354
000120 70 53 30 3d 64 4d 73 3d ec e3 c6 bc 50 2b c9 3d
       0.043048322 0.059399977 -0.024278603 0.09822714
000130 c4 17 30 ba 24 a0 f9 3c 08 23 00 3d 34 54 2e bd
       -0.00067174085 0.030471869 0.03128341 -0.04256077
000140 44 ce b3 bb 94 b9 64 bc 3c a0 41 3d c2 88 89 bd
       -0.0054872353 -0.013960261 0.047271952 -0.067155376
000150 88 07 6b bd b4 1a f7 bd a4 ba 5e bd 58 32 23 3d
       -0.05738023 -0.1206564 -0.054377213 0.039842933
000160 58 eb ce 3d 5a 61 fc bd e8 30 38 bd 6e 0f a1 3d
       0.10103482 -0.12323256 -0.044968516 0.07864271
000170 04 70 8a bd 8a d8 ac 3d 44 4d a5 3b 18 b1 f0 bd
       -0.067596465 0.08439739 0.005044611 -0.11752528
000180 24 25 ad 3c ec 71 99 bd cc 04 c7 3c b4 60 e5 bd
       0.021135874 -0.07492432 0.02429428 -0.11200085
000190 72 8d f0 3d a8 73 5a bd d0 b9 a3 3d 7e 11 a1 bd
       0.117457286 -0.053332955 0.07994425 -0.078646645
0001a0 a2 8d d6 bd cc 6f 49 3d fa e7 99 3d 44 5d 93 ba
       -0.10476233 0.049178883 0.07514949 -0.0011243005
0001b0 ee 7f d8 bd 18 71 0c bd 9c 66 b1 bd 30 08 11 3d
       -0.10571276 -0.034287542 -0.08662149 0.0354082
0001c0 fc ce a5 3c 2e e6 b1 3d 2e 8b ff 3d c4 ae 6c bd
       0.0202403 0.086864814 0.12477718 -0.057783857
0001d0 8a 42 ca 3d ec db b1 3d 9c 67 9d 3c f0 fd fa bd
       0.098759726 0.08684525 0.019214444 -0.12255466
0001e0 00 8e b1 bd f4 17 5f 3d 34 3a be 3d 24 d0 88 3d
       -0.086696625 0.054466203 0.09288445 0.06680325
0001f0 14 07 41 3c 5a af 9b bd b2 f2 e0 bd 5c 4b 92 bd
       0.011781473 -0.07601805 -0.109837905 -0.0714328
000200 81 ad a2 3c fd 71 09 3d c5 7e e8 3d 26 02 9c bd
       0.019858124 0.033555973 0.11352304 -0.07617597
000210 4f 11 57 3d 83 fd dd 3d 2f bc c9 bd c0 25 b8 bd
       0.05250674 0.10839369 -0.09850346 -0.08991575
000220 fb 3b 83 bd e5 3c ba 3c 3b b8 0a 3e d5 62 51 3d
       -0.06407925 0.022734115 0.13546841 0.051119644
000230 88 f5 c4 3d 45 b5 02 3e 14 eb ac 3d 3e 2c 0a be
       0.09617144 0.12764461 0.08443275 -0.1349344
000240 2e a0 85 bd 1c 2a 02 bd 5b 65 45 3c 95 b0 d9 3c
       -0.065246925 -0.03177844 0.012048091 0.026573459
000250 2e c5 b4 3d ea e8 08 3e cf c9 3d bd 09 ba 8a bd
       0.088266715 0.133701 -0.046335038 -0.06773765
000260 a5 0c 0f bc 70 b6 50 3c 84 24 a1 3d ea 5e 8c 3d
       -0.008731042 0.012738809 0.07868293 0.06854041
000270 60 9b c0 3c 33 ee 72 3d 65 e8 a4 3d cd 3a 88 3d
       0.023511589 0.059309196 0.08052138 0.0665184
000280 46 2b 94 3b 40 09 d6 bd c0 f3 d0 3d c0 cd 1c bd
       0.00452176 -0.10450983 0.102027416 -0.038282156
000290 a7 7c e2 bd af e1 03 3c b3 5d d1 3d 60 ec f4 bc
       -0.11058932 0.008049413 0.1022295 -0.029897869
0002a0 88 8c 01 bc 0e 4a 2d 3d 53 df da 3d 63 d1 3d bd
       -0.00790704 0.042306952 0.10687127 -0.046342265
0002b0 04 71 94 bd 1f c7 c5 bc 38 e8 94 bc 76 96 0e 3d
       -0.072481185 -0.0241428 -0.018177137 0.03481146
0002c0 ca ba da bd 3d a6 d0 3d 7d c4 60 3d cd f1 a1 bd
       -0.106801584 0.101879574 0.054874886 -0.07907448
0002d0 90 f4 72 3d fe f5 0f 3c 1f 0b c7 3d fc 8b a1 3c
       0.059315264 0.008786676 0.09718918 0.01972007
0002e0 52 94 af bc 01 b8 b8 bd 41 33 a7 bd ff 68 04 bc
       -0.02143303 -0.09019471 -0.08164073 -0.008081674
0002f0 b5 c2 f5 3d bc b6 ca bd 40 3b 56 3d fe 4b 80 bd
       0.12000028 -0.09898135 0.0523026 -0.06264494
000300 de 69 c6 bd e4 42 3c bd ca 62 ab bd ae cf d3 bd
       -0.09688161 -0.04596223 -0.08368452 -0.10342346
000310 88 27 1d bd 4c e9 8b bc 6c e8 7e 3d 94 65 6b 3d
       -0.038367778 -0.017079018 0.062233374 0.05746992
000320 44 0e d7 ba 64 e1 e9 bc 94 8b d9 bc fe 45 d2 bd
       -0.001640745 -0.028549857 -0.026555814 -0.10267256
000330 a0 f4 b1 3d 28 a2 e5 3d 34 5c eb bd 86 6e f4 bd
       0.08689237 0.112125695 -0.11492196 -0.11935143
000340 30 dd ef bd 8c 27 a5 bc c4 3f 9e b9 18 28 a7 bd
       -0.1171211 -0.020160459 -0.00030183617 -0.08161944
000350 74 75 8d 3d 34 df 06 3c 36 94 81 bd 6c a7 f7 bd
       0.06907168 0.008231927 -0.06327097 -0.1209248
000360 6e 59 c7 3d 38 e8 fd 3d f4 27 3e 3c 28 36 75 bd
       0.09733854 0.12397808 0.011606205 -0.0598661
000370 48 c1 a2 3d fc de 96 3d 84 f0 92 bc fc 10 f0 3d
       0.07947022 0.0736675 -0.017936952 0.117219895
000380 02 2b bd bd b4 b1 6a bc fa f2 d8 3d 2c 66 9e bd
       -0.09236719 -0.014324594 0.10593219 -0.077343315
000390 8c ee 1d bd d8 ad 59 bd 6c 98 51 bd 1a 7f e1 3d
       -0.038557574 -0.053144306 -0.05117075 0.11010571
0003a0 76 c9 9d 3d be bb e8 bd 12 93 9c bd 44 cc d5 ba
       0.07704441 -0.11363934 -0.07645239 -0.0016311486
0003b0 a4 79 26 bd d8 fa 8c bd bc a2 fb bd 32 ce bc 3d
       -0.04064335 -0.06883782 -0.122868985 0.09219016
0003c0 82 54 8f 3d 10 8f 14 3d 3c 72 e6 bc 30 25 f8 bd
       0.069985405 0.036269248 -0.028130643 -0.12116468
0003d0 e4 36 00 bc 40 bc 43 3d 58 97 14 bd ee 81 c9 3d
       -0.007825587 0.04778695 -0.036277145 0.09839235
0003e0 04 07 ea 3c c4 3d cb bb ac 58 4a 3d 76 68 85 3d
       0.028567798 -0.0062024314 0.04940097 0.06514065
0003f0 ee c3 bb bd dc b2 1b 3d f2 ac e8 bd 04 92 d6 bc
       -0.0916823 0.03801237 -0.11361112 -0.026192673

fc1.bias f4 [32]
000000 f6 f3 12 3e e8 f6 a9 bd c3 29 2f bc ac 59 f2 bd
       0.14350876 -0.08299047 -0.010691109 -0.1183351
000010 10 bf a6 3d 3d 90 e6 3c 16 26 7f bc e7 85 2a 3d
       0.08141911 0.02814495 -0.015573045 0.041631605
000020 3e 11 d2 3c 8c 05 b0 3d c7 b6 d6 ba 23 f5 bb bc
       0.025642987 0.08594808 -0.0016381376 -0.022944039
000030 76 64 0f 3d a2 04 e0 3c 65 1c d7 bd fe 61 80 bd
       0.035007916 0.02734596 -0.10503463 -0.062686905
000040 90 5a b7 3d ba 7e 5a bd ad 94 a7 3d fa 0b d8 bb
       0.0895282 -0.053343512 0.081826545 -0.0065932246
000050 a2 ae 1a 3e a2 f0 9b bd a1 49 ee 3d 75 49 86 bd
       0.1510568 -0.076142564 0.11635137 -0.065569796
000060 65 17 f2 3d e4 a6 33 3d 24 98 01 3d da 36 81 3d
       0.118208684 0.04386033 0.031639233 0.0630929
000070 e6 c5 d2 3d f6 0e af bc ad a9 74 bd 7c cc 65 3d
       0.102916524 -0.021369439 -0.059732128 0.056103215

fc_out.weight f4 [2, 32]
000000 ed 8a 1f be 64 1e 2c 3c 90 7a cd 3d 28 75 24 be
       -0.1558034 0.010505293 0.100331426 -0.16060317
000010 a4 0d 1c bc 2f fc 86 3c 0f 6d 0c be ba e4 15 3e
       -0.009524737 0.016477672 -0.13713478 0.14638034
000020 a3 8a bf 3c 72 b2 1c be 26 d1 17 bd 74 c9 4b 3d
       0.023381537 -0.15302446 -0.037064694 0.049752668
000030 21 45 0b 3e 81 32 0c bd 49 dd 3b 3e a2 17 57 bd
       0.1360059 -0.03422785 0.18346132 -0.052512772
000040 1e e4 0a be b2 d5 84 bd 78 a4 00 be ed 2b 1f 3d
       -0.13563582 -0.06486072 -0.1256274 0.03886025
000050 ee 1a ad 3d b4 10 16 be 22 54 26 be 16 c0 ef 3d
       0.08452402 -0.14654809 -0.16243032 0.11706559
000060 14 39 87 bd 47 af 24 3e ff 6f 1f 3e 16 d4 11 be
       -0.06602684 0.16082488 0.15570067 -0.1424106
000070 0e ab 9f 3d de 5d 4a be 21 29 c9 3d ef fd d3 bd
       0.07796298 -0.1976237 0.09822298 -0.10351168
000080 9c f8 f0 3c 59 c9 2f 3e af 28 29 bb 1d 96 c2 bd
       0.029415421 0.17166652 -0.0025811603 -0.09501288
000090 16 63 a6 3d bb e2 0e bd f8 85 23 3e 60 28 0f be
       0.08124368 -0.034884196 0.15969074 -0.13980246
0000a0 17 1d 3a bd 6c ba 25 be 9a 06 ff bd 36 9b 8b bd
       -0.0454379 -0.16184396 -0.12452431 -0.068167135
0000b0 c5 21 ff bd b5 bb 12 be 8a dd 94 bd 41 61 fc bd
       -0.12457613 -0.14329417 -0.07268818 -0.12323237
0000c0 f0 6d e9 bd b6 eb d5 3c d6 db fa bd 5a 48 f9 3d
       -0.11397922 0.026113372 -0.12248962 0.12172003
0000d0 30 45 18 3e f1 d3 23 3e 01 cf b3 3d 59 6f 11 bd
       0.14870143 0.15998818 0.08779717 -0.03550658
0000e0 86 27 36 bb 54 5a ab bd 2e 05 00 3e 3c e3 fb 3d
       -0.0027794554 -0.08366838 0.12501976 0.12299201
0000f0 6c 80 1d 3e e4 25 eb bb 22 c5 18 be 40 60 7c 3d
       0.1538102 -0.007176148 -0.1491895 0.06161523

fc_out.bias f4 [2]
000000 c9 34 02 3e 04 51 78 b9
       0.12715448 -0.00023681304
