sixth generation(prototypemixing)/pipeline_models_dg_zsl_phase_split/stage2_maturity_classifier_grape_ft_cnn_best.pth (torch, 19256 bytes, 4 tensors)

fc1.weight f4 [32, 128]
000000 26 8f db 3c d8 64 5b bc 56 93 73 3c 1d 30 87 bd
       0.026801657 -0.013390742 0.014866671 -0.06600974
000010 fe 72 b1 bd f8 31 f4 3c cb 89 c2 bd 42 f6 35 3d
       -0.08664511 0.029808983 -0.09498938 0.044424303
000020 94 18 db bd 34 39 80 bc d3 77 f9 3b 49 54 bf ba
       -0.10698047 -0.015652277 0.007613161 -0.0014597262
000030 6d cf 5b bd 29 e5 92 bd 83 bf 81 bd 19 e3 14 bd
       -0.053664614 -0.07172615 -0.06335356 -0.03634939
000040 fb 95 97 bc 29 3c ce bc 46 3c fe 3c 74 01 8c 3c
       -0.018504133 -0.025175171 0.0310346 0.017090537
000050 03 f7 b9 bc d2 f3 7f bc f9 f4 8f 3d 85 24 89 ba
       -0.022700792 -0.015622096 0.07029147 -0.0010463154
000060 bf d4 bb bd a3 2f 3a bc 26 be 2a 3d 3f c8 3a 3d
       -0.091714375 -0.011363897 0.041685246 0.045601126
000070 f8 bd a4 bd 27 82 95 bd f7 87 8e 3c 5d 7b 9e bc
       -0.08044046 -0.07300215 0.017398817 -0.019345934
000080 a0 a1 35 bd e2 e9 2e bc d8 4b a7 3d ae 03 f1 3c
       -0.04434359 -0.010675879 0.08168763 0.0294207
000090 37 41 3b 3d 07 0a ab bd 5d 56 88 3d 1f e7 e0 bd
       0.04571649 -0.08351522 0.066570975 -0.10981583
0000a0 43 d0 65 3d 17 92 90 bd cb 84 85 3c 94 0b 73 ba
       0.056106817 -0.070591144 0.016298672 -0.00092714396
0000b0 a9 14 dc bc ea 02 58 3d a3 d3 07 bd 55 6b b5 bd
       -0.02686532 0.052737154 -0.033160817 -0.088583626
0000c0 4f 6c 99 bd 06 63 7c bc a8 34 2c 3d 83 2d 35 3d
       -0.07491361 -0.015404468 0.042042404 0.044232856
0000d0 74 cf b4 ba c1 ec 13 3d 8e 47 13 bb 03 90 88 3c
       -0.0013794736 0.036114458 -0.002247307 0.016670233
0000e0 63 ea bd bd ab 57 37 3b a6 31 2f 3d 42 f1 9e bd
       -0.09273221 0.0027975838 0.042771958 -0.0776086
0000f0 36 26 0b 3d 9b 20 09 bd 55 af de 3c 85 01 00 3d
       0.033971988 -0.03347836 0.027183214 0.03125145
000100 58 05 44 bd 6b 1e 9a bc 39 1a af bc 8d a8 19 3b
       -0.04785666 -0.018813333 -0.021374809 0.0023446411
000110 42 d1 b8 bd 3c 55 11 bd c8 2c de bc b8 91 ad bd
       -0.09024288 -0.035481676 -0.027120963 -0.08475059
000120 fc 2f 99 bd 14 af f4 bb 43 f4 2d bc 17 a6 a5 bc
       -0.074798554 -0.00746716 -0.010617319 -0.0202208
000130 6f b3 d1 3c 87 99 96 3d e8 39 c9 3d 6f 73 e6 3c
       0.025598256 0.07353502 0.09825498 0.028131215
000140 85 7a da bc 7b ce 60 3d c0 a4 64 3d 33 64 64 3d
       -0.02666975 0.054884415 0.05582118 0.05575962
000150 fc c8 32 bd 1f df 95 3d 74 66 9e 3d a7 61 d5 bb
       -0.043648705 0.073179476 0.07734385 -0.006511885
000160 3b d3 67 3d de 7c b9 bc 62 03 97 bc 91 72 90 3d
       0.05659793 -0.02264255 -0.01843423 0.07053102
000170 20 34 8d bd 71 09 7b 3d fe 70 85 bd 15 e7 1f bd
       -0.06894708 0.0612883 -0.06515692 -0.039038736
000180 7c 37 36 3c 6b 9c f9 bc 1e a0 b7 3d ac b2 4f 3c
       0.011121627 -0.030470094 0.08966087 0.012676876
000190 97 dd c0 3c ff ca 1d bd 7b 07 b5 3d a9 98 62 bd
       0.023543162 -0.03852367 0.088393174 -0.05532137
0001a0 ed 20 0a bd 4c af c9 3d 1b af d7 3b 6e 17 e1 3c
       -0.033722807 0.09847888 0.0065821535 0.027476992
0001b0 67 18 a4 bd 80 23 a4 bd 4a 03 0b bd ba 0e 98 bd
       -0.08012467 -0.080145836 -0.033938684 -0.07424684
0001c0 57 96 ba 3d 63 4f 2e 3d 64 00 9b bd 7c 2d af bb
       0.09110706 0.042556178 -0.07568434 -0.0053459983
0001d0 9d 0b cc bd ea 1d ab bc c1 4a 2d bc e9 80 e3 ba
       -0.099631526 -0.020888288 -0.010576905 -0.0017357144
0001e0 a4 d2 b6 bb 12 11 1c 3d cb 1a 57 bd f9 b3 b3 bc
       -0.0055793095 0.038102217 -0.052515786 -0.021936404
0001f0 ac 3c c6 3c 9c c6 28 3c bf 37 54 bd 96 44 70 3c
       0.024198852 0.010301258 -0.051810976 0.01466479
000200 2c 7b 86 3d 76 f2 a7 bd f2 5f 95 3d 42 64 93 bd
       0.06566462 -0.08200543 0.07293691 -0.07196857
000210 48 fb c9 bd 9f 9a 85 3d c0 fa 2b bd ff 5e aa bd
       -0.09862381 0.06523632 -0.04198718 -0.083189
000220 e8 40 ca bd d3 92 c7 3d 47 af d8 bd 78 2b 84 bd
       -0.09875661 0.09744801 -0.105803065 -0.064536035
000230 08 84 b7 bc 51 6f 90 3d 00 3a fd bc 16 19 94 bd
       -0.022401825 0.07052482 -0.030911446 -0.07231347
000240 b9 d9 1b bd 0f 4e c9 bc fd c2 8b bd da c4 ae bc
       -0.038049433 -0.024573354 -0.068243004 -0.0213341
000250 54 3d 86 3d e2 85 83 bd c3 79 79 3b a8 94 34 3d
       0.06554666 -0.064220205 0.003806696 0.044087082
000260 8e 7f 11 3c f1 a5 ea ba 97 9f 8a bd 30 bb 8c bd
       0.008880509 -0.0017902238 -0.067687206 -0.06871641
000270 a1 a4 9b bd d6 4c 5b bd 51 f7 3e 3a 85 1c 77 bd
       -0.0759976 -0.053540073 0.0007284778 -0.060329933
000280 0d 24 94 bc 50 a1 36 3d 44 03 99 bd 4d 7f cd bc
       -0.018083597 0.044587433 -0.07471326 -0.025085116
000290 2c 95 8d 3c 6b 48 23 3d 2e 22 c4 3c 03 25 3e bd
       0.017283045 0.039863985 0.02394208 -0.046422016
0002a0 82 a4 40 bd d0 75 0a bc 78 a0 4e bd 04 71 43 3d
       -0.047031887 -0.00845094 -0.050446004 0.047715202
0002b0 04 85 ca bc 3e aa cf bc 11 d8 41 3c 24 80 3c 3d
       -0.02472163 -0.025349732 0.011831299 0.046020642
0002c0 2b 52 a3 bd 6e 75 ec bc ab 67 bc bb 84 43 86 3d
       -0.07974657 -0.028864589 -0.005749663 0.06555846
0002d0 76 02 cc 3b 49 60 f0 bc ae bc 02 3d 14 e1 31 bd
       0.0062258793 -0.029342787 0.03191822 -0.04342754
0002e0 1c 3f a5 bd 16 a2 93 bd 30 0d d0 3c 07 df 80 3d
       -0.08068678 -0.0720865 0.025396913 0.06292539
0002f0 79 07 a8 3d e7 d2 14 3d df 63 85 bd e9 03 ed 3c
       0.0820455 0.036333945 -0.065131895 0.028932529
000300 20 fc 41 bd 9c 9a 0a bd e9 ff dd 3c 5c 95 3c bc
       -0.047359586 -0.033838853 0.027099567 -0.011510219
000310 a9 37 c3 bd a8 79 7c bc 19 79 d4 3b 24 fe 28 3d
       -0.09532101 -0.0154098645 0.0064841625 0.041257992
000320 4e dd 9d bd fe be 8b 3d 12 57 af bc e5 f4 9c bc
       -0.07708226 0.06823538 -0.021403823 -0.019159744
000330 b2 49 a7 bc ee 11 03 3d a1 82 68 3d ed 6d 53 3d
       -0.020420883 0.03199952 0.056765202 0.051618505
000340 cb f0 98 bd c8 32 94 bd 3b 44 6e 3d 44 73 8e bd
       -0.074678026 -0.07236248 0.05817054 -0.06955579
000350 16 ef 40 bd f0 c5 9a bc 5e cc 1e 3d ec 66 dc 3c
       -0.04710301 -0.018893212 0.03876912 0.026904546
000360 2f 14 b6 3c f2 45 ba bc b9 37 9c 3d e5 88 b6 3c
       0.022226421 -0.02273843 0.07627816 0.022282073
000370 1d 0e ba bc c6 76 7b 3c e1 a3 6b 3d 47 fe 96 bc
       -0.022711808 0.015348142 0.057529334 -0.018431796
000380 56 a8 a6 bd d3 0c 0e 3b 4b a8 1b bc c4 1e 4b bd
       -0.08137576 0.0021675124 -0.009500573 -0.049589887
000390 c1 80 82 bd b5 53 cf 3c e8 53 85 bd 32 dc 89 3d
       -0.06372214 0.02530847 -0.065101445 0.06731452
0003a0 83 4c 05 bd cb 8a 41 bd e2 73 4d 3d bf b5 36 bd
       -0.03254367 -0.047251504 0.050159343 -0.04460692
0003b0 44 6a 5d bc 31 40 a7 bd 6d 95 ef bc 89 76 35 bd
       -0.013514105 -0.081665404 -0.029246056 -0.044302497
0003c0 30 d6 90 3b fb 9d b1 3d 63 73 90 bd 29 30 5b 3d
       0.0044200644 0.086727105 -0.07053258 0.053512726
0003d0 4e df 72 bd 7c ac a3 bd 35 2f b3 bd 55 9d 85 3d
       -0.05929499 -0.07991883 -0.087492384 0.06524149
0003e0 81 84 7f 3d fc d4 0b bd 2e 35 42 bd 06 2e ab 3d
       0.062382225 -0.034138665 -0.047413997 0.08358388
0003f0 63 d8 8f bd 00 90 9b bc ed 25 c4 3c 77 7c 99 3c
       -0.07023694 -0.018989563 0.023943866 0.018736107

fc1.bias f4 [32]
000000 b9 89 ed 3c 19 e5 83 bd a8 5a 5c 3c 8c 58 87 3d
       0.028996335 -0.06440181 0.0134493485 0.06608686
000010 9a fd 06 3d 5a 14 39 bd 1b b3 36 3d 25 f9 81 3d
       0.032956697 -0.045185424 0.044604402 0.06346349
000020 b6 ea 05 bd e2 c2 3b bd f4 3d ca 3d 2e f5 09 bd
       -0.03269454 -0.04584015 0.09875098 -0.033681087
000030 87 9d 85 3d d1 28 96 3d 5f 1f 3a bd f9 28 83 3d
       0.065241866 0.07332004 -0.045440074 0.06404299
000040 67 42 76 bd 82 08 2a bd 5c a7 4c 3c e2 31 be 3d
       -0.06012192 -0.04151202 0.012491073 0.09286858
000050 a5 d2 06 3d f3 3b 7a bd a4 3c 59 bd 17 86 bf bb
       0.03291573 -0.06109233 -0.053036347 -0.005844842
000060 c4 f1 64 3c 14 12 0f 3c bc a5 16 bc 80 a7 0c bd
       0.013973657 0.0087323375 -0.009194788 -0.034339428
000070 c0 e8 cd 3d d8 6d 1a bd 89 e2 96 bd 1f cc 4c bd
       0.10054159 -0.03770241 -0.07367427 -0.049999353

fc_out.weight f4 [2, 32]
000000 97 52 ef 3c 99 5d 37 3d 1f 5e a8 bb 3f 9f 24 3e
       0.029214187 0.044766996 -0.0051381732 0.16076373
000010 1f 4c 26 3e 03 b0 a4 bd 55 b1 17 be 77 90 a3 bd
       0.16239975 -0.08041384 -0.1481374 -0.07986539
000020 b8 ed 73 3d 6a 38 75 bd 0f 86 eb bd 0a 89 21 3e
       0.05955288 -0.059868254 -0.11500179 0.15774933
000030 fa fb 19 3e 22 15 80 3d ad 9f 70 bc 6f ad 37 bd
       0.15037528 0.06254031 -0.014686507 -0.044843134
000040 71 f4 1a be 3e cb 59 3c 27 72 0f 3e 8c 26 16 3d
       -0.1513231 0.013293086 0.1400839 0.036657855
000050 42 8f b3 bc cd b5 28 3e f1 23 0d be b4 18 eb 3b
       -0.021918897 0.16475601 -0.13783242 0.0071745757
000060 3c c5 1b be 36 56 80 bd c6 16 99 bd 45 da 95 bd
       -0.15211958 -0.062664434 -0.07475047 -0.07317022
000070 16 66 99 bc 88 80 e5 3d ee 32 b1 3d 0b f6 16 3e
       -0.018725436 0.11206156 0.08652292 0.14742295
000080 33 84 5c bc 23 4c 17 3d 1d d4 f7 3d c5 5a bb 3d
       -0.013459253 0.036937844 0.12101004 0.09148172
000090 a6 a4 fb bc 86 cf ea 3d 98 4f e2 bc 5f 0f c1 3d
       -0.030718159 0.11465363 -0.027625844 0.0942676
0000a0 10 b5 bc 3d 71 28 8c bd 31 d1 b1 3a ee 13 10 bd
       0.092142224 -0.06843651 0.0013566372 -0.035175256
0000b0 11 64 8a 3d d4 11 3f bd 77 17 38 bd 72 99 d3 bd
       0.067573674 -0.04664786 -0.044944253 -0.10332002
0000c0 5a 1b d0 bd 1a dd 15 3e 24 00 9c bd bb bf fa 3d
       -0.10161467 0.14635125 -0.07617214 0.12243601
0000d0 0a a3 62 3d 6c 51 21 be 80 d3 03 3e 7f b0 16 3e
       0.055331267 -0.15753716 0.1287365 0.14715765
0000e0 ee 5d be bd ff 30 c8 bd 0c d3 df bc 2a d3 40 3d
       -0.092952594 -0.0977497 -0.027322315 0.04707638
0000f0 5d 71 ca 3d 44 0b 33 3d 1b 87 64 bd 20 de 0c 3d
       0.098849036 0.043711916 -0.05579291 0.034391522

fc_out.bias f4 [2]
000000 e4 3e 33 bd 02 5d 0d 3e
       -0.04376115 0.13805011
