sixth generation(prototypemixing)/pipeline_models_dg_zsl_phase_split_v2/stage2_maturity_classifier_strawberry_ft_cnn_best.pth (torch, 19296 bytes, 4 tensors)

fc1.weight f4 [32, 128]
0	0xbd30545a	-0.043049194
1	0x3d9dd00c	0.077056974
2	0x3d03e4fa	0.03220079
3	0x3d6ce363	0.05783404
4	0xbd322d96	-0.043500505
5	0x3d40b1ff	0.04704475
6	0x3da42450	0.080147386
7	0xbbae7b97	-0.0053247917
8	0xbd816f46	-0.06320052
9	0x3d9b09e6	0.07570247
10	0xbc35664d	-0.011071754
11	0xbd8d73f8	-0.06906885
12	0x3d413eea	0.04717914
13	0xbd97b27c	-0.0740709
14	0xbd0a707e	-0.033798687
15	0x3d46d9d6	0.04854759
16	0x3cb02622	0.021502558
17	0x3d0a56f0	0.033774316
18	0x3d9c144b	0.07621058
19	0x3cb6b54b	0.022303244
20	0x3cec5cd5	0.02885286
21	0x3cb8feba	0.0225824
22	0xbd180b2a	-0.037120022
23	0xbd034faa	-0.032058395
24	0xbd08ab08	-0.033366233
25	0xbd34b3c4	-0.04411675
26	0x3d291739	0.041281912
27	0x3d9a0ca0	0.07521939
28	0x3d998037	0.07495158
29	0x3b215fd8	0.0024623778
30	0x3da1e861	0.07905651
31	0xbd6530ba	-0.055954672
32	0xbd2207c3	-0.039558183
33	0x3d26b04d	0.040695477
34	0x3daa7567	0.08323174
35	0xbd0e8102	-0.034791
36	0xbc6d2808	-0.014474876
37	0xbd792c30	-0.060833156
38	0x3cc9f049	0.02465071
39	0x3ce5e0cf	0.028061299
40	0x3d3e897c	0.046517834
41	0xbc9c48ed	-0.019077742
42	0x3cc10605	0.02356244
43	0x3d6e02ea	0.058108248
44	0xbdae38d2	-0.08506931
45	0x3d1f07df	0.038825866
46	0x3d9e062c	0.07716021
47	0x3c39e836	0.011346867
48	0xbd9d1ab5	-0.076711096
49	0xbd9f6551	-0.077829964
50	0x3d9d561d	0.076824404
51	0xbc89752a	-0.016779501
52	0xbc44dfee	-0.01201628
53	0xbd67578d	-0.05647998
54	0xbd31e88a	-0.043434657
55	0x3d2fabd3	0.042888474
56	0x3d9bd8bf	0.076097004
57	0x3da12467	0.07868271
58	0x3cc7b6ca	0.024379153
59	0x3bc836e0	0.0061100572
60	0xbcd5a94b	-0.026081702
61	0xbb10e2f7	-0.0022107938
62	0xbd7527a0	-0.059852242
63	0xbd6a9050	-0.057266533
64	0x3c542f88	0.012950785
65	0x3d70fcad	0.05883472
66	0x3dab9365	0.08377723
67	0xbcfa635d	-0.030564958
68	0xbd661a1c	-0.056177244
69	0x3aad6ba1	0.0013230928
70	0x3d9965ee	0.07490145
71	0xbce0bb70	-0.027433127
72	0x3cbb78a9	0.022884684
73	0xbd824358	-0.06360501
74	0xbc994048	-0.01870741
75	0x3d952aed	0.07283578
76	0x3d5b51fa	0.053544976
77	0x3d0e2739	0.034705374
78	0x3d8aba6a	0.06773837
79	0xbca058b9	-0.019573556
80	0xbd03fd86	-0.0322242
81	0x3d181a2c	0.037134334
82	0x3d9fbb49	0.07799394
83	0x3d960cad	0.073266365
84	0x3dad5cc9	0.08464963
85	0xbd84e9fc	-0.064899415
86	0x3d6ccb25	0.05781092
87	0x3ca17a6a	0.019711692
88	0xbccce7c7	-0.025012864
89	0xbd921ee5	-0.07134799
90	0x3d4db2d5	0.050219376
91	0xbd80b763	-0.06284978
92	0xbcdcd378	-0.026956305
93	0x3d78d139	0.060746405
94	0xba2cc2d7	-0.00065903127
95	0x3d92e1b2	0.07171954
96	0x3c669059	0.014072501
97	0x3d8acfa3	0.06777885
98	0x3da01041	0.078156
99	0x3a46d088	0.0007584174
100	0x39d56966	0.00040705054
101	0xbcba80d1	-0.022766503
102	0x3cf9f57c	0.030512564
103	0x3d8963bb	0.06708475
104	0xbcdf2155	-0.027237574
105	0x3ce25cd6	0.027632158
106	0xbc12a7b1	-0.008951114
107	0x3db38166	0.08764915
108	0xbca62b5b	-0.020284345
109	0x3bbe487f	0.005806982
110	0x3d69bac9	0.057062898
111	0x3d8ba2b2	0.06818141
112	0x3b933c44	0.004493268
113	0x3cdd33f4	0.027002312
114	0xbce99387	-0.02851273
115	0xbdb4a3b7	-0.08820289
116	0xbcce8f90	-0.02521494
117	0x3d222ff6	0.03959652
118	0xbd7a4075	-0.061096627
119	0x3daa92b5	0.083287634
120	0xbd6beeda	-0.057600833
121	0xbcf70e67	-0.030158235
122	0x3c0e7cf4	0.008696783
123	0x3c9ac9ef	0.018895118
124	0x3d8e58d5	0.06950537
125	0xbc719487	-0.014744884
126	0x3d8e06f4	0.0693492
127	0xbdada19e	-0.08478092
128	0x3d6602d3	0.056155037
129	0xbd6ebd76	-0.058286153
130	0xbd707103	-0.058701526
131	0x3daa2956	0.083086655
132	0xbcaa2b54	-0.020772614
133	0x3d1a2987	0.03763726
134	0x3c4af593	0.012387651
135	0xbd5acdb1	-0.05341882
136	0xbca707ab	-0.020389399
137	0x3da1eb79	0.07906241
138	0xbd0e39d9	-0.034723137
139	0x3d8873e8	0.06662732
140	0x3d06cfc2	0.032912977
141	0x3d1c90d7	0.038224068
142	0xbda8825c	-0.08227989
143	0xbd859d6f	-0.06524169
144	0x3d700cf8	0.058606118
145	0xbd5a5d85	-0.053311843
146	0xbd056733	-0.03256912
147	0x3c258f09	0.010104903
148	0x3db1b94c	0.08677921
149	0x3d96ef73	0.0736989
150	0xbd8e5a82	-0.06950857
151	0xbda5df0d	-0.08099184
152	0x3da35c67	0.07976609
153	0x3d2c4557	0.042058315
154	0x3d8f96c2	0.07011177
155	0xbd6ab16d	-0.057298113
156	0xbd853be6	-0.06505565
157	0xbcd39e14	-0.025832213
158	0xbd2fe855	-0.04294618
159	0x3d7d33f1	0.061817113
160	0xbd137e5d	-0.03600918
161	0x3ce5d3bf	0.02805507
162	0x3d99d316	0.075109646
163	0x3d75c0eb	0.059998434
164	0x3d3dbe94	0.046324328
165	0xbd289ab2	-0.041163154
166	0x3b9b193b	0.0047332323
167	0xbda33780	-0.0796957
168	0x3d0496b9	0.032370303
169	0xbb9e0eeb	-0.0048235557
170	0xbc9d4f79	-0.019202935
171	0x3dacf4fe	0.08445166
172	0xba451604	-0.0007518234
173	0xbd21dcd9	-0.039517257
174	0x3dae58b7	0.08513015
175	0xbdb4c4de	-0.08826612
176	0xbd3fab45	-0.046794195
177	0x3c16deba	0.009208376
178	0xbd9ca5c3	-0.07648804
179	0x3c7f057e	0.015565274
180	0x3d650638	0.055914134
181	0xbd38d77e	-0.045127384
182	0x3d6e24d0	0.058140576
183	0x3d9a2d37	0.07528155
184	0x3c47a0a3	0.012184295
185	0x3c9b9e65	0.018996427
186	0xbcfc84ff	-0.030825136
187	0xbd1721fb	-0.03689764
188	0xbcc3a8c6	-0.023884188
189	0x3d8f2b7e	0.06990717
190	0xbd18fa99	-0.037348364
191	0xbdacb7a1	-0.08433462
192	0xbd31de22	-0.043424733
193	0xbd8d866c	-0.069104046
194	0xbd43c71a	-0.0477973
195	0x3a8617d4	0.001023049
196	0xbcb687c4	-0.022281535
197	0x3c2327dc	0.009958234
198	0xbd937fff	-0.07202148
199	0x3d6afc0f	0.057369288
200	0xbd0aba78	-0.033869237
201	0x3cc1fe82	0.02368093
202	0xbd726e74	-0.059187368
203	0x3d85b7a7	0.065291695
204	0xbdb224f3	-0.08698454
205	0x3dac1106	0.084016845
206	0x3d8a7eeb	0.06762489
207	0xbc2afa99	-0.010435724
208	0x3cb8e6f1	0.022571059
209	0xbc690c04	-0.014224056
210	0xbd75c32d	-0.060000587
211	0xbbbd50e8	-0.005777467
212	0x3dabfb5a	0.08397551
213	0xbd13d3af	-0.03609055
214	0x3daf0a42	0.085468784
215	0x3d1279b8	0.03576061
216	0x3d4b328c	0.049608752
217	0x3d3c3fa5	0.045959134
218	0xbdacf4a5	-0.084451
219	0xbd80dc6b	-0.062920414
220	0x3da55e77	0.08074658
221	0xbcfb63ed	-0.030687297
222	0xbd87b078	-0.066254556
223	0x3d16c572	0.036809392
224	0xbd280bad	-0.04102676
225	0x3da39904	0.0798817
226	0xbd5b5be8	-0.053554446
227	0xbc9ae02c	-0.018905722
228	0x3d1ca3fd	0.03824233
229	0xbd8c62bb	-0.06854769
230	0xbd50541b	-0.05086146
231	0xbabef1d5	-0.0014567921
232	0xbd203b2f	-0.039118942
233	0xbd0840de	-0.033264987
234	0xbc6b98e5	-0.014379715
235	0x3b7e1b1c	0.0038773483
236	0x3d271b98	0.0407978
237	0xbd57c0a8	-0.052673966
238	0x3d92c72c	0.07166895
239	0xbd9b4cbb	-0.075829946
240	0xbd31a6d6	-0.043371998
241	0x3db5afc3	0.088714145
242	0xbc76be91	-0.015060083
243	0xbaa9f842	-0.0012967663
244	0xbd987cb7	-0.074456625
245	0x3daa0e5b	0.08303519
246	0x3d984a03	0.074359916
247	0xbcb24e06	-0.02176572
248	0xbd2d2637	-0.042272773
249	0x3d8b3a39	0.067982145
250	0xbd4bd1dd	-0.049760688
251	0xbc4a9092	-0.01236357
252	0x3d97014a	0.07373293
253	0x3d8fb43f	0.07016801
254	0xbd301816	-0.04299172
255	0x3cc09f98	0.0235136

fc1.bias f4 [32]
0	0xbb99d08a	-0.0046940492
1	0xbd1043d0	-0.03522092
2	0xbd01c8df	-0.031685706
3	0x3d67df66	0.056609534
4	0xbd847e65	-0.0646942
5	0xbd058b5d	-0.03260361
6	0xbc3061d0	-0.010765508
7	0x3d83daa1	0.064381845
8	0x3d2cd50a	0.042195357
9	0x3d8b93a9	0.06815273
10	0x3daf1440	0.08548784
11	0xbd4f81b2	-0.050660796
12	0x3d9d0a11	0.07667936
13	0xbd61f86d	-0.055168558
14	0x3da2d111	0.079500325
15	0x3cf97944	0.030453332
16	0xbd6f2fbd	-0.058395136
17	0xbd8ed0f8	-0.069734514
18	0xbda6d4b9	-0.081460424
19	0x3cb86a5e	0.022511657
20	0xbd923173	-0.07138338
21	0xbc28a918	-0.010294221
22	0xbc841f20	-0.016128123
23	0x3d0974f6	0.03355881
24	0xbdab6e48	-0.08370644
25	0xbcac8ed8	-0.021064207
26	0x3d5ca202	0.05386544
27	0xbd4a297d	-0.049355973
28	0xbd030b84	-0.031993404
29	0xbd176d38	-0.036969393
30	0x3d23b0c3	0.039963495
31	0x3bfeda70	0.0077775046

fc_out.weight f4 [2, 32]
0	0xbd934472	-0.07190789
1	0x3d246e83	0.040144455
2	0x3d61160c	0.054952666
3	0x3e24cab2	0.16092947
4	0x3d199e4b	0.037504476
5	0xbd431144	-0.047623888
6	0x3d5b82e8	0.05359164
7	0x3e134be3	0.14384417
8	0x3e0e2ce0	0.13884306
9	0xbd07d65c	-0.033163413
10	0x3e1ca82a	0.15298524
11	0xbd66801c	-0.05627452
12	0x3e257890	0.16159272
13	0xbe21e2fe	-0.15809247
14	0x3db0bb2a	0.08629449
15	0x3dd9c656	0.10633533
16	0xbd3837a1	-0.044974927
17	0x3da3c129	0.07995827
18	0xbe1decd2	-0.15422371
19	0x3d0ec603	0.034856807
20	0x3e321985	0.17392547
21	0x3e2f1ff1	0.17102028
22	0x3d02835a	0.031863548
23	0x3ca33bb8	0.019925937
24	0x3e32426f	0.17408155
25	0x3e2a9723	0.16659217
26	0xbe2c66cc	-0.16836089
27	0xbda28552	-0.07935585
28	0x3cabfba6	0.020994019
29	0x3e288e5e	0.16460559
30	0xbd32f6b0	-0.04369229
31	0x3e0c6af1	0.1371267
32	0xbb60fe83	-0.0034331388
33	0x3d5fd8e9	0.05465022
34	0x3e18b991	0.14914538
35	0x3e2de646	0.16982374
36	0xbb84b8d9	-0.004050356
37	0x3c0c0a60	0.0085473955
38	0xbd3eb2e0	-0.046557307
39	0xbd4f152c	-0.0505573
40	0xbe1d79c9	-0.15378489
41	0xbe070324	-0.13184792
42	0x3cc2ddcc	0.023787402
43	0xbd85743d	-0.06516311
44	0xbca475f0	-0.020075768
45	0xbd9c6edc	-0.07638332
46	0xbd2139e8	-0.039361864
47	0x3e211593	0.15730886
48	0x3e18f192	0.14935902
49	0xbdbb9637	-0.091595106
50	0xbe06036b	-0.13087241
51	0x3c9a5f34	0.018844225
52	0x3b8bc340	0.004265219
53	0xbd51bcd4	-0.05120547
54	0xbe0854be	-0.13313577
55	0xbd7754a4	-0.060383454
56	0xbd88185b	-0.066452704
57	0xbe17eda8	-0.14836752
58	0xbdcf3dc8	-0.10119206
59	0xbe2cc02a	-0.1687018
60	0x3e1adff0	0.15124488
61	0xbdb4c916	-0.088274166
62	0x3e257904	0.16159445
63	0xbdc879bb	-0.09788843

fc_out.bias f4 [2]
0	0xbbee66c8	-0.007275436
1	0xbdd1d06b	-0.10244831
