sixth generation(prototypemixing)/pipeline_models_dg_zsl_phase_split_v2/stage2_maturity_classifier_strawberry_ft_cnn_best.pth (torch, 19296 bytes, 4 tensors)

fc1.weight f4 [32, 128]
0	0x3d114841	0.035469297
1	0x3da0e22a	0.07855637
2	0x3c3d041f	0.011536627
3	0xbd9cd03f	-0.07656907
4	0xbd9ee744	-0.07758954
5	0x3d96dfe4	0.073669225
6	0xbc38e740	-0.011285603
7	0xbc891243	-0.01673234
8	0xbd669709	-0.056296382
9	0xbd316343	-0.043307554
10	0x3d3ba526	0.045811795
11	0x3da31658	0.07963246
12	0x3d9a4820	0.07533288
13	0x3cc93987	0.024563564
14	0x3bc3c3e1	0.0059742783
15	0xbcf02dfd	-0.029318804
16	0xbb11bc53	-0.0022237494
17	0xbd662e41	-0.056196455
18	0xbd57f344	-0.05272223
19	0x3c1db70e	0.009626163
20	0x3d79bea3	0.06097282
21	0x3dab0bf6	0.08351891
22	0xbcfbc70e	-0.030734565
23	0xbd747486	-0.059681438
24	0x3accb979	0.001561924
25	0x3d986e1d	0.074428774
26	0xbcd52302	-0.02601767
27	0x3cc15b55	0.02360312
28	0xbd858101	-0.06518746
29	0xbc9b92d6	-0.018990915
30	0x3d94f1c4	0.07272676
31	0x3d6929d8	0.05692467
32	0x3d0ddf67	0.03463688
33	0x3d8a94c6	0.067666575
34	0xbc82fbfa	-0.015989292
35	0xbd076d79	-0.033063386
36	0x3d1819d0	0.03713399
37	0x3da6e5da	0.081493095
38	0x3d8eb63d	0.06968353
39	0x3dad2bb2	0.084556
40	0xbd8bb8bf	-0.06822347
41	0x3d6d6fcb	0.057967942
42	0x3ca0ea67	0.019643022
43	0xbcae653c	-0.021288507
44	0xbd92f02e	-0.07174717
45	0x3d5e5ea8	0.05428949
46	0xbd74eba8	-0.05979505
47	0xbcdd7d0a	-0.027037162
48	0x3d81820e	0.06323634
49	0xba9ccb42	-0.0011962431
50	0x3d8bd2b1	0.068272956
51	0x3c8f109a	0.01746397
52	0x3d8ae582	0.067820564
53	0x3da6c29f	0.0814259
54	0x3b8e3945	0.004340323
55	0x39923f2a	0.0002789435
56	0xbca0ba19	-0.019619988
57	0x3d08f180	0.033433437
58	0x3d827d61	0.063715704
59	0xbcc311d4	-0.023812212
60	0x3cdfafe3	0.027305549
61	0xbc473763	-0.012159201
62	0x3db3943b	0.08768507
63	0xbca60281	-0.020264866
64	0x3b201cd7	0.0024431252
65	0x3d6916ad	0.05690639
66	0x3d8508b1	0.064957984
67	0x3a253e0a	0.0006303495
68	0x3cc2c055	0.023773352
69	0xbce96ed5	-0.028495232
70	0xbdb0db29	-0.086355515
71	0xbce90586	-0.028445017
72	0x3d226df8	0.039655656
73	0xbd7ab9a5	-0.0612122
74	0x3da9d252	0.082920685
75	0xbd7ab66e	-0.061209135
76	0xbcf69106	-0.03009845
77	0x3c4b9cb0	0.012427494
78	0x3c9baa60	0.01900214
79	0x3d8e7109	0.069551535
80	0xbc33b19c	-0.010967638
81	0x3d7cfa61	0.061762217
82	0xbdabc80c	-0.08387765
83	0x3d6b1b66	0.057399176
84	0xbd77b3a9	-0.06047407
85	0xbd79521f	-0.060869332
86	0x3da8421c	0.08215734
87	0xbc96d91e	-0.018414076
88	0x3d1101fe	0.03540229
89	0x3c770c93	0.0150786815
90	0xbd628c99	-0.055309866
91	0xbcbb5971	-0.022869797
92	0x3d9d573f	0.076826565
93	0xbd11ae26	-0.03556647
94	0x3d8d9338	0.069128454
95	0x3cf9064d	0.030398512
96	0x3d215a40	0.03939271
97	0xbda550cf	-0.08072054
98	0xbd8acdf5	-0.067775644
99	0x3d65d2d9	0.056109283
100	0xbd5f7023	-0.0545503
101	0xbd0121e8	-0.031526476
102	0x3bfbe906	0.0076876907
103	0x3dac3826	0.08409147
104	0x3d94970e	0.07255374
105	0xbd908bdb	-0.07057925
106	0xbdaae048	-0.083435595
107	0x3da239bb	0.079211675
108	0x3d2e95df	0.042623397
109	0x3d877ae6	0.06615238
110	0xbd6d7d60	-0.057980895
111	0xbd8df8cc	-0.0693222
112	0xbcdc36e5	-0.026881645
113	0xbd2cabd9	-0.042156074
114	0x3d797148	0.06089905
115	0xbd17de92	-0.037077494
116	0x3ced2ff2	0.028953526
117	0x3d92aab8	0.07161468
118	0x3d7fcdeb	0.062452238
119	0x3d39d33f	0.045367476
120	0xbd2e46dc	-0.042548046
121	0x3b039582	0.0020078127
122	0xbd9e0c28	-0.07717162
123	0x3d0f4ddd	0.034986366
124	0xbbc62f84	-0.006048145
125	0xbcaf418c	-0.02139356
126	0x3dabd866	0.08390884
127	0xbb4e1073	-0.003144291
128	0xbd1db083	-0.038498413
129	0x3db4a42b	0.08820375
130	0xbdafac90	-0.085778356
131	0xbd371376	-0.044696294
132	0x3c41244f	0.011788442
133	0xbd9a955f	-0.075480215
134	0x3c839b82	0.016065363
135	0x3d6a8958	0.057259887
136	0xbd2eb976	-0.042657338
137	0x3d77882e	0.060432605
138	0x3d9740d8	0.07385415
139	0x3c3ad146	0.011402434
140	0x3ca26d87	0.019827617
141	0xbd0710cc	-0.032975003
142	0xbd0e07fa	-0.034675576
143	0xbcbd2d48	-0.02309288
144	0x3d8a4e86	0.067532584
145	0xbd1b9eef	-0.037993368
146	0xbdae9012	-0.08523573
147	0xbd2e82b8	-0.042605132
148	0xbd854b6e	-0.06508528
149	0xbd4cacd9	-0.049969528
150	0xbac36554	-0.0014907517
151	0xbcb03fa8	-0.021514729
152	0x3c4c2db4	0.012462068
153	0xbd8faecf	-0.07015764
154	0x3d606375	0.05478235
155	0xbcfcb6c0	-0.03084886
156	0x3cc784f4	0.02435539
157	0xbd7d07b0	-0.06177491
158	0x3d80f385	0.06296448
159	0xbdb428be	-0.087968335
160	0x3da734a9	0.08164341
161	0x3d8edcd8	0.06975716
162	0xbc3eebf8	-0.011652939
163	0x3ca1b67f	0.019740341
164	0xbc86f714	-0.016475238
165	0xbd78e09b	-0.060761075
166	0xbba8a211	-0.005146273
167	0x3da76701	0.08173943
168	0xbd10487d	-0.03522538
169	0x3db4173b	0.08793493
170	0x3d1b3b66	0.037898444
171	0x3d48b83e	0.049003832
172	0x3d44007c	0.047852024
173	0xbdaf283a	-0.085525945
174	0xbd82f983	-0.06395247
175	0x3da07ca9	0.07836277
176	0xbd027dac	-0.03185813
177	0xbd8ce7f2	-0.068801776
178	0x3d1ab49b	0.037769895
179	0xbd2b6f4c	-0.041854188
180	0x3da85e0a	0.082210615
181	0xbd6035f7	-0.054738965
182	0xbca05476	-0.019571524
183	0x3d130de1	0.035901908
184	0xbd8e8d51	-0.06960548
185	0xbd579478	-0.052631825
186	0xb9f38610	-0.00046448456
187	0xbd247725	-0.040152688
188	0xbd00160e	-0.031271033
189	0xbc5cb5d2	-0.013471084
190	0x3ad00343	0.0015870113
191	0x3d2e7a8a	0.04259733
192	0xbd53f1dc	-0.051744327
193	0x3d8dac9a	0.06917687
194	0xbd990cef	-0.0747317
195	0xbd2e6579	-0.04257724
196	0x3db7c607	0.089733176
197	0xbc8d233c	-0.017228715
198	0xbb2f40a4	-0.002674141
199	0xbd96d23c	-0.07364318
200	0x3da59a05	0.080860175
201	0x3d9cf0a4	0.07663086
202	0xbca15b30	-0.019696802
203	0xbd2a650a	-0.041600265
204	0x3d8685c8	0.065684855
205	0xbd4f54e2	-0.05061806
206	0xbc22dec6	-0.009940809
207	0x3d924c1f	0.07143425
208	0x3d8e0563	0.06934621
209	0xbd3b826f	-0.045778688
210	0x3cb51144	0.02210296
211	0x3c9278df	0.017879901
212	0x3cfeb8f9	0.031094061
213	0xbdae2b20	-0.08504319
214	0xbd4e17be	-0.05031561
215	0x3ca9db97	0.020734591
216	0x3c852245	0.016251693
217	0x3d96224f	0.073307626
218	0xbd2b5d17	-0.041836824
219	0x3da9da66	0.08293609
220	0x3d87b7ad	0.0662683
221	0x3d906ac2	0.070516124
222	0x3d945020	0.07241845
223	0xbd8d4299	-0.06897468
224	0x3cbab2d3	0.022790348
225	0xb9bc2b08	-0.00035890215
226	0x3d0391de	0.03212153
227	0x3d2051a8	0.039140373
228	0x3d38ec64	0.045147315
229	0x3d10e091	0.035370413
230	0x3daa631b	0.08319684
231	0xbbaec986	-0.005334082
232	0x3d9a5a9e	0.07536815
233	0x3d2ff030	0.04295367
234	0xbd3e517e	-0.046464436
235	0x3d2c004b	0.041992467
236	0x3d7555f7	0.059896436
237	0xbd7a9c8e	-0.06118446
238	0xbcc3e480	-0.023912668
239	0x3d9b9d1f	0.07598328
240	0x3c9f8390	0.019471914
241	0x3d252048	0.04031399
242	0xbd9655c8	-0.0734058
243	0xbd21a3e3	-0.039462935
244	0x3cbbeea6	0.022940945
245	0x3cacd854	0.021099247
246	0xbc3f1e43	-0.01166493
247	0x3c4439c9	0.011976668
248	0xbd66a8a5	-0.056313176
249	0xbdad7a3f	-0.08470582
250	0xbccd07c4	-0.025028117
251	0x3d2d8738	0.042365283
252	0x3cf3853a	0.029726613
253	0xbcb70d30	-0.022345155
254	0x3d26b058	0.04069552
255	0xbce8a955	-0.028401056

fc1.bias f4 [32]
0	0xbda78661	-0.081799276
1	0x3d3732a1	0.044726018
2	0x3d5a849d	0.053349126
3	0xbcbc664c	-0.022997998
4	0x3d23512a	0.039872326
5	0xbda0d943	-0.078539394
6	0x3c6dfe04	0.014525894
7	0x3daac797	0.0833885
8	0x3dab5366	0.08365516
9	0x3c333ba4	0.010939512
10	0x3c0f541c	0.008748081
11	0x3db2426f	0.087040775
12	0x3daa6e00	0.08321762
13	0xbdae3391	-0.08505929
14	0xbd2a3407	-0.041553523
15	0x3c0d92d7	0.008640966
16	0x3da552d4	0.08072439
17	0xbcb763ac	-0.022386394
18	0x3d8c6af1	0.06856335
19	0xbaf7a5fd	-0.0018894073
20	0x3ce75b03	0.02824164
21	0x3d9897dd	0.074508406
22	0x3dac1a61	0.08403469
23	0xbb0ea460	-0.0021765456
24	0x3bb15e68	0.0054128654
25	0xbcbeb2e0	-0.023278654
26	0xbccf152c	-0.02527865
27	0xbd9fa8f7	-0.07795899
28	0xbd8bb9b1	-0.06822527
29	0x3c28c9b8	0.010302
30	0xbcfe4c13	-0.031042134
31	0xbc6e4928	-0.014543809

fc_out.weight f4 [2, 32]
0	0xbd91df6a	-0.07122691
1	0xbd1d9dd5	-0.0384806
2	0x3e1f6400	0.1556549
3	0x3e19fd3f	0.15038012
4	0xbdbb2638	-0.09138149
5	0xbe0437e1	-0.12911941
6	0x3cac22b7	0.021012647
7	0x3bf463a7	0.0074581685
8	0xbd451aa9	-0.04812113
9	0xbe0501a6	-0.1298891
10	0xbd69e3eb	-0.057102125
11	0xbd88185b	-0.066452704
12	0xbe1745d7	-0.14772736
13	0xbdcba441	-0.09943438
14	0xbe2865ff	-0.16445158
15	0x3e159f5c	0.14611572
16	0xbdb26e20	-0.08712411
17	0x3e269441	0.16267492
18	0xbdc879bb	-0.09788843
19	0xbbb82575	-0.0056196996
20	0xbdd37c5d	-0.10326455
21	0x3c73162a	0.014836827
22	0xbe0ccc53	-0.13749819
23	0xbdf5e850	-0.12007201
24	0xbd972145	-0.073793925
25	0xbd86642b	-0.06562074
26	0x3dfec8f2	0.12440671
27	0xbbc1f58c	-0.005919164
28	0xbe2094bf	-0.15681742
29	0xbd823153	-0.06357064
30	0x3c2c89f6	0.010530939
31	0xbc8e5bad	-0.017377699
32	0x3d8f0b0d	0.0698453
33	0xbe3473e6	-0.17622337
34	0xbe1fbea6	-0.1560007
35	0x3e0accc5	0.13554676
36	0xbdc07ab4	-0.09398404
37	0xbdbe8bfb	-0.09304043
38	0x3e0abae6	0.13547859
39	0x3e2b9f9a	0.16760102
40	0x3e10fa49	0.14157976
41	0x3d3b8026	0.04577651
42	0x3d0c4b1f	0.03425133
43	0xbd8ef1c8	-0.0697971
44	0xbe1ab641	-0.15108587
45	0x3e33a9e7	0.17545281
46	0x3c6fe003	0.014640811
47	0xbd8f5518	-0.06998652
48	0x3d82e1e7	0.06390744
49	0x3e2ef205	0.1708451
50	0x3d1aa898	0.03775844
51	0xbd878c3a	-0.06618543
52	0xbb824127	-0.003975052
53	0xbca0cd6e	-0.019629207
54	0xbddf9cc7	-0.10918575
55	0x3c874518	0.016512439
56	0xbe1a9ca1	-0.15098812
57	0x3d4051f0	0.04695314
58	0xbd282768	-0.041053206
59	0xbdac3a7d	-0.08409593
60	0xbd0f73a9	-0.03502241
61	0x3cbca8e8	0.02302976
62	0xbe23e763	-0.16006236
63	0x3ddf907e	0.109162316

fc_out.bias f4 [2]
0	0x3da4a3fa	0.080390885
1	0xbdc20859	-0.094742484
