sixth generation(prototypemixing)/pipeline_models_dg_zsl_phase_split_v2/stage2_maturity_classifier_grape_ft_cnn_best.pth (torch, 19256 bytes, 4 tensors)

fc1.weight f4 [32, 128]
0.042820048 0.0608909 0.048170276 0.019464385 -0.00067196484 0.013515837 -0.01369827 0.024590982
-0.05072453 -0.043997716 -0.009871039 -0.059055887 0.01945282 0.077916734 0.05536419 -0.07850679
-0.009183768 0.04244998 -0.036142133 0.008957244 0.03202439 -0.07464771 -0.047715172 -0.036563024
0.023125792 -0.023665173 -0.090134315 -0.07349506 0.08090264 0.024675233 0.09204244 -0.070657365
-0.049083382 0.015474244 -0.05268083 -0.034419794 0.0549265 0.056267407 0.04810767 0.061077096
-0.025082154 0.05250987 -0.06887659 -0.09011469 0.016442738 0.0074728522 -0.035949126 0.039742284
0.07675544 -0.0797299 0.014145943 -0.06953359 0.06295212 -0.022736443 0.058791794 0.052048948
-0.027171718 -0.028155787 -0.022124998 0.065543555 -0.042750757 -0.05400434 0.015638232 0.067184895
0.08426752 -0.017950695 -0.014471017 -0.07358029 0.041987475 -0.017255347 -0.01732755 0.00977544
-0.047134887 0.07030457 -0.07777649 0.0053334557 0.040287364 0.0306809 0.05190805 -0.054771975
0.012036567 -0.021327078 0.01513215 -0.036593843 -0.031766403 0.069213904 0.03551428 -0.005168317
-0.07098012 0.02470653 -0.051532406 -0.035436444 -0.04413904 0.046623636 0.06443094 -0.0668725
0.028123427 0.040415533 0.008404548 0.08205382 0.058092147 0.08244461 -0.01666972 0.009913465
0.036020987 -0.0011486858 -0.071676485 0.07986109 -0.019422723 0.043192178 -0.00813141 0.02627634
-0.026297403 -0.046348188 0.030292537 0.014098239 -0.018338243 0.07708248 0.006393723 0.021552358
0.02348157 0.04936721 0.03405728 -0.024261663 0.08428787 0.012081602 0.07699509 -0.058414742
-0.021902487 0.055713363 -0.0010977238 -0.08178393 -0.06044347 0.0333941 0.062631495 -0.05981782
0.084024034 0.046529077 -0.016631223 -0.058668062 0.07947304 0.021337703 -0.04198489 0.0013568327
-0.05778001 0.052440517 -0.008011945 0.0651769 0.088001125 0.002368167 -0.085036375 -0.04251226
-0.070936464 -0.0033456609 -0.0658819 -0.03607627 -0.035098094 0.08388802 -0.05027152 0.08598279
-0.039362848 -0.06771184 -0.027325392 0.07813894 0.0288193 -0.02623241 0.0874745 0.004469946
0.055079587 0.055076845 0.06338488 0.05343937 -0.017764457 0.080556266 -0.08317941 0.024985597
0.013749383 0.010342963 0.023341917 -0.014780395 0.06272014 -0.04309063 -0.014841221 -0.0632968
0.0053100362 -0.070668176 -0.05848045 0.062467717 -0.07469241 0.04018744 -0.015662447 0.08651801
0.01717075 0.08787436 -0.05067283 0.014793478 -0.014616609 0.059587322 -0.015757672 0.08424469
0.04077863 0.060322545 -0.075627156 -0.072397895 -0.07243109 0.013045095 -0.075535245 0.054450743
0.04333336 0.08539345 -0.0013484657 0.05385583 -0.061932214 0.013906322 0.009906396 0.08512958
-0.055011373 0.041013576 0.037255578 -0.05107648 0.0032230765 0.03540294 -0.05906929 -0.022173464
0.017320402 0.047930844 0.038438924 0.08172632 -0.08815269 -0.022467367 -0.04461285 -0.029845618
0.07277062 -0.037796967 -0.0073988587 0.02213519 0.011054508 0.054958545 -0.043322947 0.012167342
0.04764182 -0.08329291 -0.07209973 -0.027492821 0.04588885 0.018933967 0.06859013 0.03864681
-0.01842811 -0.080131575 -0.05527224 0.086688824 0.025331184 -0.037673276 0.0030154735 0.082579665
00000000: 1364 2f3d bd68 793d 324e 453d c673 9f3c
00000010: cc26 30ba 8771 5d3c b56e 60bc 0773 c93c
00000020: 86c4 4fbd f336 34bd 23ba 21bc 96e4 71bd
00000030: 855b 9f3c cf92 9f3d 90c5 623d 2bc8 a0bd
00000040: 8477 16bc 08e0 2d3d c609 14bd 68c1 123c
00000050: 022c 033d e6e0 98bd fc70 43bd 1cc3 15bd
00000060: 4d72 bd3c 77dd c1bc 5798 b8bd 9484 96bd
00000070: 49b0 a53d b723 ca3c bf80 bc3d cfb4 90bd
00000080: a80b 49bd af87 7d3c dbc7 57bd c5fb 0cbd
00000090: 9cfa 603d a778 663d 8c0c 453d fa2b 7a3d
000000a0: 1779 cdbc 9714 573d 2b0f 8dbd 0d8e b8bd
000000b0: ecb2 863c d4de f43b 643f 13bd cec8 223d
000000c0: f531 9d3d 6e49 a3bd 63c4 673c a067 8ebd
000000d0: 0bed 803d c741 babc aacf 703d 4731 553d
000000e0: 3997 debc f7a6 e6bc 7c3f b5bc b33b 863d
000000f0: 6b1b 2fbd a833 5dbd c01b 803c 3c98 893d
00000100: 7394 ac3d 560d 93bc d817 6dbc 43b1 96bd
00000110: 0ffb 2b3d 165b 8dbc 82f2 8dbc 2b29 203c
00000120: 8310 41bd d8fb 8f3d 4849 9fbd 45c4 ae3b
00000130: 5d04 253d 8356 fb3c 899d 543d 9458 60bd
00000140: 0535 453c 20b6 aebc d6ec 773c 6de3 15bd
00000150: 7d1d 02bd 05c0 8d3d 6c77 113d fc5a a9bb
00000160: 065e 91bd 5965 ca3c a513 53bd ce25 11bd
00000170: 23cb 34bd 6df8 3e3d 5ef4 833d 73f4 88bd
00000180: 1a63 e63c c28a 253d 3bb3 093c d50b a83d
00000190: 08f2 6d3d b8d8 a83d f08e 88bc 166c 223c
000001a0: be8a 133d 808f 96ba 1fcb 92bd 368e a33d
000001b0: 671c 9fbc 48ea 303d 9b39 05bc 7b41 d73c
000001c0: a76d d7bc 99d7 3dbd 0e28 f83c 4dfc 663c
000001d0: 153a 96bc 6bdd 9d3d 7082 d13b 928e b03c
000001e0: 6c5c c03c 4635 4a3d a57f 0b3d 65c0 c6bc
000001f0: 1e9f ac3d e9f1 453c 9aaf 9d3d 4c44 6fbd
00000200: d86c b3bc b233 643d 80e1 8fba 557e a7bd
00000210: 9293 77bd 40c8 083d f144 803d 8803 75bd
00000220: cb14 ac3d 4695 3e3d 343e 88bc ec4d 70bd
00000230: c3c2 a23d 68cc ae3c 59f8 2bbd c0d7 b13a
00000240: bbaa 6cbd decb 563d 8844 03bc 777b 853d
00000250: ef39 b43d 4033 1b3b 8d27 aebd 5621 2ebd
00000260: 2347 91bd e042 5bbb 17ed 86bd b6c4 13bd
00000270: 05c3 0fbd 7bcd ab3d 82e9 4dbd bf17 b03d
00000280: f03a 21bd 81ac 8abd 80d9 dfbc 4f07 a03d
00000290: 7416 ec3c 5ae5 d6bc d525 b33d a078 923b
000002a0: 229b 613d 4298 613d efcf 813d 3ee3 5a3d
000002b0: c486 91bc affa a43d f759 aabd 98ae cc3c
000002c0: 1845 613c 8875 293c 8c37 bf3c 7829 72bc
000002d0: 6b73 803d cd7f 30bd 9828 73bc c1a1 81bd
000002e0: d0ff ad3b 7aba 90bd 3289 6fbd 26de 7f3d
000002f0: 56f8 98bd 969b 243d 884e 80bc 5b30 b13d
00000300: aca9 8c3c 79f7 b33d 508e 4fbd 5860 723c
00000310: 807a 6fbc d611 743d 3c16 81bc 7b88 ac3d
00000320: 7e07 273d c614 773d 69e2 9abd 5945 94bd
00000330: c056 94bd 18bb 553c 39b2 9abd be07 5f3d
00000340: 527e 313d c3e2 ae3d 00bf b0ba ee97 5c3d
00000350: a2ac 7dbd 58d7 633c 704e 223c 6b58 ae3d
00000360: 9b53 61bd dafd 273d 4e99 183d 9235 51bd
00000370: 403a 533b ac02 113d a4f2 71bd 20a5 b5bc
00000380: 84e3 8d3c 2253 443d 2272 1d3d 2160 a73d
00000390: 6689 b4bd 7c0d b8bc f7bb 36bd cc7e f4bc
000003a0: c308 953d fed0 1abd 2072 f2bb dc54 b53c
000003b0: f81d 353c 361c 613d 6773 31bd 8859 473c
000003c0: 1224 433d 7995 aabd 06a9 93bd a038 e1bc
000003d0: f2f5 3b3d 681b 9b3c fb78 8c3d 1e4c 1e3d
000003e0: 8cf6 96bc 061c a4bd 2565 62bd e989 b13d
000003f0: 5883 cf3c 4b4f 1abd 409f 453b 871f a93d

fc1.bias f4 [32]
0.0021711136 0.018556617 0.05019728 0.044046022 0.07253275 -0.08845392 0.016372837 0.04938584
0.046265207 0.02227132 -0.041411787 0.020918243 -0.055333026 -0.0132765025 -0.025623605 0.051652677
-0.047880966 -0.014219739 0.07712192 -0.088709995 0.021696784 -0.072271034 -0.01375401 -0.029196765
-0.009727418 -0.009180903 -0.0035574064 0.02648216 -0.076036945 -0.028679498 0.06739265 -0.028814513
00000000: 3e49 0e3b 0c04 983c aa9b 4d3d 9a69 343d
00000010: 0d8c 943d 5427 b5bd 5420 863c ce48 4a3d
00000020: 9680 3d3d 5872 b63c 689f 29bd bc5c ab3c
00000030: e2a4 62bd b085 59bc 98e8 d1bc c291 533d
00000040: d51e 44bd e8f9 68bc 19f2 9d3d 96ad b5bd
00000050: 74bd b13c d602 94bd 8058 61bc 0e2e efbc
00000060: c05f 1fbc 806b 16bc 6023 69bb 1df1 d83c
00000070: 42b9 9bbd 44f1 eabc 2805 8a3d 6a0c ecbc

fc_out.weight f4 [2, 32]
-0.030975718 0.17273082 0.05308537 0.08173321 0.094010666 0.12159825 -0.09483437 -0.14384298
0.06788091 -0.00030587614 0.004054457 0.118931904 0.15723054 0.015137985 0.11098693 -0.11864217
-0.06662157 -0.08821603 -0.032630533 0.09644095 -0.06292529 -0.15179531 -0.14142251 -0.07843583
0.03425567 0.1524563 0.054735318 -0.16471821 -0.13312306 -0.15304035 0.05950018 -0.17381573
0.13967869 0.10270573 -0.08774172 0.014330685 0.042640045 -0.10708884 -0.15350063 -0.03265962
-0.03732404 -0.1256143 -0.072844796 0.13290916 -0.088031456 -0.1085781 -0.111252755 -0.07395031
0.15491506 0.06390105 0.093769655 -0.09774768 0.018712163 0.012311032 -0.07933316 0.13398196
0.037734896 0.043635428 -0.07049524 -0.038851753 -0.04022993 0.09181009 -0.0073053916 0.06710328
00000000: cac0 fdbc 59e0 303e 0c70 593d be63 a73d
00000010: aa88 c03d 8108 f93d 8638 c2bd 934b 13be
00000020: 2605 8b3d 005e a0b9 40db 843b 9292 f33d
00000030: 0b01 213e 5005 783c 1e4d e33d abfa f2bd
00000040: e470 88bd 9baa b4bd 98a7 05bd d582 c53d
00000050: f9de 80bd 3b70 1bbe 10d1 10be f7a2 a0bd
00000060: ac4f 0c3d 811d 1c3e 2432 603d e4ab 28be
00000070: 6951 08be 9cb6 1cbe 76b6 733d c0fc 31be
00000080: ee07 0f3e 6257 d23d eeb1 b3bd 40cb 6a3c
00000090: 54a7 2e3d 6551 dbbd 452f 1dbe 18c6 05bd
000000a0: 18e1 18bd 09a1 00be a72f 95bd 5719 083e
000000b0: d649 b4bd 325e debd 7cd8 e3bd 4373 97bd
000000c0: 0ea2 1e3e 8ede 823d 4e0a c03d f02f c8bd
000000d0: 404a 993c 36b4 493c 6c79 a2bd 9132 093e
000000e0: e88f 1a3d 10bb 323d cf5f 90bd 0423 1fbd
000000f0: 24c8 24bd ee06 bc3d 1162 efbb 726d 893d

fc_out.bias f4 [2]
0.06998392 -0.11534198
00000000: bb53 8f3d 6a38 ecbd
