sixth generation(prototypemixing)/pipeline_models_dg_zsl_phase_split_v2/stage2_maturity_classifier_grape_ft_cnn_best.pth (torch, 19256 bytes, 4 tensors)

fc1.weight f4 [32, 128]
00000000: 6bd6 e53c 68b1 903d 7d08 c83c 792b 3d3c
00000010: 6fc9 43bb 16b1 b3bc 7774 7abc e9ad 473c
00000020: 7815 67bd 0b16 6fbd 48d8 383c d088 85bd
00000030: 81d1 26bc af74 b33d 98e7 f33c 4d41 a1bd
00000040: 5d59 a83b 6c7f 8a3d 7d9e c5bc f0db 8a3c
00000050: 275b 8a3c 4825 b2bd 756c d9bc 4699 02bd
00000060: 01b7 693b a561 1cbd 1414 c2bd 3bd8 b3bd
00000070: 96ac 993d 4e76 083d bff9 d13d 334d 2cbd
00000080: 6702 54bd f8c9 f1bb 2c85 88bd 93b9 35bc
00000090: 4710 873d 5f60 a83d fab2 ec3c ebc8 703d
000000a0: 555c 4cbd 6d42 143d c22e 75bd c0e0 83bd
000000b0: 40d2 15bc fcd1 143d 2a8f 7dbc 7723 913d
000000c0: fc4a b93d 5248 64bd 2d32 463c f454 57bd
000000d0: b7f6 033d 44e5 0fbd c253 aa3d 0ae1 893d
000000e0: 62d3 0fbd 3709 28bc 700e 82bc 091c 6d3d
000000f0: 4d60 5ebd ddf7 8cbd cf4a 463c bd2c 243d
00000100: 578d a53d 7290 afbb ec2f 4bbd 0ed5 cbbd
00000110: f55c ef3c f879 7a3a f82a 9cba d428 923c
00000120: 9b67 00bd b519 453d 114d a6bd 15bf bdbc
00000130: 3160 913d 40dc 353d 4463 253d 02aa cdbc
00000140: 7be7 0a3d 94f7 36bd 74e4 373d 7737 c3bc
00000150: 8dbf d7bc f50b 263d 01f5 d83c 46de 4cbc
00000160: 7690 b5bd 2c94 403d dea1 1dbd 38db 73bd
00000170: 353c 46bd 007e 063d ea38 9e3d 8866 a7bd
00000180: 9a18 583d 3368 443d 5119 95bc 7d21 863d
00000190: 4ad5 633d 11a3 b83d 5a77 30bd aa6a b2bc
000001a0: 5fda 473c 82f5 04bc 32f8 c6bd 839f 7f3d
000001b0: 77f1 d73b 2749 3a3c de8c e9bc 9ddd 7fbb
000001c0: 24f0 19bd 8310 6bbd 17a6 ed3c 2cb7 893a
000001d0: 821f 4a3a bab1 783d 0595 013d 120b f93a
000001e0: 3a22 f93c 8e78 443d 12b6 0d3d a5a4 48ba
000001f0: aa3c 683d f5d9 02bc 4761 7e3d 306f 50bd
00000200: 3492 ddbc 22ef 9e3d cf25 ad3c 9125 b7bd
00000210: 9949 2abd c072 8a3d 1dde 473d bb04 94bd
00000220: ae93 cc3d e4c9 853d b1be 4bbd a906 83bd
00000230: 5e25 e53d bdfd 56ba c5dd 9fbc 962b 5a3c
00000240: 6930 54bd a31d 8b3c c54d 31bb 8e5d 943d
00000250: 2b05 b63d a054 ccba 5461 d9bd 9872 ebbc
00000260: dc3f 92bd 02a0 9e3c 1413 a2bd 8a97 b6bc
00000270: e534 87bc 5e9c 913d 3200 42bd 41cd 6b3d
00000280: a229 5cbd d872 66bd 2d28 f0bc 7648 233d
00000290: 9512 063c 4237 5fbd 21f6 b03d 888d ebbb
000002a0: ae5c 6c3d 9349 4d3d f2e5 8a3d ed45 df3c
000002b0: 51fa 033c f0a4 423d 3d81 a9bd 88f3 abbb
000002c0: 63d8 763c 7eb4 3abc 0e75 1e3d 5362 49bc
000002d0: 570d bf3d aeba 04bd ee05 1fbd b289 76bd
000002e0: 4a10 3c3b be46 8cbd f53f 47bd c90a 6c3d
000002f0: 540f 5fbd 2fcd 6b3d a8be c63b ce5e f13d
00000300: 74e4 113d 2e68 c53d 4f47 98bc 5ff0 303d
00000310: fb48 59bc ce8c 013d 6130 1abd 45d4 bc3d
00000320: 3612 363d 6c1c 843d 96ba 7cbd e4b0 1cbd
00000330: 729c d2bd 9726 793c e156 a0bd ac24 253d
00000340: 8459 403d d559 e03d 1de7 1dbd 0384 733d
00000350: 18df 34bd a1b9 433d bf39 ea3b e9b9 983d
00000360: 7a6f dabc fd15 b53b 4851 423d bdd4 55bd
00000370: b0d1 9c3c e6bf 0d3d 8de2 62bd d396 ffba
00000380: a4ef 2ebc b3ef 173d 17e5 393d 0735 a43d
00000390: 4c54 8fbd a71f 2cbd f814 8cbc a42e ac3b
000003a0: bdfe aa3d 1487 36bd 090a a63c f78a 9a3c
000003b0: a8ac d3bc 9e05 a53d 1e3d 03bd 1026 623c
000003c0: 1033 363d 1d31 bcbd 0e21 75bd f226 eebc
000003d0: 86f3 573d b7fc 243d f7f8 243d 6ad5 1b3d
000003e0: 68b1 16bc 1873 88bd 210f 91bd 3b28 5b3d
000003f0: bf57 7a3d 4c4f 34bc b6df 353b 083b b73d
0.028056344 0.070650876 0.02441811 0.011546009 -0.0029874702 -0.021935027 -0.015286556 0.0121874595
-0.05641696 -0.05837063 0.011282034 -0.065202355 -0.010181786 0.0876249 0.029773518 -0.07873783
0.005137606 0.06762585 -0.024123425 0.016950577 0.016889168 -0.08698517 -0.026540974 -0.031884454
0.0035662057 -0.03817906 -0.09476486 -0.08781477 0.07503621 0.03331595 0.102527134 -0.04206581
-0.051760104 -0.007378813 -0.066660255 -0.011091608 0.065949015 0.08221506 0.028893936 0.05878536
-0.049892742 0.03619616 -0.059859045 -0.06439352 -0.009144366 0.03633307 -0.0154760275 0.070868425
0.09047505 -0.055733033 0.012096924 -0.052571252 0.032217707 -0.035130754 0.08316757 0.06732376
-0.0351137 -0.010256103 -0.015876025 0.057888065 -0.05429106 -0.06883214 0.012102797 0.04008173
0.08083599 -0.0053577954 -0.04960625 -0.09952746 0.02921913 0.0009554918 -0.0011914661 0.017841734
-0.031348806 0.04812022 -0.08120168 -0.023162404 0.07098425 0.0443995 0.04037787 -0.02510548
0.033912163 -0.044669703 0.044895604 -0.023830159 -0.026336456 0.040538747 0.026484014 -0.012504166
-0.08865444 0.047016308 -0.038484447 -0.059535235 -0.04839726 0.032835007 0.07725699 -0.08173853
0.052757837 0.047950935 -0.018200548 0.06549356 0.05562333 0.090154774 -0.043082573 -0.021779377
0.01219806 -0.008115174 -0.09715308 0.06240798 0.006590064 0.01136998 -0.028509554 -0.0039042004
-0.03758253 -0.057388794 0.029009862 0.001050686 0.00077103835 0.06071637 0.031636257 0.0019000492
0.030411828 0.047966532 0.034597464 -0.00076539285 0.05669848 -0.007986535 0.06210449 -0.050887287
-0.027047254 0.07760455 0.021136193 -0.08942712 -0.041574094 0.06760168 0.048795808 -0.07227465
0.09989105 0.06532648 -0.049742404 -0.06397755 0.11188768 -0.0008201262 -0.019514928 0.013316056
-0.05180398 0.016981905 -0.002705441 0.07244407 0.088877045 -0.0015589185 -0.10614267 -0.028741166
-0.071410865 0.019363407 -0.07913795 -0.022289056 -0.016504714 0.07109903 -0.047363468 0.057568792
-0.05375064 -0.056261867 -0.029316032 0.039864026 0.008183141 -0.054496057 0.08640695 -0.0071885027
0.057705574 0.050118994 0.0678214 0.027255023 0.008055286 0.047520578 -0.08276603 -0.005247537
0.015066239 -0.011395572 0.03868585 -0.012291509 0.09328716 -0.032404594 -0.038824014 -0.06018991
0.0028696232 -0.068494305 -0.04864498 0.057627473 -0.054457977 0.057568725 0.0060652085 0.11785661
0.03561826 0.09639011 -0.01858869 0.043197986 -0.013262029 0.031628422 -0.037643794 0.09220175
0.04445096 0.064507335 -0.06170138 -0.038254634 -0.10283746 0.015206954 -0.07829071 0.040318176
0.04696037 0.10954634 -0.038550485 0.059452068 -0.04415807 0.04778445 0.007147997 0.074573345
-0.026664484 0.005526303 0.047440797 -0.052204836 0.019142956 0.034606837 -0.055391837 -0.0019499905
-0.010677252 0.03709383 0.045384493 0.08017927 -0.069985 -0.042022374 -0.017099842 0.0052545834
0.08349369 -0.044562414 0.020268457 0.018865092 -0.025839165 0.08057712 -0.032040708 0.01380302
0.04448229 -0.09189055 -0.059845977 -0.029071305 0.052722476 0.04028007 0.040276494 0.038045324
-0.00919757 -0.066625774 -0.07082964 0.053505164 0.061118837 -0.011005234 0.002775175 0.08946806

fc1.bias f4 [32]
00000000: 83ec ac3a 1fad ff3b b6d9 033d 9a69 343d
00000010: 1169 773d 837c b3bd 5420 863c 73b5 813d
00000020: 6534 383d 5872 b63c 8722 52bd 980c 0f3d
00000030: fb17 5dbd b085 59bc fb27 0cbd 8051 3f3d
00000040: 70f7 34bd 89e2 81bc 19f2 9d3d 5626 b1bd
00000050: 74bd b13c 8ddc 8dbd 8058 61bc 0e2e efbc
00000060: c05f 1fbc 005c b1bc 6023 69bb b0a9 2d3d
00000070: 42b9 9bbd 44f1 eabc 685c 643d f83f c1bc
0.0013193045 0.00780262 0.032190047 0.044046022 0.060402934 -0.08763983 0.016372837 0.06333437
0.044971842 0.02227132 -0.05130246 0.03492412 -0.053977948 -0.0132765025 -0.034217816 0.046708584
-0.044181287 -0.01585509 0.07712192 -0.0864989 0.021696784 -0.06926832 -0.01375401 -0.029196765
-0.009727418 -0.021650314 -0.0035574064 0.042398155 -0.076036945 -0.028679498 0.055752188 -0.023590073

fc_out.weight f4 [2, 32]
00000000: 237e b9bc dd16 333e a749 743d be63 a73d
00000010: aff4 f93d ca46 fe3d 8638 c2bd 1574 39be
00000020: 1a6e 893d 005e a0b9 db61 153d 63c1 c53d
00000030: 4e83 223e 5005 783c 4eea 0e3e b4d7 ebbd
00000040: 70bb 8dbd 8009 afbd 98a7 05bd 76ab c73d
00000050: f9de 80bd 5b83 1ebe 10d1 10be f7a2 a0bd
00000060: ac4f 0c3d b013 363e 2432 603d 4e85 3ebe
00000070: 6951 08be 9cb6 1cbe 966f 863d c745 2ebe
00000080: 977f 063e 61ea cd3d bb1e c1bd 40cb 6a3c
00000090: 703d 6f3c ae8f e0bd 452f 1dbe d4de 963b
000000a0: 01b3 15bd 09a1 00be da92 d7bd f101 1f3e
000000b0: 544e b7bd 325e debd fd2f 0fbe 3a96 9ebd
000000c0: 5347 213e e07a 7a3d 4e0a c03d 9158 cabd
000000d0: 404a 993c 90e6 7a3c 6c79 a2bd 9132 093e
000000e0: e88f 1a3d d7c4 953c cf5f 90bd dc7a 8fbc
000000f0: 24c8 24bd ee06 bc3d 0a54 5cbc 7cff 813d
-0.022643154 0.1748919 0.059640553 0.08173321 0.12204873 0.12415846 -0.09483437 -0.18110688
0.06710453 -0.00030587614 0.036470275 0.09656026 0.15870401 0.015137985 0.13956568 -0.115157515
-0.069205165 -0.08546734 -0.032630533 0.097495005 -0.06292529 -0.15479796 -0.14142251 -0.07843583
0.03425567 0.17780948 0.054735318 -0.18605539 -0.13312306 -0.15304035 0.06564252 -0.17018805
0.13134609 0.1005447 -0.094296895 0.014330685 0.01460205 -0.10964905 -0.15350063 0.0046042
-0.036547665 -0.1256143 -0.105260566 0.15528084 -0.08950487 -0.1085781 -0.1398315 -0.07743497
0.15749864 0.06115234 0.093769655 -0.09880174 0.018712163 0.015313759 -0.07933316 0.13398196
0.037734896 0.018282337 -0.07049524 -0.017514639 -0.04022993 0.09181009 -0.013447771 0.06347558

fc_out.bias f4 [2]
00000000: 47d2 5f3d d1cd ccbd
0.054643895 -0.10000194
