fifth generation/pipeline_models_v2/stage2_maturity_classifier_tomato_using_cnn_best.pth (torch, 19288 bytes, 4 tensors)

fc1.weight f4 [32, 128]
0	0xbc2a4d50	-0.010394409
1	0x3cbeff80	0.023315191
2	0x3c453680	0.01203692
3	0x3d453f66	0.048156165
4	0x3d4fab4a	0.050700463
5	0xbc1cd5f8	-0.0095724985
6	0x3d332286	0.043734096
7	0x3a767938	0.0009402218
8	0xbd7047be	-0.05866217
9	0x3c467418	0.01211264
10	0xbc0b2860	-0.008493513
11	0x3d9943d3	0.074836396
12	0x3c272e68	0.010203935
13	0xbcb33494	-0.021875657
14	0x3d4dbb46	0.050227426
15	0x3c89f5dc	0.016840868
16	0x3d2aceae	0.04170101
17	0xbdb24373	-0.08704271
18	0xbda14dab	-0.07876142
19	0x3cf145f0	0.029452294
20	0x3d2b9f96	0.04190024
21	0xbd2c2ab5	-0.042032916
22	0xbd0ba15e	-0.03408944
23	0xbcbdf760	-0.023189247
24	0x3da903ad	0.08252654
25	0x3ab6fa78	0.0013960144
26	0xbd8ae870	-0.06782615
27	0x3d86ce6b	0.0658234
28	0xbdabc6ca	-0.083875254
29	0xbdaa1f9b	-0.083068095
30	0xbd469547	-0.048482206
31	0x3d918233	0.07104912
32	0xbd071a0e	-0.032983832
33	0xbd81ddbc	-0.063411206
34	0x3d7c2e76	0.061567746
35	0x3da60d9d	0.08108065
36	0x3c86b19c	0.016442113
37	0x3d9765db	0.07392474
38	0xbbc16ab8	-0.0059026144
39	0x3d85f389	0.06540591
40	0xbd3d9c25	-0.04629149
41	0xbd4449a7	-0.047921803
42	0x3dac7b5b	0.08421966
43	0x3c1a9cf0	0.009436831
44	0xbd151bc5	-0.036403436
45	0x3d9ad9a9	0.07561047
46	0xbd9b0f66	-0.075712964
47	0x3d937055	0.0719916
48	0xbd3f858f	-0.04675823
49	0x3d741342	0.05958868
50	0x3c2a8058	0.010406576
51	0x3d4797aa	0.048728622
52	0x3d610dee	0.054944925
53	0xbd007231	-0.0313589
54	0xbd123790	-0.03569752
55	0x3cdbb328	0.026818827
56	0x3da1a0b7	0.07891982
57	0x3c938e8c	0.018012308
58	0x3d9e669b	0.07734414
59	0x3a8959f8	0.0010479083
60	0x3b0ee118	0.0021801647
61	0x3ba92fe8	0.0051631816
62	0xbda92c0b	-0.08260354
63	0x3d9ebc4f	0.07750761
64	0x3d840b6f	0.06447493
65	0xbd8c0e11	-0.068386205
66	0xbd6127d3	-0.05496962
67	0xbc3cfbb8	-0.011534624
68	0xbd82d230	-0.06387746
69	0xbd0672ec	-0.03282444
70	0x3cec246c	0.028825961
71	0x3d281096	0.041031443
72	0x3d379622	0.044820912
73	0x3d985979	0.074389406
74	0xbd3a3a91	-0.04546601
75	0x3b0406f8	0.0020145755
76	0x3d6a006e	0.057129316
77	0x3cd62d14	0.026144542
78	0x3cf13230	0.029442877
79	0xbda8daec	-0.08244881
80	0xbd046a81	-0.032328133
81	0xbcff811e	-0.031189498
82	0x3c95f4dc	0.018305235
83	0x3dad4409	0.08460242
84	0xbd88bd9e	-0.066767916
85	0xbd11ade3	-0.035566222
86	0xbd5e5bb6	-0.05428668
87	0xbcf81452	-0.030283127
88	0x3d08a904	0.03336431
89	0x3a6863b8	0.0008864957
90	0x3db1a305	0.08673672
91	0x3d8b2ed3	0.067960404
92	0xbd1d4039	-0.038391326
93	0x3cab1d58	0.020888016
94	0x3d25c4b6	0.0404708
95	0x3c94e62c	0.01817616
96	0x3d17e26e	0.037081175
97	0xbc991550	-0.01868692
98	0x3caa4624	0.020785399
99	0x3d1f4fea	0.03889457
100	0xbc19b9b8	-0.009382658
101	0x3d4d519e	0.050126664
102	0x3d189622	0.037252553
103	0xbca54dec	-0.020178758
104	0x3c9984f0	0.018740147
105	0x3d55f4c6	0.052235387
106	0xbda2594e	-0.0792719
107	0x3d363a82	0.04448939
108	0x3d84303b	0.06454512
109	0xbca9cc74	-0.020727374
110	0xbc7e81f0	-0.015533909
111	0xbd62d613	-0.05537994
112	0xbcc18718	-0.023623988
113	0xbd823e63	-0.063595556
114	0x3d81430d	0.06311617
115	0xbcb49e70	-0.022048205
116	0xbd331fe6	-0.043731593
117	0x3d193032	0.03739948
118	0xbd6085f3	-0.054815244
119	0xbd6bf264	-0.05760421
120	0x3d8e61c9	0.06952245
121	0xbd0a34e8	-0.03374186
122	0xba923978	-0.0011156043
123	0x38af7738	8.3668565e-05
124	0xbd221ad4	-0.039576367
125	0xbda70b17	-0.08156412
126	0xbd697e6f	-0.057005342
127	0x3c8a4dd8	0.016882822
128	0x3d42e093	0.047577452
129	0xbdcdd86f	-0.10051047
130	0x3cda7606	0.026667606
131	0xbd921977	-0.07133763
132	0x3cd6c8ed	0.026218856
133	0x3d32f64e	0.043691926
134	0xbcaed082	-0.021339659
135	0xbd99a906	-0.07502942
136	0xbdff49df	-0.12465262
137	0xbd13ae4b	-0.03605489
138	0xbd41a0f6	-0.047272645
139	0x3c1164fd	0.008874175
140	0x3c4f7c7d	0.012663958
141	0xbda7a3ff	-0.08185577
142	0x3cf775f9	0.030207621
143	0xbd2157d9	-0.03939042
144	0xbd8752c1	-0.06607581
145	0x3c43a09a	0.011940146
146	0x3dc969da	0.09834643
147	0xbd87253a	-0.06598897
148	0xbc886ae3	-0.01665253
149	0xbd634627	-0.055486824
150	0x3caf10c1	0.021370294
151	0x3d1dfae2	0.03856934
152	0xbd4e0753	-0.050299954
153	0xbb75ca45	-0.0037504595
154	0xbdabc89a	-0.08387871
155	0xbd65e506	-0.056126617
156	0xbc840c07	-0.016119016
157	0x3dc922ba	0.09821077
158	0x3b4a330c	0.003085318
159	0xbd1cee6e	-0.03831332
160	0xbd823d1d	-0.06359313
161	0xbda61c59	-0.08110876
162	0x3d1942ae	0.037417106
163	0x3d92414d	0.071413614
164	0x3d127fec	0.035766527
165	0xbd65c706	-0.056098007
166	0x3ca7d2f3	0.02048633
167	0xbd89d278	-0.06729597
168	0xbda2a7f7	-0.07942193
169	0xbd9df034	-0.07711831
170	0xbddb6128	-0.107118905
171	0x3d309f6d	0.04312079
172	0xbdc91d8c	-0.09820089
173	0xbd9520a9	-0.0728162
174	0x3d74a20f	0.059724864
175	0x3ce42438	0.027849302
176	0x3c7621a9	0.015022674
177	0xbc1ea5ce	-0.009683086
178	0x3cd7d07d	0.026344532
179	0x3c75b3c1	0.01499647
180	0x3dcf576e	0.10124098
181	0x3cbe2113	0.02320913
182	0x3cf91e38	0.030409917
183	0xbcd9757a	-0.026545275
184	0x3e077f5e	0.1323218
185	0x3d39853a	0.04529307
186	0x3d276cd6	0.04087528
187	0x3d798f72	0.060927816
188	0xbce91cac	-0.028456055
189	0xbbf3ffcf	-0.0074462662
190	0x3c268473	0.010163414
191	0xbdbfb9e9	-0.093616314
192	0x3c2fd96e	0.010732992
193	0x3d226a5a	0.039652206
194	0xbd60f689	-0.054922614
195	0xbda673cb	-0.081275545
196	0x3d458762	0.048224814
197	0xbd514531	-0.051091377
198	0x3d0b0d1e	0.033948056
199	0x3c0c9d43	0.008582416
200	0xbd61a44b	-0.055088323
201	0x3e1f7122	0.155705
202	0xbca86fb5	-0.020561079
203	0xbc4e99df	-0.012609928
204	0x3d4f19ea	0.050561823
205	0xbd4a82d1	-0.049441162
206	0x3d950c8a	0.07277782
207	0x3c410d5a	0.011782968
208	0x3ab54bc1	0.001383178
209	0xbe234a62	-0.15946344
210	0xbda9683d	-0.08271835
211	0x3d923453	0.07138886
212	0xbcab81de	-0.020935949
213	0xbd85c45c	-0.06531593
214	0xbbdded5f	-0.0067726816
215	0x3d9a3fca	0.07531698
216	0x3da3639f	0.079779856
217	0xbd978dfd	-0.07400129
218	0xbdaf20df	-0.085511915
219	0xbc892676	-0.016741972
220	0x3c08b868	0.008344747
221	0xbd65a265	-0.056063075
222	0x3c4fda1d	0.01268628
223	0xbc12bab7	-0.008955649
224	0xbd016358	-0.031588882
225	0xbd982ae7	-0.07430058
226	0x3d5ce5e4	0.05393018
227	0x3d467510	0.048451483
228	0x3d0c7788	0.03429368
229	0x3c9d9fd0	0.019241244
230	0x3be22d71	0.0069023897
231	0xbd995421	-0.074867494
232	0xbc767ebc	-0.015044864
233	0xbd49957a	-0.049214818
234	0xbd9f6332	-0.07782592
235	0xbd825439	-0.063637204
236	0xbd89d273	-0.06729593
237	0x3be09b5d	0.0068544582
238	0x3d392114	0.04519756
239	0x3da05cb8	0.07830185
240	0x3d4d7d75	0.050168473
241	0x3d992c61	0.07479168
242	0x3d965b8d	0.07341681
243	0x3d747e78	0.059690922
244	0x3d4054a0	0.046955705
245	0x3cf94e97	0.030432982
246	0xbda50744	-0.080580264
247	0x3d85a3cd	0.06525383
248	0x3d4fb55a	0.05071006
249	0xbd95ac3e	-0.07308243
250	0x3d5e0b60	0.054210067
251	0x3e05c793	0.13064413
252	0x3d1a27d8	0.037635654
253	0x3d982edb	0.07430812
254	0xbdc176e8	-0.09446508
255	0x3bac3863	0.0052557453

fc1.bias f4 [32]
0	0x3d95aad3	0.07307973
1	0x3e017f21	0.12646152
2	0x3b3cdcb7	0.002881808
3	0xbd130056	-0.035888992
4	0x3dc911d4	0.098178536
5	0xba921007	-0.0011143693
6	0xbdd64a23	-0.10463359
7	0x3d014628	0.031561047
8	0xbd87cc02	-0.06630708
9	0x3d2f1c7e	0.04275178
10	0x3d03217a	0.032014348
11	0xbb2448c7	-0.0025067793
12	0xbd22d2f1	-0.03975195
13	0xbce2a0b8	-0.027664527
14	0xba918078	-0.0011100909
15	0xbdbc2ce2	-0.09188248
16	0x3d1d56ea	0.038412966
17	0x3d3f4934	0.04670067
18	0x3d60049c	0.054691896
19	0xbd0767ff	-0.033058163
20	0x3bcf7d0b	0.006332045
21	0x3e1e8745	0.15481289
22	0xbb8088d5	-0.0039225616
23	0x3d6058e6	0.05477228
24	0x3caafb0a	0.020871658
25	0xbcac4f9f	-0.02103406
26	0x3cc65248	0.024209157
27	0xbc1fade5	-0.0097460495
28	0x3d1739c4	0.036920324
29	0x39dcd697	0.00042121552
30	0xbd7c0a73	-0.061533403
31	0xbdb486c0	-0.08814764

fc_out.weight f4 [2, 32]
0	0xbe16be9f	-0.14721154
1	0xbda0256a	-0.07819636
2	0xbd5c2858	-0.053749412
3	0xbdcec03d	-0.1009526
4	0xbe488df1	-0.19585396
5	0xbda2baf0	-0.07945812
6	0x3e422faa	0.18963495
7	0x3e56f451	0.20991637
8	0xbd4dd394	-0.050250605
9	0x3e281617	0.16414677
10	0x3e113061	0.14178611
11	0x3e5d4ab0	0.21610522
12	0x3e0819cf	0.13291095
13	0xbe620fa4	-0.22076279
14	0x3dc3e87a	0.09565826
15	0xbd36a9cc	-0.044595525
16	0xbe142114	-0.14465743
17	0xbe549c44	-0.20762736
18	0x3de79780	0.11308193
19	0xbc4efeb9	-0.012633973
20	0xbdab91b8	-0.08377403
21	0xbe81080e	-0.25201458
22	0xbd8f8cde	-0.0700929
23	0xbd6e8682	-0.058233745
24	0x3e069e10	0.13146234
25	0x3e314779	0.17312421
26	0xbdf1ce45	-0.11806921
27	0xbe334c1e	-0.17509505
28	0x3d78d421	0.060749177
29	0xbe4135e6	-0.18868217
30	0x3d7715f3	0.060323667
31	0xbd9b429e	-0.075810656
32	0xbd552d80	-0.052045345
33	0x3e1225f4	0.1427229
34	0xbd812bae	-0.06307159
35	0xbc808b30	-0.01569137
36	0x3e415345	0.18879421
37	0x3da72c06	0.08162694
38	0x3db806aa	0.08985646
39	0xbd3a10b3	-0.045426082
40	0x3e073c0b	0.13206498
41	0xbd4583fc	-0.048221573
42	0xbe2c583a	-0.16830531
43	0xbe448a1d	-0.19193311
44	0x3e1676af	0.14693712
45	0x3dbb405f	0.09143137
46	0x3d76d434	0.060260966
47	0xbb435956	-0.0029807887
48	0x3cd7ba89	0.026334064
49	0x3c818ac0	0.015813231
50	0x3e165542	0.14680961
51	0xbab1da48	-0.0013569081
52	0x3d62d217	0.05537614
53	0xbd79ed9a	-0.06101761
54	0xbe2c6ba8	-0.16837943
55	0x3d86de3a	0.06585355
56	0x3e098e34	0.13433152
57	0xbc2d2719	-0.010568404
58	0x3e71626d	0.23572703
59	0x3e3fadde	0.18718669
60	0x3c58c560	0.013230652
61	0x3cefe949	0.029286044
62	0x3e0ee250	0.13953519
63	0x3e1bf217	0.15229069

fc_out.bias f4 [2]
0	0xbdf3f71d	-0.119123675
1	0x3da65240	0.08121157
