fifth generation/pipeline_models_v2/stage1_feature_extractor_handcrafted_best.pth (torch, 11680 bytes, 4 tensors)

fc1.weight f4 [32, 5]
0	0x3eac4b12	0.33651024
1	0x3ec084a8	0.3760121
2	0xbde57c5a	-0.11205359
3	0x3ecee7c9	0.40411213
4	0xbdbd1b4c	-0.09233722
5	0x3db80ab8	0.089864194
6	0xbe60eced	-0.2196538
7	0x3e85d603	0.2613984
8	0x3ec92822	0.3928843
9	0xbea5bd6d	-0.32371083
10	0x3ec6eab9	0.38850954
11	0x3db2a0a5	0.08722047
12	0x3ea65186	0.32484072
13	0x3d671452	0.056415863
14	0x3e6257ed	0.22103854
15	0xbd835855	-0.064133324
16	0x3eb0b0c2	0.34509856
17	0x3d8592b5	0.06522123
18	0xbe55afe8	-0.20867884
19	0x3de29aca	0.1106468
20	0xbe584bf3	-0.21122722
21	0xbd3735e6	-0.044729136
22	0xbe3b759a	-0.1830658
23	0x3e98d35e	0.2984876
24	0xbeb39723	-0.35076246
25	0xbe57dcb3	-0.21080284
26	0xbdf4af4d	-0.119474985
27	0xbe89c20e	-0.26905864
28	0x3d323bb7	0.04351398
29	0xbee3dfa3	-0.4450656
30	0x3ecd8556	0.4014079
31	0xbec11f81	-0.37719348
32	0x3eb153f2	0.34634358
33	0x3d9da237	0.07696956
34	0xbe134e2b	-0.14385287
35	0x3e8bea95	0.2732741
36	0x3d9c690b	0.07637223
37	0x3eb5fe5c	0.35545623
38	0x3d39c67e	0.045355313
39	0xbe0a89f4	-0.13529187
40	0x3dec3dd4	0.1153523
41	0xbdec27f5	-0.11531059
42	0x3e3aa03e	0.1822519
43	0x3ecab5b6	0.3959176
44	0x3e875277	0.26430103
45	0xbe49e861	-0.19717552
46	0x3e83ad7e	0.25718302
47	0x3d9a32c2	0.075292125
48	0x3e657236	0.2240685
49	0xbe8b948e	-0.27261776
50	0xbee4c165	-0.44678798
51	0xbe3189bc	-0.17337698
52	0xbeafefb7	-0.34362575
53	0x3ebb1d4a	0.36545783
54	0x3e0628f4	0.1310156
55	0x3e3c6bf7	0.1840056
56	0x3e11fc7c	0.14256471
57	0xbc26f5f2	-0.010190474
58	0x3eb2acbf	0.3489742
59	0xbea368e4	-0.31915963
60	0x3cbe2813	0.023212468
61	0xbe9a60e6	-0.30152053
62	0x3e0d66f8	0.1380881
63	0xbe1c0d42	-0.15239432
64	0x3e0fbfa1	0.14037944
65	0xbdb8e2a7	-0.090276055
66	0x3ebc6ae7	0.3680031
67	0xbe84937b	-0.2589377
68	0xbe86260c	-0.26200902
69	0xbe8a6d36	-0.27036446
70	0x3ece28b0	0.40265417
71	0x3e14dc73	0.1453722
72	0x3eda8545	0.42679802
73	0xbebea971	-0.3723865
74	0xbee0b75b	-0.4388989
75	0xbeb1c240	-0.34718513
76	0xbe9d0d1a	-0.30674058
77	0x3e3c0f13	0.18365125
78	0x3e248494	0.160662
79	0x3ebbc390	0.3667264
80	0xbe673b3d	-0.22581191
81	0xbe9e0bf3	-0.30868492
82	0x3e755647	0.23958693
83	0xbe3795d2	-0.17928246
84	0x3e88bb5d	0.26705447
85	0xbde54540	-0.11194849
86	0x3e86e1bf	0.26344106
87	0xbeb5480c	-0.3540653
88	0xbe6c64f0	-0.2308538
89	0x3e12441f	0.14283799
90	0x3dbdad78	0.09261602
91	0xbddc226a	-0.107487515
92	0x3e8752f6	0.26430482
93	0x3e9bc484	0.30423367
94	0xbea5f779	-0.3241537
95	0xbe7a1f2e	-0.24425957
96	0x3ed27b1e	0.41109556
97	0xbe1c15a6	-0.15242633
98	0xbe2408cf	-0.16018985
99	0xbedfca7a	-0.43709165
100	0xbe805dec	-0.25071657
101	0x3dd89632	0.105755225
102	0xbd57312b	-0.052537125
103	0xbea4581a	-0.32098466
104	0x3b89b3aa	0.004202326
105	0xbe992146	-0.29908198
106	0xbec583e0	-0.38577175
107	0xbe747bda	-0.2387537
108	0xbec4b8ce	-0.38422245
109	0xbe94db35	-0.29073492
110	0x3ee6b557	0.45060226
111	0x3db81ec3	0.08990242
112	0x3e0fef7f	0.14056204
113	0xbed41998	-0.41425776
114	0xbe95e476	-0.29275864
115	0xbe15ad3a	-0.14616862
116	0x3d865153	0.0655848
117	0xbec7bc1f	-0.39010713
118	0xbe43cca5	-0.19121034
119	0xbe882032	-0.26587063
120	0x3bca0831	0.0061655273
121	0xbe2e1d98	-0.17003477
122	0xbccdc9b0	-0.025120586
123	0xbe98df61	-0.29857925
124	0xbea070d9	-0.31336096
125	0xbe82eb80	-0.25570297
126	0xbe21aacf	-0.15787815
127	0xbeb17414	-0.34658873
128	0x3ec280d0	0.379889
129	0xbdc30003	-0.095214866
130	0x3ec43413	0.3832098
131	0x3e147cf5	0.14500792
132	0xbec51d57	-0.38498947
133	0x3e9c4845	0.30523887
134	0xbdee5996	-0.11638181
135	0xbe297b51	-0.16550948
136	0xbebfcc98	-0.3746078
137	0xbee0fe80	-0.43944168
138	0x3e082c32	0.13298109
139	0xbdcf1129	-0.10110695
140	0x3e2ff5d8	0.17183626
141	0xbeba9766	-0.36443633
142	0x3eabd4b9	0.33560732
143	0xbea64c3a	-0.3248003
144	0xbda90c1e	-0.08254264
145	0x3dbcb6c4	0.09214547
146	0x3e6b473d	0.22976394
147	0x3eb6aedb	0.3568028
148	0x3ececb9c	0.40389717
149	0xbeb4ffa0	-0.35351276
150	0x3deaf846	0.11473136
151	0xbe4b7825	-0.1987005
152	0xbd36ec3e	-0.04465889
153	0xbeaa4190	-0.33253145
154	0x3ecd0628	0.4004376
155	0xbeaad765	-0.33367458
156	0x3e771074	0.2412737
157	0x3e1bece2	0.15227082
158	0x3e0f7cb5	0.14012416
159	0xbe75eb89	-0.24015631

fc1.bias f4 [32]
0	0x3ed36fe9	0.41296318
1	0x3dc0e5df	0.094188444
2	0x3d80e58f	0.06293785
3	0xbec9ad2e	-0.39389938
4	0x3e43e6e9	0.19131054
5	0xbd83fdf5	-0.06444923
6	0xbe5542f5	-0.20826323
7	0x3ec7dd08	0.3903582
8	0x3dd87ee5	0.10571078
9	0xbe7cbd04	-0.24681479
10	0xbe676df7	-0.22600542
11	0xbc9dba9b	-0.01925402
12	0x3e8023e6	0.25027388
13	0xbdf4a73f	-0.11945962
14	0xbe84581d	-0.25848475
15	0xbe21118c	-0.1572935
16	0xbeaca344	-0.33718312
17	0x3e2a333d	0.16621108
18	0x3eb28d98	0.34873652
19	0xbed4ca63	-0.4156066
20	0x3dc95763	0.09831121
21	0x3e64d25b	0.22345869
22	0x3da67802	0.081283584
23	0xbe27e45e	-0.16395709
24	0x3e6a8389	0.22901739
25	0x3e6a61ee	0.2288892
26	0x3e318af3	0.17338161
27	0xbdad68b9	-0.0846724
28	0xbdfa9c75	-0.12236873
29	0x3d45cffe	0.04829406
30	0xbdad31a4	-0.08456734
31	0xbe02b0bf	-0.12762736

fc2.weight f4 [64, 32]
0	0x3df1e0b0	0.11810434
1	0x3e18167a	0.14852324
2	0xbc550a4e	-0.013002945
3	0xbd26ad10	-0.04069239
4	0x3ba4a13e	0.0050241044
5	0xbc0fbdaf	-0.008773251
6	0x3d36e3b3	0.044650745
7	0x3d582d17	0.052777376
8	0xbe1e1a13	-0.15439634
9	0xbd88e3ab	-0.06684049
10	0x3e1f9da8	0.15587485
11	0x3d864fda	0.06558199
12	0xbb6e9471	-0.0036404396
13	0xbdcd1a1c	-0.100147456
14	0xbde08295	-0.109624065
15	0xbe1c64ec	-0.15272874
16	0xbd57c2b0	-0.052675903
17	0x3d893a81	0.06700612
18	0x3de3e810	0.11128247
19	0x3daba7a1	0.08381582
20	0xbe186f7e	-0.14886281
21	0xbdcd1cc4	-0.10015252
22	0xbce07fa9	-0.027404623
23	0x3e33bfec	0.17553681
24	0x3cd3e643	0.025866633
25	0xbd1f943a	-0.03895972
26	0x3da05446	0.07828574
27	0xbd86ad5c	-0.065760344
28	0xbdf6128c	-0.12015256
29	0x3e0075e1	0.12544967
30	0xbd98f4b6	-0.0746855
31	0xbd099ba8	-0.03359571
32	0xbe337bf4	-0.17527753
33	0x3deab1fd	0.1145973
34	0x3e0abe6f	0.13549207
35	0x3d811204	0.06302264
36	0xbe015439	-0.12629785
37	0xbe332130	-0.17493129
38	0xbe11a5eb	-0.14223449
39	0x3e0567bc	0.13027853
40	0x3db37b22	0.0876372
41	0x3e1508a9	0.14554085
42	0x3dba099c	0.09083864
43	0x3d258fb7	0.04042026
44	0x3af53339	0.0018707282
45	0xbe08f44e	-0.13374445
46	0xbe1e1c63	-0.15440516
47	0xbe2a9109	-0.16656889
48	0x3d8cc930	0.06874311
49	0xbda565c4	-0.08076051
50	0xbd1fde7a	-0.03903053
51	0xbdd37d6e	-0.10326658
52	0xbce81bf0	-0.028333634
53	0xbe004137	-0.12524877
54	0xbdee7c50	-0.116448045
55	0x3d70c580	0.0587821
56	0xbd58adc2	-0.052900083
57	0x3de54ab8	0.11195892
58	0xbd623c15	-0.05523308
59	0xbe032ad0	-0.128093
60	0xbcda4828	-0.026645735
61	0xbdb8d75a	-0.0902545
62	0xbd4e9372	-0.050433584
63	0xbe2f306e	-0.17108318
64	0x3dd4ab4b	0.10384234
65	0xbe01b8d7	-0.12668167
66	0x3dbed728	0.093183815
67	0x3da1fd5f	0.07909655
68	0x3e03cc36	0.12870869
69	0xbe092aa2	-0.1339517
70	0x3e043556	0.12910971
71	0xbda5b314	-0.08090797
72	0x3d923617	0.07139223
73	0x3e28372b	0.16427295
74	0xbc91ee00	-0.017813683
75	0xbb9e483c	-0.0048303884
76	0xbd11b62c	-0.035574123
77	0xbe10867c	-0.14113802
78	0x3daa029a	0.083012775
79	0xbe2dfb33	-0.16990356
80	0x3deae39e	0.11469196
81	0x3e0ed085	0.13946731
82	0x3e2976c9	0.16549219
83	0xbd2286ce	-0.03967934
84	0xbe0d5450	-0.13801694
85	0x3d3b3fa4	0.04571499
86	0x3dc87906	0.097887084
87	0xbe2f8c13	-0.17143278
88	0xbd22fd71	-0.03979248
89	0xbdcb12a4	-0.09915665
90	0xbc2a4f72	-0.010394918
91	0xbdae9a1b	-0.08525487
92	0xbda00cf7	-0.07814973
93	0xbd745aa4	-0.059656754
94	0xbe263ca1	-0.16234066
95	0x3e1642f2	0.14673975
96	0x3e1b9756	0.15194449
97	0xbcfe37d7	-0.031032486
98	0xbc89bbdd	-0.016813213
99	0xbd96324b	-0.07333811
100	0xbe22f38e	-0.15913221
101	0xbe2e84c5	-0.17042835
102	0x3d897203	0.06711199
103	0xbdc4e891	-0.09614671
104	0xbddedfe0	-0.108825445
105	0xbc825476	-0.015909415
106	0xbd57701d	-0.052597154
107	0xbd792394	-0.060824946
108	0x3c304225	0.010757958
109	0xbd02bb23	-0.03191675
110	0xbd81890b	-0.06324967
111	0xbda2a147	-0.079409175
112	0xbe0e2a74	-0.13883382
113	0x3e1f1ba7	0.15537892
114	0xbd960eae	-0.07327019
115	0x3d425b32	0.047450252
116	0xbd5f3a5e	-0.054499023
117	0x3ca9d50b	0.02073147
118	0x3e27876b	0.16360252
119	0x3db02c99	0.08602256
120	0xbe1ce6fb	-0.15322487
121	0x3d9c84fe	0.07642554
122	0x3e2f8f67	0.17144547
123	0x3d491046	0.049087785
124	0x3de7f94d	0.11326847
125	0x3e2e6a29	0.17032684
126	0xbcb18266	-0.021668624
127	0x3d16b24a	0.036791123
128	0xbdf91fd1	-0.121642716
129	0xbd22df20	-0.03976357
130	0x3e089eb3	0.13341789
131	0x3db75505	0.08951763
132	0xbde99d84	-0.11406997
133	0xbe117ab1	-0.1420696
134	0xbdf3f552	-0.119120255
135	0xbe33620c	-0.1751787
136	0xbe07e8fc	-0.1327247
137	0xbd3ea3df	-0.046543
138	0x3dfd176e	0.123579845
139	0x3cd205b3	0.025637483
140	0xbe043f94	-0.12914878
141	0xbe0e4a16	-0.13895449
142	0x3dae874b	0.08521899
143	0xbe02cca8	-0.12773383
144	0xbca38665	-0.019961545
145	0x3dbb83cc	0.09155998
146	0xbdadeeb2	-0.08492793
147	0xbca3deec	-0.020003758
148	0xbc186c1e	-0.009303121
149	0xbd149c3c	-0.03628181
150	0xbdb8d897	-0.09025686
151	0xbe1f616b	-0.15564506
152	0xbe12ec43	-0.14347939
153	0xbdb75607	-0.08951955
154	0x3e31c34f	0.1735966
155	0xbda51ccd	-0.08062134
156	0xbdf1f20a	-0.118137434
157	0x3d1d7e18	0.03845033
158	0x3d5e04ba	0.054203726
159	0x3dc2a250	0.09503615
160	0x3e0e6743	0.13906579
161	0x3dc2799a	0.0949585
162	0xbe2f6017	-0.17126499
163	0x3c6eb396	0.014569184
164	0x3ddf3f37	0.10900729
165	0xbc6ef4f6	-0.01458477
166	0xbdd178d5	-0.10228125
167	0x3e2ecef9	0.17071141
168	0xbd7964a6	-0.060887
169	0xbdd212de	-0.10257505
170	0xbe1bee61	-0.15227653
171	0x3b90d47f	0.0044198628
172	0x3daae162	0.083437696
173	0x3d3935c0	0.045217276
174	0x3d072dd5	0.033002693
175	0xbe035f75	-0.12829383
176	0xbe242836	-0.16030964
177	0x3c2a6909	0.010401019
178	0x3e22f874	0.1591509
179	0x3dd40fb9	0.10354561
180	0xbdc3d234	-0.095615774
181	0xbc8bbff4	-0.017059304
182	0xbe0562b7	-0.13025938
183	0xbda5679d	-0.08076403
184	0x3d03ff58	0.032225937
185	0x3dd2a38c	0.102851
186	0x3e1a9751	0.15096785
187	0xbe24f643	-0.16109566
188	0x3de688fa	0.11256595
189	0xbe0352c4	-0.12824541
190	0x3d92e2f8	0.07172197
191	0x3e19f2e9	0.15034069
192	0x3bbc8004	0.0057525653
193	0x3e2106de	0.15725276
194	0xbe17374e	-0.14767191
195	0xbd8cea58	-0.06880635
196	0x3dd46ecc	0.10372695
197	0xbd1600f5	-0.036622006
198	0xbd0d7289	-0.034533057
199	0xbd9637f8	-0.07334894
200	0x3e014ae5	0.12626226
201	0x3dac46d0	0.08411944
202	0x3d7dda32	0.061975665
203	0xbdd35f1b	-0.10320874
204	0xbe0d19bb	-0.13779347
205	0x3cc57f60	0.024108589
206	0x3d4c8e29	0.049940262
207	0xbd9e3dcb	-0.0772663
208	0xbd3c420c	-0.045961425
209	0x3e01a859	0.12661876
210	0x3c3b2819	0.011423134
211	0x3c05c9c3	0.0081657795
212	0xbd15d8ae	-0.036583595
213	0xbe1cc5df	-0.15309857
214	0xbe2a4b6f	-0.16630338
215	0xbda3a0a8	-0.07989627
216	0xbdb71945	-0.08940367
217	0x3d7b11f7	0.06129643
218	0xbd452bf2	-0.048137613
219	0xbd84e170	-0.06488311
220	0x3e2a4302	0.16627124
221	0x3d6ab68f	0.057303008
222	0x3e0697f6	0.13143906
223	0xbdb0f9d9	-0.08641405
224	0xbda18e49	-0.07888467
225	0x3d7dc898	0.06195888
226	0xbdfdde72	-0.12395944
227	0xbdebc580	-0.115122795
228	0xbc5aed9f	-0.013362317
229	0xbd883ba9	-0.06652004
230	0xbe093225	-0.13398035
231	0x3dc720b9	0.09723038
232	0x3e0b058b	0.13576333
233	0x3ccc8910	0.0249677
234	0xbd18bf8c	-0.03729205
235	0xbe2c51a0	-0.16828012
236	0xbd8c3045	-0.06845144
237	0x3d1ae45a	0.03781543
238	0x3da3ea7d	0.080037095
239	0xbce2876b	-0.027652463
240	0xbd987780	-0.07444668
241	0x3dbc4e13	0.09194579
242	0xbe13f267	-0.14447938
243	0x3dd8a0bc	0.10577533
244	0xbd9b4c84	-0.075829536
245	0xbb3ca580	-0.002878517
246	0xbd17e869	-0.037086878
247	0x3c8e722f	0.017388431
248	0xbd5c1559	-0.053731296
249	0x3df9c25b	0.121952735
250	0xbc37fd3b	-0.011229808
251	0x3e0c92d8	0.13727891
252	0x3e34a6bb	0.17641728
253	0xbdb9c203	-0.09070208
254	0xbe08fe9c	-0.13378376
255	0x3e0a4bc7	0.1350547

fc2.bias f4 [64]
0	0x3c658c8d	0.014010561
1	0xbd390000	-0.045166016
2	0x3d715ea1	0.058928136
3	0xbde791b8	-0.113070905
4	0x3da01e93	0.078183316
5	0xbe154021	-0.14575244
6	0xbdb19f8a	-0.08673008
7	0xbdcc8b53	-0.099875115
8	0x3da16993	0.07881465
9	0xbbe89744	-0.0070981104
10	0xbe3409ef	-0.17581914
11	0xbdc0e30c	-0.09418306
12	0xbd99df16	-0.075132534
13	0xbe217c7b	-0.15770142
14	0x3c7e60a9	0.015525975
15	0x3d66cacb	0.056345742
16	0xbcd0ce72	-0.025489066
17	0xbd84c8f4	-0.06483641
18	0x3b04d0bb	0.0020266015
19	0xbe172041	-0.14758398
20	0xbdeb23e0	-0.11481452
21	0x3b129e2d	0.0022372112
22	0x3e1aa73b	0.15102856
23	0xbd7c94b3	-0.061665248
24	0x3db34641	0.08753634
25	0xbd9731e5	-0.073825635
26	0xbd2765ee	-0.040868692
27	0xbe25f849	-0.16207995
28	0x3e141f31	0.14465024
29	0x3e376077	0.17907892
30	0x3b6369c0	0.0034700483
31	0x3df47d4b	0.1193796
32	0x3e1b538b	0.15168588
33	0x3daf9355	0.08573023
34	0x3db4c2cb	0.08826216
35	0xbe333977	-0.1750239
36	0xbe313cf2	-0.17308405
37	0xbe049bae	-0.12950012
38	0x3d5c9476	0.05385252
39	0xbe19156a	-0.14949575
40	0xbe0cb030	-0.13739085
41	0xbda0f679	-0.07859511
42	0xbe1f974e	-0.15585062
43	0xbbad35f1	-0.0052859713
44	0x3d04a26f	0.03238147
45	0xbdc7998b	-0.09746083
46	0x3dfa34d9	0.12217111
47	0xbd7657bb	-0.06014226
48	0xbd578f77	-0.052627053
49	0x3e02c1b2	0.12769201
50	0x3e1424e6	0.144672
51	0xbc5ae0b9	-0.013359242
52	0xbe093ae8	-0.13401377
53	0xbdc46be2	-0.095908895
54	0x3c9271a4	0.017876454
55	0x3ddf8d02	0.10915567
56	0x3dbed595	0.09318081
57	0xbd92c17b	-0.0716581
58	0xbe247452	-0.16059998
59	0xbe25888c	-0.1616537
60	0xbd4d2893	-0.050087523
61	0xbb33bc73	-0.0027425557
62	0xbd957cb3	-0.07299175
63	0xbe080ce7	-0.13286172
