fifth generation/pipeline_models_v2/stage2_maturity_classifier_grape_using_cnn_best.pth (torch, 19280 bytes, 4 tensors)

fc1.weight f4 [32, 128]
-0.054606512 0.065578185 -0.083329506 0.030430976 -0.08039888 -0.028494764 0.040508598 0.067444615
-0.06916798 -0.08100466 -0.01271349 0.08669723 -0.0021510343 -0.017341558 -0.025470916 0.07123845
-0.08307339 -0.029539067 0.05053009 -0.03418252 0.037264347 -0.02102575 0.053134695 0.020014253
0.030800361 0.00678978 -0.07573963 -0.04597743 -0.078214854 -0.012664368 -0.024861556 0.08659705
-0.013772188 -0.035015803 0.0060216775 -0.022458736 -0.036229677 0.07055431 0.00979813 0.013555227
0.00987806 0.02602778 0.014715252 -0.062163286 -0.056269776 -0.019090053 0.07431442 -0.0664501
-0.046076696 -0.05182582 -0.0005619823 -0.056974985 -0.0358383 0.044530064 -0.02324846 -0.04251434
0.027734052 -0.06727664 -0.06942281 -0.032328743 0.0036970298 0.01699173 0.07763425 0.061361477
0.079435386 0.07847617 0.007661692 -0.05745291 -0.06674999 -0.06869922 -0.063906 -0.07453677
-0.06309943 -0.024758656 -0.0043048253 -0.046319295 -0.02264383 0.08453903 -0.03159601 0.07833456
-0.0021475176 -0.024507146 0.024026502 0.061613098 -0.07051008 -0.04062694 0.07036305 0.07082596
0.079570554 0.051362738 -0.082388125 -0.02104668 -0.07786171 0.035682566 0.0036287974 0.01545359
0.06818708 -0.053311404 -0.02299456 0.047711134 -0.033088386 -0.00078441936 0.028389256 -0.06420604
0.0136710685 0.0053094095 0.040828064 -0.07292207 0.047143742 -0.026334926 0.05727002 0.06595235
0.06299829 -0.0834562 -0.05356262 -0.086661 0.08805602 0.08247382 -0.070875295 -0.025319818
-0.009802377 -0.07645031 -0.01743919 0.03653474 -0.047185022 0.07767538 -0.039847825 -0.03153067
-0.03158346 0.020902244 -0.044598624 -0.0071944445 -0.031312376 -0.02166135 0.0012862178 -0.038148068
-0.034898315 0.06565939 -0.035607647 0.07750036 0.068957955 -0.026960569 0.048995744 -0.07492074
0.03765125 -0.05378717 0.0033316843 0.03657198 -0.056487754 -0.007930947 0.041155428 -0.036708675
0.0024211379 -0.011249503 -0.028748922 0.08029164 -0.028794365 0.007779399 0.06746524 0.059850264
0.07294856 0.018187445 -0.011132241 -0.031819623 -0.0874021 -0.02332496 -0.017891623 -0.07669022
0.062387668 -0.009698684 0.019452497 0.010467713 0.01356683 0.07389125 -0.03757556 0.021021502
-0.026697606 0.08421068 -0.04368023 0.041488275 -0.0030139792 0.07294476 0.02503122 0.06090809
0.04970305 0.012713226 -0.069748394 -0.008962124 -0.07185672 -0.023163397 0.007269392 -0.02901435
-0.038614728 0.016179154 -0.020307032 0.05863583 -0.078562714 -0.08385842 0.05894287 0.013463146
0.019069314 0.066106744 0.07383644 -0.024803394 -0.048474647 0.016305083 -0.03484203 -0.017490007
0.025237095 -0.06224168 0.07312595 -0.066750444 -0.055252265 -0.071970664 0.0853782 -0.050989088
0.07896098 0.0082929665 0.02990147 0.052058138 0.04442029 -0.0566384 -0.06286402 -0.047654178
-0.05506686 -0.0165205 -0.023670385 0.062217154 0.051079478 -0.08164335 9.70308e-05 -0.06630592
0.074508555 0.062554196 0.044658206 -0.04645852 -0.032041114 -0.08633413 0.03924071 -0.006895749
0.040766887 0.014873457 0.00045402092 0.03271835 -0.06801825 0.038088065 0.038341094 -0.024495667
-0.067957714 -0.033509657 -0.008742378 -0.05298397 -0.071974896 -0.07850536 0.04669834 0.07136308
00000000: 14ab 5fbd db4d 863d a9a8 aabd 624a f93c
00000010: 2ba8 a4bd da6d e9bc 58ec 253d 6720 8a3d
00000020: f1a7 8dbd c5e5 a5bd 3e4c 50bc 518e b13d
00000030: 5ef8 0cbb e20f 8ebc 62a8 d0bc 77e5 913d
00000040: 6222 aabd eafb f1bc a4f8 4e3d f802 0cbd
00000050: 80a2 183d 323e acbc c4a3 593d eef4 a33c
00000060: 0a51 fc3c ce7c de3b 611d 9bbd d452 3cbd
00000070: 1c2f a0bd 367e 4fbc 76aa cbbc cb59 b13d
00000080: bea4 61bc bb6c 0fbd 7e51 c53b 62fb b7bc
00000090: 9265 14bd c77e 903d 5688 203c be16 5e3c
000000a0: 96d7 213c 3638 d53c 3e18 713c ee9e 7ebd
000000b0: 237b 66bd be62 9cbc 2932 983d fd16 88bd
000000c0: ebba 3cbd 5047 54bd fe51 13ba 9a5e 69bd
000000d0: 2ecb 12bd 2865 363d 8e73 bebc 8423 2ebd
000000e0: 8632 e33c 56c8 89bd 8c2d 8ebd 256b 04bd
000000f0: de49 723b 3e32 8b3c b5fe 9e3d 2c56 7b3d
00000100: 05af a23d 1db8 a03d ee0e fb3b be53 6bbd
00000110: 38b4 88bd 2db2 8cbd 26e1 82bd bca6 98bd
00000120: 463a 81bd aad2 cabc 7e0f 8dbb 4db9 3dbd
00000130: 8e7f b9bc cd22 ad3d d16a 01bd df6d a03d
00000140: 5ebd 0cbb 36c3 c8bc 3ad3 c43c 045e 7c3d
00000150: 9767 90bd 6f68 26bd 811a 903d 330d 913d
00000160: e3f5 a23d bc61 523d 1bbb a8bd 166a acbc
00000170: f675 9fbd e227 123d 1ed1 6d3b 0e31 7d3c
00000180: aba5 8b3d 0f5d 5abd 165f bcbc c06c 433d
00000190: b087 07bd 7ea1 4dba 9690 e83c 757e 83bd
000001a0: 9efc 5f3c 8efa ad3b 543b 273d 2b58 95bd
000001b0: cc19 413d 58bc d7bc f893 6a3d 0712 873d
000001c0: 3f05 813d 16eb aabd 7a64 5bbd 537b b1bd
000001d0: b756 b43d 09e8 a83d 1127 91bd 826b cfbc
000001e0: 269a 20bc fb91 9cbd a2dc 8ebc 74a5 153d
000001f0: 1545 41bd 4514 9f3d 7937 23bd 4e26 01bd
00000200: a85d 01bd 2f3b ab3c 0cad 36bd 60bf ebbb
00000210: 6841 00bd 2573 b1bc 4f96 a83a 2641 1cbd
00000220: 89f1 0ebd 6e78 863d 53d9 11bd 82b8 9e3d
00000230: d439 8d3d 69dc dcbc c3af 483d 0c70 99bd
00000240: 3238 1a3d f04f 5cbd 6358 5a3b 80cc 153d
00000250: b45f 67bd cdf0 01bc 9892 283d d65b 16bd
00000260: f4ab 1e3b d64f 38bc dc82 ebbc f16f a43d
00000270: 29e2 ebbc 54ea fe3b 372b 8a3d 8d25 753d
00000280: 0e66 953d d6fd 943c 0164 36bc 4b55 02bd
00000290: dfff b2bd fd13 bfbc 7491 92bc c30f 9dbd
000002a0: 368a 7f3d 3be7 1ebc d85a 9f3c c580 2b3c
000002b0: 6947 5e3c 4c54 973d d5e8 19bd 4935 ac3c
000002c0: f0b4 dabc a676 ac3d 0aea 32bd 9cef 293d
000002d0: 2e86 45bb 1064 953d 460e cd3c c37a 793d
000002e0: 6d95 4b3d 224b 503c 3fd8 8ebd dfd5 12bc
000002f0: 9e29 93bd 2ac1 bdbc 1434 ee3b 81af edbc
00000300: 7a2a 1ebd 258a 843c ef5a a6bc 202c 703d
00000310: 7de5 a0bd f7bd abbd 146e 713d 8794 5c3c
00000320: 4037 9c3c f962 873d 8f37 973d 7d30 cbbc
00000330: 5a8d 46bd 3d92 853c 84b6 0ebd 3447 8fbc
00000340: 06be ce3c 22f1 7ebd 0fc3 953d 75b4 88bd
00000350: 3350 62bd 5b65 93bd c4da ae3d efd9 50bd
00000360: 4bb6 a13d 39df 073c edf3 f43c ea3a 553d
00000370: 0df2 353d abfd 67bd dabe 80bd 0731 43bd
00000380: ca8d 61bd 0056 87bc 65e8 c1bc 6ad7 7e3d
00000390: b738 513d a134 a7bd 047d cb38 66cb 87bd
000003a0: f197 983d 6a1c 803d 86eb 363d 4a4b 3ebd
000003b0: 8b3d 03bd f3cf b0bd deba 203d bcf5 e1bb
000003c0: 2efb 263d cdaf 733c a809 ee39 ad03 063d
000003d0: 274d 8bbd 3b02 1c3d 8d0b 1d3d 23ab c8bc
000003e0: 6a2d 8bbd 6c41 09bd 313c 0fbc b805 59bd
000003f0: 9367 93bd 6bc7 a0bd c246 3f3d ce26 923d

fc1.bias f4 [32]
0.08269065 -0.07270873 -0.035371177 -0.08108122 -0.009377045 0.005266628 -0.05136458 0.07674398
0.029322855 0.068867795 0.079864405 -0.0765651 0.0657024 0.042385496 0.03582699 0.037784792
0.073713325 0.011535453 -0.03641398 0.033842612 -0.05206331 -0.026847769 0.059717912 -0.043208834
0.047394767 0.08020905 -0.035612173 -0.010107001 -0.053295493 0.02043662 -0.015943106 -0.009201085
00000000: b759 a93d 51e8 94bd 5ee1 10bd e90d a6bd
00000010: 2da2 19bc ae93 ac3b aa63 52bd f32b 9d3d
00000020: 7c36 f03c 8f0a 8d3d f38f a33d 2ace 9cbd
00000030: fb8e 863d 6a9c 2d3d 52bf 123d 3ac4 1a3d
00000040: 03f7 963d 32ff 3c3c d326 15bd 8d9e 0a3d
00000050: 5640 55bd daef dbbc c59a 743d bffb 30bd
00000060: 0421 423d a444 a43d 12de 11bd d697 25bc
00000070: 604c 5abd b36a a73c 1e9b 82bc 26c0 16bc

fc_out.weight f4 [2, 32]
-0.11514245 0.02838356 -0.12823474 -0.023977082 0.0011765062 0.13860042 -0.009009955 -0.0059923944
-0.05471036 0.15073024 0.08829075 0.15167429 -0.13038477 -0.057173178 -0.06661729 -0.13836761
-0.16329063 -0.12852459 -0.15955083 0.0011687252 -0.08776936 0.03219997 -0.14810893 -0.15744586
0.045238085 0.13106667 -0.06661946 0.07092634 -0.049447156 -0.012665126 0.13026123 0.085780144
0.079934955 0.1666454 -0.17316246 0.10393205 0.08852027 -0.067280054 0.10397297 0.014503937
-0.002106131 0.06733443 0.0067946427 -0.08485375 -0.05867858 -0.08459866 -0.09552409 -0.05382774
0.14328577 -0.15818848 0.009434291 0.061611824 0.11997545 0.17412098 0.020557813 -0.17153788
0.175685 0.032723047 -0.020286944 0.0869599 -0.094071284 -0.028445845 -0.0599358 0.14944176
00000000: cecf ebbd a484 e83c f84f 03be 966b c4bc
00000010: ff34 9a3a 45ed 0d3e 7e9e 13bc d95b c4bb
00000020: f817 60bd 0759 1a3e c8d1 b43d 8150 1b3e
00000030: 9683 05be 6c2e 6abd a56e 88bd 3db0 0dbe
00000040: a935 27be f39b 03be 4b61 23be e92f 993a
00000050: 6cc0 b3bd 1ee4 033d dea9 17be 7d39 21be
00000060: 924b 393d 5736 063e c96f 88bd d441 913d
00000070: 1a89 4abd 6381 4fbc 3363 053e 80ad af3d
00000080: f0b4 a33d 17a5 2a3e 8051 31be 54da d43d
00000090: 1e4a b53d 20ca 89bd c8ef d43d eca1 6d3c
000000a0: 0407 0abb a2e6 893d 98a5 de3b cec7 adbd
000000b0: f358 70bd 1042 adbd 22a2 c3bd 7a7a 5cbd
000000c0: 81b9 123e 29fc 21be 4992 1a3c ae5c 7c3d
000000d0: b0b5 f53d c54c 323e dc68 a83c a0a7 2fbe
000000e0: c5e6 333e 9a08 063d ce30 a6bc 0818 b23d
000000f0: 72a8 c0bd 4307 e9bc 3e7f 75bd 4307 193e

fc_out.bias f4 [2]
-0.077103384 -0.014140726
00000000: 61e8 9dbd 81ae 67bc
