fifth generation/pipeline_models_v2/stage2_maturity_classifier_grape_using_handcrafted_best.pth (torch, 11216 bytes, 4 tensors)

fc1.weight f4 [32, 64]
-0.078464404 0.11948627 0.025014386 -0.113077566 -0.06389612 0.029197425 -0.037413284 -0.03538254
-0.046939358 -0.030529976 0.014378399 0.007402271 0.08031024 0.07999292 0.10287394 -0.0039763898
-0.055814967 0.00042654574 -0.082776785 0.051140204 -0.015081301 -0.040034562 -0.10597648 0.060239553
0.06977193 0.114028364 -0.044283763 0.037663817 0.0047118217 -0.07962127 -0.0781436 0.06401062
-0.07179043 0.09102294 0.043669924 0.042688563 0.08232194 0.061177 0.053910315 0.06485522
-0.053045854 -0.06628518 -0.022900179 0.069396034 0.087478414 0.09205149 -0.03942959 -0.015860587
-0.085852504 0.07707453 -0.08289087 -0.051436067 0.10322069 0.030376613 -0.052328944 -0.084171474
-0.085959256 0.10087821 -0.11425054 0.10801616 0.09999566 0.007745281 -0.010019362 0.09721525
0.022305965 0.078501545 0.09107993 -0.029096466 0.11548276 0.030484859 -0.16097128 0.026927581
0.0102009 -0.0038578312 -0.08519372 -0.03557473 -0.08649895 -0.16093539 0.11401086 0.16547711
-0.008605161 -0.14786868 -0.09989929 -0.06765737 -0.067301564 -0.014837211 0.10469485 -0.07242101
-0.024003398 -0.06483896 -0.02457872 -0.10122758 0.02749308 0.0074043605 0.075425535 0.05698476
0.11803427 0.0960916 -0.03326935 0.09303618 -0.07009841 -0.011732089 -0.0247439 -0.121478595
-0.014084382 -0.08647498 -0.17778882 0.022495963 -0.032358054 -0.098181464 -0.025805356 -0.14004722
-0.011529502 0.11921435 -0.17056106 0.020934995 0.089710586 0.119186416 -0.020200368 -0.08370779
0.074179016 -0.13460469 -0.105377816 0.08320555 -0.054819923 -0.03756345 -0.19332351 0.021346591
0.006031573 0.12345812 0.025562927 -0.11648984 0.03092596 0.11438051 0.0775287 0.0375112
-0.093913004 -0.074954316 0.08487679 -0.08358224 0.02851668 -0.01601538 0.041885078 0.008179009
-0.095208794 -0.049825996 0.1090239 0.014714465 0.06338188 -0.06306285 0.09895508 -0.026757985
-0.042132974 0.025356814 -0.044789165 -0.05023119 -0.017886907 -0.0071363 -0.071094215 0.042726696
-0.1211478 0.0767329 0.11593296 0.020222858 -0.02920729 -0.1144876 0.05870031 0.102422535
0.10686569 0.011146262 0.0415577 0.11977619 0.018657416 -0.0603462 -0.11867854 0.054651365
0.048692927 0.11108555 -0.063638166 0.05369039 -0.041356787 -0.03106688 0.07293582 -0.114584744
0.09214215 0.058137313 -0.07428992 0.06378694 -0.03144154 0.011249632 -0.03345731 -0.12238915
0.05495782 0.0114439 0.046201546 -0.0805446 -0.066196375 0.08820247 0.018431025 -0.14713752
-0.14339809 -0.10077182 0.12721188 0.17042512 -0.041379888 0.11572806 0.00023307488 -0.0054514403
0.005993437 0.0994635 0.18183331 -0.043633286 -0.16579093 0.124997646 -0.04783464 -0.0056032417
0.082836255 -0.025343884 -0.18996195 0.032338884 0.11100805 0.15228775 0.030095275 0.16766158
0.02320386 -0.06049524 0.018572642 -0.060528345 -0.086182795 0.12517473 0.01663558 -0.019048734
-0.18349408 0.15753081 0.052417576 -0.15598668 0.067267366 0.040682353 0.11114715 0.057499636
0.105323054 -0.110077165 -0.042063218 0.027049543 -0.03993508 0.032334365 -0.044934653 0.1350524
0.023233172 0.024717158 0.063363574 -0.114535026 0.11391157 0.0063063493 0.122764304 0.071041204
00000000: f2b1 a0bd 38b5 f43d f8ea cc3c 3695 e7bd
00000010: f8db 82bd 702f ef3c ac3e 19bd 48ed 10bd
00000020: 7c43 40bd 001a fabc 6093 6b3c c08e f23b
00000030: b279 a43d 54d3 a33d 92af d23d 604c 82bb
00000040: 3c9e 64bd 00a2 df39 e086 a9bd 6478 513d
00000050: 9017 77bc 48fb 23bd 320a d9bd c0bd 763d
00000060: 96e4 8e3d b487 e93d e462 35bd 6045 1a3d
00000070: a065 9a3b 7a10 a3bd c009 a0bd 0018 833d
00000080: dc06 93bd 3c6a ba3d 3cdf 323d 34da 2e3d
00000090: 6898 a83d bc94 7a3d 10d1 5c3d d0d2 843d
000000a0: 9c46 59bd 86c0 87bd 2899 bbbc 821f 8e3d
000000b0: e227 b33d 7e85 bc3d ec80 21bd 10ee 81bc
000000c0: 70d3 afbd 40d9 9d3d b0c2 a9bd a0ae 52bd
000000d0: 5e65 d33d 60d8 f83c e056 56bd 1862 acbd
000000e0: 680b b0bd 3c99 ce3d 30fc e9bd 9437 dd3d
000000f0: 86ca cc3d 20cc fd3b 4028 24bc ca18 c73d
00000100: 00bb b63c 6bc5 a03d 1d88 ba3d b65b eebc
00000110: 3a82 ec3d 62bb f93c a8d5 24be 3b97 dc3c
00000120: ad21 273c abd3 7cbb 0c7a aebd cfb6 11bd
00000130: 5d26 b1bd 3fcc 24be 877e e93d d572 293e
00000140: a9fc 0cbc e36a 17be 0098 ccbd f28f 8abd
00000150: 67d5 89bd c617 73bc 416a d63d 7751 94bd
00000160: c6a2 c4bc 4aca 84bd 5059 c9bc 6850 cfbd
00000170: 2b39 e13c 47a0 f23b b478 9a3d da68 693d
00000180: f4bb f13d accb c43d 7145 08bd c189 be3d
00000190: c18f 8fbd f337 40bc b8b3 cabc c5c9 f8bd
000001a0: 2ec2 66bc cb19 b1bd 460e 36be 7449 b83c
000001b0: e189 04bd 5d13 c9bd c165 d3bc 8a68 0fbe
000001c0: 3de6 3cbc a726 f43d 8fa7 2ebe de7f ab3c
000001d0: 2fba b73d 0218 f43d 3e7b a5bc fd6e abbd
000001e0: 2beb 973d d0d5 09be 53d0 d7bd ac67 aa3d
000001f0: db8a 60bd 22dc 19bd 99f6 45be 0cdf ae3c
00000200: 80a4 c53b 9cd7 fc3d 5869 d13c 3a92 eebd
00000210: 7058 fd3c 5440 ea3d 5ec7 9e3d 58a5 193d
00000220: 7655 c0bd a681 99bd e2d3 ad3d 2a2d abbd
00000230: d09b e93c b032 83bc b08f 2b3d 4001 063c
00000240: d4fc c2bd 5816 4cbd ec47 df3d f014 713c
00000250: 5cce 813d 1827 81bd f6a8 ca3d 9033 dbbc
00000260: a093 2cbd 18b9 cf3c d874 37bd 38bf 4dbd
00000270: 9087 92bc a0d7 e9bb d899 91bd 3002 2f3d
00000280: 561c f8bd 2426 9d3d 426e ed3d 68aa a53c
00000290: 2044 efbc 7a78 eabd bc6f 703d e8c2 d13d
000002a0: 66dc da3d d09e 363c 6838 2a3d 384d f53d
000002b0: 70d7 983c 942d 77bd bc0d f3bd 1cda 5f3d
000002c0: 3c72 473d d280 e33d ba54 82bd 74ea 5b3d
000002d0: bc65 29bd f87f febc 605f 953d 68ab eabd
000002e0: 06b5 bc3d 6421 6e3d 5025 98bd baa2 823d
000002f0: d8c8 00bd 6050 383c 880a 09bd 2aa7 fabd
00000300: 731b 613d 327f 3b3c d53d 3d3d 91f4 a4bd
00000310: f791 87bd 7fa3 b43d a9fc 963c 38ab 16be
00000320: f3d6 12be 7561 cebd d543 023e ec83 2e3e
00000330: f57d 29bd d502 ed3d 9065 7439 ffa1 b2bb
00000340: 9864 c43b 85b3 cb3d 8332 3a3e d1b8 32bd
00000350: 19c5 29be c4fe ff3d 41ee 43bd 669b b7bb
00000360: 0ea6 a93d fa9d cfbc 6385 42be c775 043d
00000370: 3058 e33d 52f1 1b3e 5e8a f63c 7aaf 2b3e
00000380: 0516 be3c dbc9 77bd a725 983c 92ec 77bd
00000390: 9b80 b0bd ce2d 003e 5747 883c 170c 9cbc
000003a0: dfe5 3bbe c24f 213e d0b3 563d f9ba 1fbe
000003b0: 79c3 893d 8aa2 263d 1ea1 e33d bd84 6b3d
000003c0: 9db3 d73d 2370 e1bd 7b4a 2cbd 0197 dd3c
000003d0: f792 23bd 0a71 043d 660d 38bd 2d4b 0a3e
000003e0: 7e53 be3c a37b ca3c c3c4 813d 5791 eabd
000003f0: 784a e93d 7ea5 ce3b da6b fb3d 0d7e 913d

fc1.bias f4 [32]
-0.0861842 0.17465442 -0.0995899 -0.04957053 0.120311916 0.098148525 -0.054777075 -0.08066003
0.048514053 0.17575799 0.14455718 0.17878078 0.053525683 -0.051611047 0.15944715 -0.016475936
0.011744201 0.06258464 0.13026972 0.13755554 0.048708223 0.05738193 -0.067953214 0.11493416
0.2144642 0.15037185 0.04936622 -0.06069251 -0.01783299 0.09928028 -0.014215881 0.068264954
00000000: 5881 b0bd 9cd8 323e caf5 cbbd 780a 4bbd
00000010: 1866 f63d 1802 c93d ed5d 60bd 1631 a5bd
00000020: acb6 463d e7f9 333e cc06 143e 4f12 373e
00000030: bf3d 5b3d 1b66 53bd 1d46 233e 8bf8 86bc
00000040: c06a 403c 602c 803d 6d65 053e 5cdb 0c3e
00000050: 4682 473d 5109 6b3d 0e2b 8bbd 9a62 eb3d
00000060: 819c 5b3e 14fb 193e 3c34 4a3d b698 78bd
00000070: 7e16 92bc 7653 cb3d bae9 68bc 7fce 8b3d

fc_out.weight f4 [2, 32]
0.061792225 -0.20265923 -0.14433205 0.25404978 -0.07265098 0.01702323 -0.19605571 0.16975491
-0.022174267 -0.20714727 -0.25140473 0.04219533 0.055393785 0.051406655 -0.24945699 0.09722398
-0.11999972 -0.029600088 -0.27252626 -0.27102393 -0.18975277 0.23665921 0.25085568 -0.2686697
0.040746853 -0.22072238 -0.2862326 0.08168275 0.190374 -0.020235939 0.1114321 0.15957925
-0.1522854 0.1850782 -0.05601786 -0.07819133 0.17511036 -0.2132575 0.1436894 -0.03530933
0.22571951 0.09044019 0.18643409 0.28099 -0.042402197 -0.25150663 0.26928967 -0.087404564
0.040398657 0.2264129 0.07717488 0.2515652 0.13472728 -0.11199381 -0.043863155 0.13122582
0.26884627 0.23566046 0.00420398 0.02042565 0.0051801945 0.2555843 -0.020051029 0.085190214
00000000: d819 7d3d e785 4fbe c8cb 13be d012 823e
00000010: 09ca 94bd 4d74 8b3c d4c2 48be 3bd4 2d3e
00000020: cfa6 b5bc 6a1e 54be 1fb8 80be 03d5 2c3d
00000030: 98e4 623d c98f 523d a771 7fbe 5e1d c73d
00000040: 6ac2 f5bd e27b f2bc 9088 8bbe a6c3 8abe
00000050: 8d4e 42be cb56 723e 2870 803e 138f 89be
00000060: 2ce6 263d 0c05 62be 148d 92be 4949 a73d
00000070: 67f1 423e d7c5 a5bc 8336 e43d be68 233e
00000080: b4f0 1bbe 2485 3d3e fc72 65bd c722 a0bd
00000090: 2150 333e 2d60 5abe 5023 133e 84a0 10bd
000000a0: 0423 673e b538 b93d 94e8 3e3e ecdd 8f3e
000000b0: edad 2dbd 7ac5 80be 56e0 893e 2a01 b3bd
000000c0: 1079 253d c9d8 673e dd0d 9e3d 27cd 803e
000000d0: f3f5 093e 035d e5bd daa9 33bd 1060 063e
000000e0: 38a6 893e fa50 713e 8ac1 893b b153 a73c
000000f0: 9fbe a93b f2db 823e 0e42 a4bc 3578 ae3d

fc_out.bias f4 [2]
-0.069423914 0.040619265
00000000: 202e 8ebd 6360 263d
