fifth generation/pipeline_models_v2/stage2_maturity_classifier_strawberry_using_cnn_best.pth (torch, 19320 bytes, 4 tensors)

fc1.weight f4 [32, 128]
0	0xbc977054	-0.01848618
1	0xbdb38d9c	-0.08767244
2	0x3cf5b128	0.029991701
3	0xbcaa69c0	-0.020802379
4	0x3d479832	0.04872913
5	0xbd0f5f20	-0.035002828
6	0x3d0ca5ea	0.034337915
7	0x3d8711cb	0.065951906
8	0x3d9b51b5	0.07583944
9	0xbd0216c8	-0.031760007
10	0x3d8a41e1	0.06750847
11	0x3c8d377c	0.017238371
12	0x3d9afa21	0.075672396
13	0x3bd5a25c	0.006519599
14	0x3d5ca1ba	0.053865172
15	0x3d8e7917	0.0695669
16	0x3d71d4e2	0.05904091
17	0x3cb8b14c	0.02254548
18	0x3d960551	0.07325233
19	0xbba44d9c	-0.0050141346
20	0xbce4d028	-0.027931288
21	0xbc894e64	-0.016761012
22	0xbdb12c73	-0.08651056
23	0xbcc093dc	-0.023508005
24	0xbd9c2d00	-0.076257706
25	0x3d4dc91a	0.050240614
26	0xbd94bf27	-0.07263022
27	0xbd82aabf	-0.063802235
28	0x3d737eea	0.059447207
29	0x3d1ac8ca	0.037789144
30	0xbc763954	-0.0150283165
31	0x3d51d592	0.051229067
32	0xbd7f964c	-0.062399194
33	0x3db30479	0.087410875
34	0xbb2fdd9c	-0.002683497
35	0x3c9506b0	0.018191665
36	0x3d974baf	0.073874824
37	0xbd9bb5c6	-0.0760303
38	0x3cc450f0	0.023964375
39	0x3b96c60c	0.0046012457
40	0x3cbc5f84	0.022994764
41	0xbd8e282c	-0.06941256
42	0xbd9edd0b	-0.07757004
43	0x3da3edb7	0.08004325
44	0xbd0688d6	-0.03284534
45	0xbd9881f4	-0.074466616
46	0xbc178e3c	-0.00925022
47	0x3a7387fc	0.00092899776
48	0xbd83d5e2	-0.06437279
49	0x3db4b033	0.0882267
50	0xbda8793e	-0.0822625
51	0x3ba65cbc	0.005076973
52	0xbdac5d16	-0.08416192
53	0x3cc75618	0.024333045
54	0x3c94431c	0.018098406
55	0x3c4b40f4	0.012405623
56	0x3c629c4c	0.013831209
57	0x3b5d825c	0.0033799624
58	0xbd480544	-0.048833147
59	0x3d4e2706	0.050330184
60	0x3d8448a3	0.06459167
61	0xbd782196	-0.060578905
62	0x3da18d29	0.07888252
63	0x3d5a141e	0.05324184
64	0xbd04fc37	-0.032467093
65	0xbd38ddcd	-0.0451334
66	0x3db2ee3f	0.08736848
67	0x3da88a6f	0.08229529
68	0xbc8016e4	-0.015635915
69	0xbd05efc2	-0.032699354
70	0xbd0f67aa	-0.03501097
71	0xbda2a31f	-0.07941269
72	0x3cff0a24	0.031132765
73	0x3d7b318a	0.06132654
74	0x3d11a2c4	0.035555616
75	0xbd211594	-0.03932722
76	0x3bbbba7c	0.005729018
77	0xbcdc449c	-0.026888184
78	0x3d31d986	0.043420337
79	0x3d937f83	0.07202055
80	0xbbb13f8c	-0.0054091867
81	0x3db114a5	0.08646516
82	0x3da9b3df	0.08286261
83	0x3cdb82a4	0.026795693
84	0x3ce257fc	0.027629845
85	0x3c2e760c	0.010648262
86	0xbda34acd	-0.079732515
87	0x3d98b56f	0.07456481
88	0x3d678aae	0.05652874
89	0x3d2a67c6	0.041602872
90	0x3a0a917c	0.0005285961
91	0x3d91a023	0.07110622
92	0xbd87c74f	-0.06629812
93	0xbc097d1c	-0.008391645
94	0x3cf14de0	0.029456079
95	0xbd58f5f1	-0.052968923
96	0xbc92389c	-0.01784926
97	0xbd1f169e	-0.03883993
98	0xbcf3d610	-0.029765159
99	0x3d3a1f7a	0.045440175
100	0xbda4b62d	-0.0804256
101	0xbd9e5474	-0.07730952
102	0x3b85fc6c	0.004088929
103	0x3d945c53	0.07244172
104	0x3cadee40	0.02123177
105	0x3d833287	0.06406122
106	0xbdac4121	-0.0841086
107	0x3d8cc337	0.06873172
108	0xbd8c1c23	-0.06841304
109	0x3d3aaada	0.045573093
110	0x3d9a6b83	0.075400375
111	0xbd0fddda	-0.035123684
112	0x3ce6a3c8	0.028154269
113	0xbd4d1eea	-0.05007831
114	0xbd888455	-0.06665865
115	0x3d204fda	0.039138652
116	0x3cc83fe8	0.024444535
117	0xbb1dabfc	-0.002405881
118	0xbbbfd2dc	-0.005853994
119	0xbcf2492e	-0.02957591
120	0x3d850407	0.06494909
121	0xbdb3d4f2	-0.087808505
122	0x3da7975d	0.08183167
123	0x3d84555b	0.06461593
124	0x3cca85f4	0.024722077
125	0xbd1fe043	-0.039032232
126	0x3c7eebc4	0.015559141
127	0x3db0dc2f	0.08635747
128	0xbd93b494	-0.07212177
129	0x3ba6529c	0.005075766
130	0x3cbc3bf0	0.0229778
131	0x3d2eeb2e	0.042704754
132	0xbd600d67	-0.05470028
133	0xbd273e21	-0.040830735
134	0x3d74439e	0.059634797
135	0x3d5d517a	0.05403278
136	0x3cb03698	0.021510407
137	0x3cae96b4	0.021312095
138	0xbcce3784	-0.025172956
139	0xbd5e770f	-0.054312762
140	0x3d430422	0.047611363
141	0xbc9885c8	-0.01861848
142	0x3d903de3	0.07043054
143	0x3d9923d5	0.074775375
144	0x3aaeb8bc	0.0013330202
145	0x3c53dcd4	0.0129310675
146	0x3c911cd4	0.017713942
147	0xbda24d0c	-0.07924852
148	0xbcec7b76	-0.028867465
149	0x3cb07538	0.02154027
150	0x3c886710	0.016650707
151	0x3d91e5e7	0.071239285
152	0xbd6059d3	-0.054773163
153	0xbd4dc3a0	-0.05023539
154	0x3cdd5100	0.027016163
155	0xbd9db02c	-0.07699618
156	0x3daa7917	0.08323877
157	0xbd618b4f	-0.055064496
158	0xbcf50dfe	-0.029913899
159	0x3d44fc6e	0.0480923
160	0x3d1f2eea	0.0388631
161	0x3d97b7d1	0.07408107
162	0x3d32cfc6	0.04365518
163	0xbd01c826	-0.031685017
164	0x3d9611dd	0.07327626
165	0xbced5e94	-0.028975762
166	0x3d825ef9	0.06365771
167	0xbd198b2a	-0.037486233
168	0xbda0a4d0	-0.078439355
169	0x3daa053d	0.083017804
170	0x3d39ad56	0.04533132
171	0xbd976d72	-0.07393922
172	0x3c989d30	0.01862964
173	0x3d2b95f6	0.04189106
174	0x3cf2538c	0.029580854
175	0x3d95e4eb	0.07319053
176	0x3d16f17a	0.036851384
177	0xbc72029c	-0.01477113
178	0xbca4f460	-0.020136058
179	0x3c1ad9cc	0.009451341
180	0xbd95903c	-0.07302901
181	0xbd1463fe	-0.036228172
182	0xbccc88ac	-0.024967514
183	0xbd01453c	-0.031560168
184	0x3b19e87c	0.0023484519
185	0xbd073b18	-0.03301534
186	0x3ca8f04c	0.020622395
187	0x3d891f21	0.066953905
188	0x3d35e32e	0.04440611
189	0xbc27b62c	-0.010236304
190	0xbc03e7f4	-0.008050907
191	0x3da62c5d	0.081139304
192	0x3ca024e8	0.019548848
193	0x39357bfc	0.00017307693
194	0xbda14879	-0.07875151
195	0x3bc992dc	0.00615154
196	0xbd9a269a	-0.07526894
197	0xbcabc4d4	-0.020967878
198	0x3d57b88e	0.05266624
199	0xbd39f6db	-0.045401435
200	0xbbb7dacc	-0.0056107994
201	0xbcb01d98	-0.021498486
202	0xbcba5660	-0.022746265
203	0x3d80071f	0.06251358
204	0xbc15021c	-0.009094741
205	0xbcd834ec	-0.026392423
206	0xbdaf2c45	-0.085533656
207	0xbbed190c	-0.007235652
208	0xbda003a6	-0.07813196
209	0xbd155dab	-0.03646628
210	0xbd7f24b0	-0.062290847
211	0x3cc69308	0.024240032
212	0xbd70de0a	-0.058805503
213	0x3d89a99b	0.06721803
214	0xbd9d99a8	-0.07695323
215	0x3c173fc4	0.0092315115
216	0xbdb2e1f5	-0.08734504
217	0xbda38271	-0.07983864
218	0x3ca9317c	0.020653479
219	0xbd8acd38	-0.067774236
220	0x3d97d443	0.074135326
221	0xbd989ace	-0.07451402
222	0xbc915b1c	-0.01774364
223	0x3c82db04	0.015973575
224	0x3c9feafc	0.019521229
225	0x3d0058b8	0.03133461
226	0x3c797aec	0.015227061
227	0x3c61c6ec	0.013780337
228	0x3d96166b	0.07328495
229	0xbd010f4b	-0.031508725
230	0xbc7e419c	-0.015518572
231	0x3d57db1a	0.052699186
232	0x3cbab35c	0.022790603
233	0x3d54220e	0.05179029
234	0xbb6a75bc	-0.0035775742
235	0xbcb34b54	-0.021886505
236	0x3c5928cc	0.013254356
237	0x3d955073	0.07290735
238	0x3d436f72	0.047713704
239	0xbd610cef	-0.054943975
240	0x3d31b2d6	0.043383442
241	0x3d870c93	0.06594195
242	0xbbd438dc	-0.0064765047
243	0x3c861bfc	0.016370766
244	0x3d923f53	0.071409844
245	0xbd842ad1	-0.06453479
246	0xbdb263e2	-0.087104574
247	0x3d59c73a	0.053168513
248	0xbbc81fbc	-0.0061072987
249	0xbdb0bd30	-0.08629835
250	0xbce80aa8	-0.028325394
251	0x3db440e3	0.08801439
252	0xbd6d782a	-0.057975926
253	0x3d3cf15a	0.04612861
254	0x3db264e1	0.087106474
255	0xbd51195c	-0.051049575

fc1.bias f4 [32]
0	0x3d51f46a	0.051258482
1	0xbd956e2e	-0.07296406
2	0xbda7e806	-0.08198552
3	0xbccd1ee4	-0.025039144
4	0xbb8c588c	-0.0042830165
5	0xbd16ea27	-0.0368444
6	0xbabc967c	-0.001438811
7	0x3d9820d9	0.0742814
8	0xbd20ea88	-0.039286166
9	0x3c3d9938	0.011572175
10	0x3c9e48d4	0.019321837
11	0x3d74ce52	0.059767075
12	0xbd2b90ae	-0.041886024
13	0x3d7b9b92	0.06142766
14	0xbd575b8b	-0.052577537
15	0x3d66653c	0.05624889
16	0xbc3166f1	-0.010827766
17	0xbd64aa81	-0.055826668
18	0xbd355ab9	-0.044275973
19	0xbd8747c0	-0.06605482
20	0x3dae7bcf	0.08519708
21	0xbd1a9731	-0.037741844
22	0x3d371b5d	0.04470383
23	0x3d90814a	0.0705591
24	0x3d6424be	0.055699103
25	0xbd66a15e	-0.056306235
26	0x3ce425c4	0.02785004
27	0x3d775957	0.060387935
28	0xbd8032ae	-0.062596664
29	0xbcfe88b6	-0.031071048
30	0x3d7a63c6	0.061130308
31	0x3ccfe004	0.025375374

fc_out.weight f4 [2, 32]
0	0x3ddce54a	0.10785921
1	0x3db6f43a	0.08933301
2	0xbd5a26bf	-0.053259607
3	0x3da8dfd9	0.082458206
4	0xbd5b0e8c	-0.05348067
5	0xbde26a7d	-0.11055467
6	0xbe0d5631	-0.1380241
7	0xbd5d775c	-0.054068908
8	0xbd4432c0	-0.04789996
9	0xbd213b8c	-0.03936343
10	0x3e00aeab	0.1256663
11	0xbdd13a16	-0.10216157
12	0xbd4cb70a	-0.049979247
13	0xbd609d22	-0.054837354
14	0x3df859d6	0.1212651
15	0xbe2ee6bc	-0.17080206
16	0x3e1ba074	0.15197927
17	0xbe2819bf	-0.16416071
18	0xbd336ad3	-0.043803047
19	0xbca95ac5	-0.020673165
20	0x3d960bb6	0.073264524
21	0x3e2876cb	0.16451566
22	0x3db6c8b0	0.08924997
23	0x3dedbd03	0.11608317
24	0x3cc5d0ed	0.024147475
25	0xbc182ea2	-0.009288462
26	0xbcab6cfc	-0.020925991
27	0xbda83be7	-0.082145505
28	0xbd1f8edb	-0.038954597
29	0xbd9aba92	-0.07555117
30	0x3d3d0780	0.04614973
31	0x3e1e93c4	0.15486056
32	0xbde10522	-0.10987307
33	0xbe1661a2	-0.14685681
34	0xbe33f0cd	-0.17572327
35	0x3c8adfd1	0.016952427
36	0x3d625b78	0.055263013
37	0x3b73e5b4	0.003721577
38	0xbdb66c4f	-0.08907377
39	0xbdf37bd5	-0.118888535
40	0x3e2aa999	0.16666259
41	0xbda43419	-0.08017749
42	0xbcbbf6c6	-0.02294482
43	0xbe146494	-0.14491493
44	0x3e27ac8a	0.16374412
45	0xbe2bd383	-0.16779904
46	0x3dc154e6	0.09440021
47	0xbbd6bf1c	-0.0065535437
48	0xbdaa0167	-0.08301049
49	0x3db61388	0.08890444
50	0xbc15371e	-0.009107379
51	0xbde4bb63	-0.11168554
52	0x3b8773bc	0.0041336697
53	0x3d875876	0.066086695
54	0x3cb28b97	0.021795077
55	0xbd605dc1	-0.05477691
56	0x3e1ad930	0.15121913
57	0xbe29a14b	-0.16565435
58	0x3db1eace	0.086873636
59	0xbd9845c3	-0.07435181
60	0x3e13fcb9	0.14451875
61	0x3ce222ac	0.027604423
62	0x3dd26182	0.102725044
63	0xbdb7c900	-0.089738846

fc_out.bias f4 [2]
0	0x3d07c3e3	0.033145797
1	0x3e0b8a2d	0.13626929
