fifth generation/pipeline_models_v2/stage2_maturity_classifier_tomato_using_handcrafted_best.pth (torch, 11224 bytes, 4 tensors)

fc1.weight f4 [32, 64]
0	0xbde65c14	-0.11248031
1	0xbe039dad	-0.12853117
2	0xbcfab157	-0.03060214
3	0xbdebdcea	-0.115167454
4	0x3ca4f35c	0.020135574
5	0xbd9f15c4	-0.07767823
6	0xbe495d5c	-0.1966452
7	0xbdede806	-0.116165206
8	0x3da5e85d	0.081009604
9	0xbd9afe74	-0.07568064
10	0x3e3ea0ee	0.18616077
11	0xbdd89ee8	-0.10577184
12	0xbdd81a94	-0.105519444
13	0x3c3a4ebd	0.011371312
14	0x3c7c2f00	0.015392065
15	0x3d81e326	0.06342153
16	0xbdb3afc6	-0.087737605
17	0xbe0a5dbd	-0.13512321
18	0x3d34c91d	0.04413711
19	0x3cef3367	0.029199315
20	0x3da565bf	0.08076047
21	0xbc583242	-0.013195576
22	0x3d6532a4	0.055956498
23	0xbdc4cd1c	-0.09609434
24	0x3d521f2d	0.051299263
25	0xbd9b29e6	-0.07576351
26	0x3da6b3ee	0.081397876
27	0xbde304bd	-0.11084888
28	0xbe2a85f0	-0.16652656
29	0xbb826c4e	-0.003980196
30	0x3da4551a	0.08024044
31	0xbdc8556f	-0.0978192
32	0x3db2588a	0.08708294
33	0xbdeeebe6	-0.11666088
34	0x3d93758f	0.07200157
35	0xbd0baebd	-0.03410219
36	0xbd79b0ea	-0.060959734
37	0xbdac7be9	-0.084220715
38	0xbcc9b278	-0.024621233
39	0x3e2f5f58	0.17126215
40	0x3d425503	0.047444355
41	0x3d8e7fd0	0.06957972
42	0xbe5943c8	-0.21217263
43	0x3ccafaf0	0.02477786
44	0x3e344288	0.17603505
45	0x3dc1fe34	0.094723135
46	0xbde80fac	-0.11331114
47	0x3d4d02e7	0.050051596
48	0x3dc48f3f	0.095976345
49	0x3e0fb15c	0.14032501
50	0x3c7268ec	0.014795523
51	0x3d17f3d3	0.037097763
52	0x3e257e9b	0.16161577
53	0xbdb3d363	-0.08780553
54	0x3e2909b9	0.16507615
55	0xbc99e66f	-0.018786637
56	0xbddc204f	-0.1074835
57	0xbdf8b697	-0.12144201
58	0xbdd97870	-0.10618675
59	0x3e1f12d3	0.15534525
60	0x3ddcb20a	0.10776146
61	0xbcd6812c	-0.02618464
62	0xbd705072	-0.05867047
63	0xbe0d2cd5	-0.13786633
64	0x3d9a15b0	0.07523668
65	0x3da348be	0.07972859
66	0xbdb400c0	-0.087892056
67	0xbcbca2a0	-0.023026764
68	0x3df8e146	0.121523425
69	0xbd443db4	-0.047910407
70	0xbdafc3de	-0.085822806
71	0x3d92724a	0.07150705
72	0x3d6c8308	0.05774215
73	0x3ddc852c	0.10767588
74	0xbd5c7884	-0.05382587
75	0x3cf8fb60	0.030393302
76	0x3cf683d0	0.03009215
77	0x3dd04b1e	0.101705775
78	0x3d8f7574	0.07004824
79	0x3cf09e20	0.029372275
80	0xbc9011e8	-0.017586663
81	0xbcb6ab60	-0.022298515
82	0xbd8a2732	-0.06745757
83	0x3d575bc8	0.052577764
84	0x3dda2b9a	0.106528476
85	0xbd822234	-0.0635418
86	0xbdaef044	-0.08541921
87	0x3dbe9d9a	0.09307404
88	0x3c899628	0.016795233
89	0xbd7159d4	-0.058923557
90	0x3da5c71e	0.08094619
91	0xbdd09560	-0.10184741
92	0xbd7b9050	-0.061416924
93	0xbd2486a8	-0.04016748
94	0xbb826e60	-0.003980443
95	0x3cda49e0	0.026646554
96	0x3d74db18	0.059779257
97	0xbd32c74c	-0.043647096
98	0xbc468e10	-0.012118831
99	0xbd8583e4	-0.06519297
100	0xbda853aa	-0.08219083
101	0x3cdf6c80	0.027273417
102	0x3dbcc550	0.09217322
103	0x3ddcea6a	0.107868984
104	0xbdc7cc24	-0.097557336
105	0x3d7248ac	0.059151337
106	0xbd1df67c	-0.038565144
107	0xbbcc1f80	-0.006229341
108	0xbbaaf280	-0.0052168965
109	0x3ddd1e34	0.107967764
110	0x3dd682e6	0.10474186
111	0xbdcf4954	-0.10121408
112	0x3cde1338	0.027108774
113	0x3d95b5fe	0.07310103
114	0x3d095de8	0.03353682
115	0xbb3dccc0	-0.0028961152
116	0xbd71b2c8	-0.05900839
117	0xbdb49fac	-0.088195175
118	0xbdfbf940	-0.123034
119	0xbb1ec300	-0.0024225116
120	0xbd458b88	-0.04822877
121	0x3cf1ab10	0.029500514
122	0xbd5873c0	-0.052844763
123	0x3dd4a3b6	0.10382788
124	0xbdb49f5c	-0.08819458
125	0x3de328da	0.11091776
126	0xbd4b012c	-0.049561664
127	0x3c9e45e8	0.019320443
128	0xbe157a31	-0.14597394
129	0xbc13b8c3	-0.009016219
130	0x3d4412b2	0.04786939
131	0x3dc88586	0.097910926
132	0xbe3824e8	-0.17982829
133	0x3d459749	0.04823998
134	0xbbc85465	-0.0061135762
135	0xbe022115	-0.12707932
136	0x3e1b8b7c	0.15189928
137	0xbafc673b	-0.0019256839
138	0x3ddee93d	0.108843304
139	0xbd275393	-0.040851187
140	0xbc82a8aa	-0.015949566
141	0xbdea4e47	-0.114407115
142	0x3d49ece2	0.049298175
143	0x3ca09be7	0.01960559
144	0xbdb90510	-0.09034169
145	0xbe0a60bd	-0.13513465
146	0x3dc3ce3f	0.09560823
147	0x3e1a4f79	0.15069379
148	0x3dbfca27	0.093647294
149	0x3dee9cea	0.11651023
150	0xbd2c0797	-0.041999426
151	0x3da247dd	0.07923863
152	0x3df34f96	0.11880414
153	0xbd9c8e58	-0.076443374
154	0x3da7a133	0.08185043
155	0x3ca77aea	0.020444352
156	0xbdf98747	-0.12184005
157	0xbd15dee9	-0.036589537
158	0x3d61e316	0.055148207
159	0xbdf9c026	-0.121948525
160	0x3d645c30	0.05575198
161	0xbdc295a9	-0.09501202
162	0x3d36921e	0.044572942
163	0xbd47124f	-0.048601445
164	0x3c806710	0.015674144
165	0xb9260f22	-0.00015836631
166	0x3e3176d1	0.17330481
167	0x3d1ca635	0.038244445
168	0xbde01491	-0.10941423
169	0x3d441286	0.047869228
170	0x3b9cc702	0.004784466
171	0x3c8a9a38	0.01691924
172	0x3e03e77f	0.12881278
173	0x3e5e501d	0.21710248
174	0xbdee9e00	-0.1165123
175	0x3d252cbd	0.04032587
176	0xbd1e3554	-0.038625076
177	0xbd975686	-0.0738955
178	0x3bf1714a	0.0073682414
179	0xbd9f4489	-0.07776744
180	0x3e05037f	0.12989615
181	0x3ceb56c1	0.02872789
182	0x3d84faf6	0.064931795
183	0xbc995134	-0.018715478
184	0xbe457db7	-0.19286238
185	0xba714077	-0.00092030264
186	0xbbde5532	-0.0067850584
187	0xbddb939f	-0.10721516
188	0x3e24301b	0.16033976
189	0xbcc9e129	-0.024643498
190	0xbe39b805	-0.18136604
191	0xbcd3c956	-0.02585284
192	0xbdb968e7	-0.09053212
193	0xbcabb970	-0.020962447
194	0xbde3b5a6	-0.11118631
195	0xbbe9e4ef	-0.0071378867
196	0xbc070c76	-0.008242717
197	0x3d86153c	0.06547019
198	0xbddc8673	-0.10767832
199	0xbe408e6a	-0.18804327
200	0x3e363ab9	0.17795838
201	0xbc673f35	-0.014114191
202	0x3e2b2107	0.16711818
203	0xbca665ab	-0.020312151
204	0xbd4b08bd	-0.04956888
205	0x3d4284a7	0.04748979
206	0x3e2d13d5	0.16902097
207	0x3ca3bc99	0.019987391
208	0xbd20401f	-0.03912365
209	0xbd8be29d	-0.068303324
210	0x3e35a604	0.17739111
211	0x3e06d3e1	0.13166763
212	0x3dbfe604	0.09370044
213	0x3e27107a	0.16314879
214	0x3e194251	0.14966704
215	0x3d587a47	0.052850988
216	0x3c1ed3fc	0.009694096
217	0xbccf38f8	-0.02529572
218	0xbd92d8aa	-0.07170232
219	0x3d9ec72a	0.07752831
220	0xbdf93541	-0.121683605
221	0xbe19a0e1	-0.15002777
222	0x3cf99ab0	0.030469269
223	0xbe0e7f8f	-0.13915847
224	0x3d89384b	0.0670019
225	0xbe1806dd	-0.14846368
226	0x3d4a7a61	0.049433116
227	0xbe13056b	-0.14357536
228	0x3ca33922	0.019924704
229	0xbe0149de	-0.12625834
230	0x3db311c7	0.08743625
231	0x3d6452a9	0.055742893
232	0xbe261863	-0.1622024
233	0x3dfa6a99	0.12227363
234	0xbd420e9b	-0.04737721
235	0xbe6e80c1	-0.23291303
236	0xbcf794c6	-0.030222308
237	0x3dbdb052	0.09262146
238	0x3d97622e	0.07391773
239	0xbc9d226d	-0.019181455
240	0x3b2ccbfc	0.0026366701
241	0xbe11d55b	-0.14241545
242	0x3e3aeda5	0.18254717
243	0x3c2616e2	0.010137292
244	0x3cfb7eb5	0.030700067
245	0x3d8428ac	0.0645307
246	0x3dda6ab6	0.10664885
247	0x3c9eff07	0.019408716
248	0x3b999e94	0.0046880934
249	0x3dbe02cd	0.09277878
250	0xbd9e83ac	-0.07739958
251	0x3cd154a0	0.025553048
252	0x3db7f7b1	0.0898279
253	0xbdc193bf	-0.094520085
254	0xbcf43a5b	-0.029812982
255	0xbdaaae51	-0.083340295

fc1.bias f4 [32]
0	0x3c9752f8	0.01847218
1	0xbd7eb28c	-0.062181994
2	0xbc90957c	-0.017649405
3	0x3cfec425	0.031099388
4	0x3e0d9b8f	0.13828872
5	0x3e17ab84	0.14811522
6	0xbda86596	-0.08222501
7	0xba99d2f2	-0.001173584
8	0xbca7a600	-0.020464897
9	0x3d4617b4	0.04836245
10	0x3d86018c	0.06543264
11	0xbd4df77c	-0.050284848
12	0xbad73b4a	-0.0016420868
13	0xbd370cfa	-0.04469011
14	0xbd35e1e4	-0.04440488
15	0xbd84d597	-0.064860515
16	0x3d3540e0	0.044251323
17	0xbde0a3a5	-0.10968713
18	0xbd7cfff0	-0.06176752
19	0xbdc3088a	-0.09523113
20	0x3e008a48	0.1255275
21	0xbd4b0257	-0.04956278
22	0x3e059498	0.13044965
23	0xbd7e6ab8	-0.062113494
24	0x3dac7a0b	0.08421715
25	0xbc96080d	-0.018314386
26	0xbd9fab26	-0.07796316
27	0x3de47650	0.11155379
28	0xbd76870a	-0.060187377
29	0xbdf17d6d	-0.11791501
30	0x3d83ad50	0.06429541
31	0xbcbfa353	-0.023393309

fc_out.weight f4 [2, 32]
0	0xbd844489	-0.064583845
1	0x3e337ded	0.17528506
2	0xbe8ba01e	-0.27270597
3	0xbe40a9f6	-0.18814835
4	0x3e3f26bf	0.18667124
5	0x3e0fb756	0.14034781
6	0x3b43f940	0.0029903203
7	0xbe351fc6	-0.17687902
8	0xbce05648	-0.027384892
9	0x3e95ef13	0.29283962
10	0xbe171f04	-0.14757925
11	0x3d919a68	0.07109529
12	0x3e6c8f62	0.23101571
13	0x3e97d058	0.2965114
14	0x3daba98e	0.08381949
15	0x3e943f6c	0.28954637
16	0xbd3bd158	-0.045853943
17	0xbe119607	-0.14217387
18	0xbd9b4c35	-0.07582895
19	0xbe2b4669	-0.16726078
20	0x3e898ee4	0.2686683
21	0xbe21d0bd	-0.15802284
22	0xbe511b83	-0.20420651
23	0xbd810868	-0.063004315
24	0xbe616a48	-0.220132
25	0xbe822bfb	-0.2542418
26	0xbe4aac0f	-0.19792198
27	0xbda8f16a	-0.08249171
28	0xbe724a54	-0.23661166
29	0xbe4f336c	-0.2023446
30	0xbe26246b	-0.1622483
31	0xbdfa8c15	-0.1223375
32	0x3dd3bf16	0.10339181
33	0x3bc3fc00	0.0059809685
34	0x3e2f51ea	0.17121091
35	0x3e914b06	0.2837755
36	0xbe44c496	-0.19215617
37	0xbe7670d3	-0.24066477
38	0x3d66fd6c	0.056394026
39	0x3e8b57fb	0.2721556
40	0x3d671a2c	0.056421444
41	0xbe2ae4c9	-0.16688837
42	0x3e304625	0.17214258
43	0xbe324db7	-0.17412458
44	0xbe5fcd3a	-0.21855631
45	0xbe6f9b70	-0.23399138
46	0xbe23ddd4	-0.1600259
47	0xbe9a63c1	-0.3015423
48	0xbe0b37b0	-0.13595462
49	0x3e53fc69	0.20701756
50	0x3d5b5d74	0.05355592
51	0xbc0a49ca	-0.008440444
52	0xbe24a46d	-0.16078348
53	0xbbcb9d67	-0.006213832
54	0x3e4c67af	0.19961427
55	0xbe084db7	-0.13310896
56	0x3e3c6fda	0.18402043
57	0x3e4698fe	0.193943
58	0x3d33300b	0.04374699
59	0x3e68e5fe	0.22743985
60	0x3da7bd86	0.081904456
61	0xbbbc0080	-0.0057373643
62	0x3e5f7526	0.21822032
63	0x3d2a9ce6	0.041653536

fc_out.bias f4 [2]
0	0x3e1726cb	0.14760892
1	0xbd7ea87e	-0.062172405
