fifth generation/pipeline_models_v2/stage2_maturity_classifier_strawberry_using_handcrafted_best.pth (torch, 11320 bytes, 4 tensors)

fc1.weight f4 [32, 64]
0	0xbd6564a0	-0.056004167
1	0xbde3eb9c	-0.11128923
2	0x3c12f230	0.008968875
3	0x3de108a0	0.10987973
4	0x3da853d0	0.08219111
5	0x3dcae6fc	0.09907338
6	0x3daee8ae	0.08540474
7	0x3d577304	0.05259992
8	0xbb6be640	-0.0035995394
9	0xbdbd61e4	-0.09247187
10	0x3dbc38be	0.0919051
11	0xbdb424b4	-0.08796063
12	0xbd99f10c	-0.07516679
13	0x3d4d7314	0.050158575
14	0x3d8c9800	0.06864929
15	0xbd853824	-0.065048486
16	0x3da2032c	0.07910761
17	0xbdef950e	-0.11698352
18	0x3cf40530	0.02978763
19	0x3d6207f0	0.05518335
20	0x3cbe33e8	0.02321811
21	0xbd900d90	-0.07033837
22	0xbdace360	-0.08441806
23	0x3dcc9b42	0.099905506
24	0x3ce197d0	0.02753821
25	0xbd5bf560	-0.053700805
26	0x3df693b8	0.12039894
27	0xbcd5bdc0	-0.026091456
28	0xbcbd5ba0	-0.02311498
29	0x3d03c914	0.032174185
30	0x3dd5220a	0.10406883
31	0xbd63eab4	-0.055643752
32	0x3a253300	0.000630185
33	0xbd65dc30	-0.05611819
34	0xbd67e7f8	-0.056617707
35	0xbc8b9580	-0.01703906
36	0xb9070800	-0.00012877584
37	0x3d894460	0.067024946
38	0xbdbf376a	-0.09336741
39	0x3d948ede	0.07253812
40	0x3dc8015c	0.09765884
41	0xbc697940	-0.0142501
42	0xbc3774a0	-0.011197239
43	0x3cfc85f8	0.0308256
44	0xbdea5f80	-0.114439964
45	0x3dbc5ea0	0.09197736
46	0xbcb321f0	-0.021866769
47	0x3ba4bb20	0.00502719
48	0x3d72bc38	0.05926153
49	0x3d55318c	0.052049205
50	0xbd6ce784	-0.057837978
51	0xbdbc0942	-0.09181453
52	0xbdf6f702	-0.12058832
53	0xbdd5c47a	-0.104378656
54	0xbcd74378	-0.026277289
55	0xbdc6bd20	-0.097040415
56	0xbc4ecae0	-0.012621611
57	0xbd873fac	-0.06603941
58	0x3d910ee6	0.0708292
59	0x3daf1b44	0.085501224
60	0x3dd893ce	0.105750665
61	0xbda7df66	-0.08196907
62	0xbdb4a98e	-0.088214025
63	0x3d319c80	0.04336214
64	0xbce20944	-0.027592309
65	0x3dc4af33	0.09603729
66	0xbde8f569	-0.11374933
67	0x3defd03f	0.11709642
68	0xbdaecb2e	-0.08534847
69	0xbdcddc9a	-0.10051842
70	0xbc448f42	-0.011997046
71	0xbd6352eb	-0.055499
72	0xbda3d4fb	-0.07999607
73	0x3d93b095	0.07211415
74	0x3dc7322b	0.09726366
75	0x3d90f03c	0.07077071
76	0x3c86b7ea	0.016445119
77	0xbc9416b2	-0.018077228
78	0xbd8b2829	-0.06794769
79	0x3df18036	0.117920324
80	0xbd891e50	-0.06695235
81	0xbddde0e1	-0.10833908
82	0x3dd7fcaf	0.105462424
83	0xbc19f4cc	-0.009396743
84	0x3da99cf6	0.08281891
85	0xbd2dd9c5	-0.04244401
86	0x3dc4e863	0.09614637
87	0xbdb1df86	-0.08685212
88	0x3d9795ad	0.07401595
89	0x3dc95273	0.09830179
90	0xba3493b6	-0.0006888466
91	0x3dac3c67	0.08409958
92	0x3b686d61	0.0035465586
93	0xbdec68d2	-0.115434304
94	0x3d5c89d8	0.053842396
95	0xbdc861c1	-0.0978427
96	0x3b36fc9c	0.0027921563
97	0xbde55d7d	-0.11199472
98	0xbd72d1a2	-0.059281953
99	0xbd184530	-0.037175357
100	0xbd413f39	-0.047179434
101	0xbdf99fba	-0.121886685
102	0xbd80de51	-0.062924035
103	0xbdeae4eb	-0.11469444
104	0xbdd36ff5	-0.103240885
105	0xbdfead54	-0.124354035
106	0xbd9110b0	-0.07083261
107	0xbce961b2	-0.028488968
108	0x3de55f60	0.11199832
109	0xbdb1d860	-0.086838484
110	0xbdc50ebc	-0.09621951
111	0xbdcec4d7	-0.10096138
112	0x3ded5d69	0.11590082
113	0xbc73528e	-0.014851226
114	0xbd0c9fee	-0.03433221
115	0x3d8a272b	0.06745752
116	0xbd94bf86	-0.07263093
117	0xbd03a5fc	-0.032140717
118	0x3dea4e6f	0.11440741
119	0x3d89f603	0.06736376
120	0xbdc4745e	-0.09592508
121	0xbd07fae3	-0.03319825
122	0x3c5cc9f6	0.013475886
123	0x3d3ad28c	0.04561095
124	0xbd70e64a	-0.05881337
125	0x3db0f514	0.08640495
126	0x3af0f1df	0.001838263
127	0xbddb17a6	-0.1069787
128	0x3d0f20ab	0.034943264
129	0xbdf5cfbb	-0.12002512
130	0x3c25cbe6	0.010119414
131	0xbdfab60b	-0.12241753
132	0xbd0d5585	-0.034505386
133	0xbce1e1a4	-0.027573414
134	0xbde33908	-0.11094862
135	0xbd0ad570	-0.033894956
136	0x3b410e8e	0.0029458138
137	0xbd931936	-0.07182543
138	0x3c9ade84	0.018904932
139	0x3d895495	0.06705586
140	0x3c83b77d	0.016078705
141	0xbdf84335	-0.12122194
142	0xbaf443f6	-0.0018635977
143	0xbd74a1a6	-0.059724472
144	0x3d14aca9	0.036297474
145	0xbdca65c9	-0.09882695
146	0xbdae054e	-0.084971055
147	0xbbb47f0d	-0.0055083097
148	0x3d90c2bd	0.070683934
149	0xbd0ed118	-0.034867376
150	0xbc01eb3a	-0.007929618
151	0xbc35c11a	-0.011093402
152	0xbdcae979	-0.099078126
153	0xbc0a232c	-0.008431237
154	0xbb6b7518	-0.0035927948
155	0x3cb146f0	0.021640271
156	0x3d5f2a35	0.05448361
157	0x3d12aadf	0.035807487
158	0x3d90f646	0.07078223
159	0xbcba3dc3	-0.022734528
160	0xbd62d13c	-0.055375323
161	0x3dd65597	0.10465544
162	0x3dc91761	0.09818912
163	0x3d8e9289	0.06961543
164	0x3dbd38ae	0.092393264
165	0x3d801f4d	0.0625597
166	0x3de4df10	0.11175358
167	0x3de10550	0.109873414
168	0xbdcd9b57	-0.10039394
169	0xbdf3f526	-0.11911993
170	0xbd820202	-0.06348039
171	0x3dc6be63	0.09704282
172	0x3de91149	0.1138025
173	0x3c1a9dc0	0.009437025
174	0xbdbfc46f	-0.093636386
175	0xbd714dce	-0.05891209
176	0x3d6d8399	0.05798683
177	0x3df03eb7	0.11730712
178	0x3cbab10a	0.022789497
179	0xbdaaaeca	-0.083341196
180	0x3df4aba2	0.11946799
181	0x3ddea4e9	0.10871298
182	0xbd5a91ad	-0.053361584
183	0xbd8d1acd	-0.068898775
184	0x3d960669	0.073254414
185	0xbdb63afa	-0.08897968
186	0x3dd83e4a	0.10558756
187	0xbcd39f98	-0.025832936
188	0xbb431bbc	-0.002977117
189	0xbd8b4e23	-0.06802013
190	0xbdfa0ce3	-0.12209489
191	0x3cf2fff1	0.029663058
192	0xbd319561	-0.04335535
193	0xbd94cb17	-0.07265299
194	0x3dce8bcd	0.10085259
195	0x3cbeeab1	0.023305269
196	0xbd0a4f94	-0.033767298
197	0xbde971b5	-0.11398641
198	0xbd8f029e	-0.06982921
199	0xbd2266d3	-0.039648842
200	0x3d548d20	0.0518924
201	0xbdec1d36	-0.11529009
202	0x3d91150e	0.07084094
203	0x3de62798	0.11238021
204	0x3d224e6b	0.039625566
205	0xbdfbbdb8	-0.12292045
206	0x3c758984	0.0149864
207	0xbd4df134	-0.050278857
208	0x3d1c1fb0	0.038116157
209	0xbb686cc1	-0.0035465213
210	0x3d7fe404	0.062473312
211	0xbc3cdbb7	-0.0115269935
212	0x3cb00dae	0.021490898
213	0x3d473631	0.048635665
214	0xbdbed7c1	-0.093184955
215	0x3caab30e	0.020837333
216	0x3de44d6b	0.11147579
217	0x3db520bf	0.088441364
218	0x3bd10862	0.006379173
219	0xbcbf1286	-0.023324262
220	0x3d4eaa82	0.050455578
221	0xbde2e3a3	-0.110785745
222	0xbd148b61	-0.036265735
223	0x3de0df4d	0.10980091
224	0x3c79002d	0.015197796
225	0xbb3e29e8	-0.0029016677
226	0xbdcc13bf	-0.09964704
227	0xbda4ce4f	-0.08047163
228	0x3c8e30e2	0.017357294
229	0xbdbf0fab	-0.0932916
230	0xbd0e4af0	-0.034739435
231	0xbd79d47a	-0.06099365
232	0x3d1e0cdb	0.03858648
233	0x3c9d434e	0.019197132
234	0xbdf5154b	-0.11966952
235	0x3d2d4e00	0.042310715
236	0xbc220e9d	-0.009891179
237	0xbd73f908	-0.059563667
238	0x3dbacdd8	0.09121293
239	0xbdab719b	-0.08371278
240	0xbdeb5f4a	-0.11492784
241	0x3c48c6d3	0.012254435
242	0xbd8d4382	-0.06897642
243	0xbd4a33cc	-0.049365804
244	0xbde2d574	-0.11075869
245	0xbd04f701	-0.032462124
246	0x3dce0099	0.10058708
247	0xbdeb1aa3	-0.1147969
248	0xbdaab8db	-0.0833604
249	0xbcd7a818	-0.02632527
250	0xbdcaf984	-0.099108726
251	0x3cb4b436	0.022058588
252	0xbccc4165	-0.024933526
253	0x3dbf98d2	0.0935532
254	0xbdfbe48f	-0.122994535
255	0x3baca9c2	0.00526926

fc1.bias f4 [32]
0	0xbd3d95fc	-0.046285614
1	0x3dad1388	0.08450991
2	0xbc359295	-0.011082311
3	0xbde6539d	-0.11246417
4	0x3ce87051	0.02837387
5	0x3dd729b6	0.105060026
6	0x39fffc00	0.00048825145
7	0xbd031ee4	-0.03201188
8	0xbb2def43	-0.0026540316
9	0x3d90f57c	0.070780724
10	0x3dd8840b	0.1057206
11	0xbd002228	-0.031282574
12	0x3d8a826b	0.067631565
13	0x3d8be37e	0.068305
14	0x3de79e20	0.11309457
15	0x3dba7225	0.091038026
16	0xbdd36fea	-0.1032408
17	0xbdd37ee8	-0.1032694
18	0xbdd47206	-0.10373311
19	0x3da05f9c	0.07830736
20	0xbd7e3c44	-0.062069193
21	0x3d8b31f1	0.06796635
22	0xbca35b4c	-0.019940995
23	0xbd52f8c0	-0.051506758
24	0x3dc1202e	0.09429966
25	0xbccea498	-0.025224969
26	0xbd87eac7	-0.06636577
27	0xbc9cefc8	-0.019157305
28	0xbda0ec14	-0.07857528
29	0xbdf715c1	-0.12064696
30	0xbcb36988	-0.021900907
31	0xbbb766e2	-0.0055969814

fc_out.weight f4 [2, 32]
0	0xbdce5a3c	-0.100758046
1	0x3e1f26da	0.15542164
2	0xbd27d498	-0.04097423
3	0xbd3d994d	-0.046288777
4	0x3e0eb01f	0.13934372
5	0x3c94ebf3	0.018178916
6	0xbd2a5538	-0.041585177
7	0x3d267e0c	0.04064755
8	0xbe245bc0	-0.16050625
9	0x3e31f6f7	0.17379366
10	0x3d38eb1d	0.045146096
11	0x3d7ea724	0.062171116
12	0xbe061fa9	-0.13098015
13	0x3e090316	0.13380083
14	0xbe150117	-0.14551197
15	0xbd80d30d	-0.06290255
16	0xbde823af	-0.11334931
17	0xbdb6d755	-0.0892779
18	0x3d1a8504	0.03772451
19	0xbe33114e	-0.1748707
20	0xbe32a48d	-0.17445584
21	0x3d2152fb	0.039385777
22	0x3d691202	0.05690194
23	0x3b261040	0.0025339276
24	0xbd897afb	-0.0671291
25	0xbd4f7195	-0.05064543
26	0xbcbf0b01	-0.023320677
27	0xbd12cfb4	-0.035842612
28	0xbde14cbb	-0.11000963
29	0x3e082a29	0.13297333
30	0x3d128cd4	0.035778835
31	0xbdf4d9ec	-0.11955628
32	0xbd132af0	-0.03592962
33	0xbe01b2e0	-0.12665892
34	0xbdd07f0b	-0.101804815
35	0x3e0ae9de	0.13565776
36	0x3d601d6c	0.05471556
37	0x3da1a952	0.078936234
38	0xbcbbe2b0	-0.022935241
39	0xbd34ad40	-0.044110537
40	0x3cc19f83	0.023635631
41	0xbe0099a9	-0.12558617
42	0xbe3298f9	-0.17441167
43	0x3dfe853e	0.12427758
44	0x3b89a65e	0.0042007407
45	0x3dde5e8b	0.108578764
46	0x3e086e26	0.13323268
47	0x3da15e76	0.07879345
48	0xbd777bcc	-0.060420796
49	0xbd04c7a4	-0.032416955
50	0xbc1728a0	-0.009225994
51	0x3c2606dc	0.010133471
52	0x3c078514	0.008271474
53	0xbe0c8032	-0.13720778
54	0xbdc43ab1	-0.09581507
55	0x3e03eaa7	0.12882482
56	0x3bb86b78	0.0056280456
57	0xbda1b1fe	-0.078952774
58	0x3df287a8	0.118422806
59	0xbd56e69c	-0.05246602
60	0xbd91ee92	-0.07125582
61	0x3dfd34d7	0.12363594
62	0xbe0ed0c3	-0.13946824
63	0xbdaabecc	-0.08337173

fc_out.bias f4 [2]
0	0x3e0775b1	0.1322849
1	0xbc814fbc	-0.01578509
