sixth generation(prototypemixing)/pipeline_models_dg_zsl/phase2_feature_extractor_handcrafted_dg_best.pth (torch, 11704 bytes, 4 tensors)

fc1.weight f4 [32, 5]
00000000: a60e af3e 480c be3e 1091 d6bd e855 d23e
00000010: 70ac c8bd 26d1 b83d a3f3 5ebe 6878 863e
00000020: 10d9 c93e c4fa a7be 5405 c73e 8e6a ab3d
00000030: 722a a93e f013 783d 84d0 5c3e 6e50 81bd
00000040: b682 b03e 1e60 873d 2dc9 55be 3075 e93d
00000050: aafd 52be 20d1 56bd 44ff 39be 7ee4 973e
00000060: 35be b4be c01d 53be 944f 01be 74ac 89be
00000070: 56e3 2c3d 7726 e2be 34c9 ce3e ee80 c2be
00000080: a0c5 b03e a66b 983d 14b2 14be 0a7e 8d3e
00000090: aebd 8e3d 1600 b93e 983f 483d 206c 10be
000000a0: 6815 f63d 985e f8bd 78ba 403e 386e cc3e
000000b0: c65b 843e 2433 48be 2e2d 843e 26e0 a33d
000000c0: 388f 683e 068f 8bbe 24a9 e2be 48ee 30be
000000d0: 45a0 afbe 3ae1 bb3e bae6 033e 9eaf 3d3e
000000e0: 3ad4 103e 80ec febb d831 b33e dcaf a2be
000000f0: a0ab e63c 2248 9cbe 0235 0d3e feb4 1dbe
00000100: 1252 0c3e 1ed1 bebd 2ae8 bd3e 12b6 87be
00000110: b98e 88be d690 88be 4cf2 cd3e 0a9c 183e
00000120: ec53 dc3e ecf6 bcbe 7b1c e3be 8323 b3be
00000130: b106 9abe 2e7c 393e 5afa 233e 0042 be3e
00000140: 4c7e 6cbe 9417 9cbe 7cf9 723e 361a 39be
00000150: b8f7 8a3e 1457 d9bd 46fb 823e 3ae7 b1be
00000160: cb19 67be 8e9d 0b3e f89f c13d 5883 e9bd
00000170: 787b 883e 0ea8 9b3e 2c0b a6be 327b 74be
00000180: 06a9 d13e 3c86 1abe 0e59 22be 2b8d ddbe
00000190: de1f 83be a8ca e43d 08c8 71bd f234 a6be
000001a0: 6ede 2b3c de67 9cbe 1e42 c2be 152c 7cbe
000001b0: f765 c8be 58cb 91be c0e1 e43e d6fc ac3d
000001c0: 761e 0d3e d38e d5be c861 96be b26d 18be
000001d0: ae37 8f3d 027a c9be a050 45be d213 89be
000001e0: 8e70 a23a d666 2abe 40de fdbc 4c28 9bbe
000001f0: 1a2a 9dbe ec94 85be 94c0 1cbe fab8 b4be
00000200: 4cfc bf3e 2ac5 b5bd 8801 c53e aeaf 0e3e
00000210: 5ae4 c1be b474 9e3e 5c00 fcbd 8a8a 2fbe
00000220: f20f bebe 65a2 e3be 8e05 033e c011 c8bd
00000230: 9a49 323e 88e8 bbbe a8fe a93e b713 a8be
00000240: 0e26 9ebd f64c bf3d f469 6c3e d0d9 b83e
00000250: 5c95 d03e 6a8e b5be 987f e63d 0af9 44be
00000260: e8bb 48bd ef61 abbe 768f d03e aa0d a8be
00000270: 8cbf 743e 5af0 203e 8ecf 143e cf95 77be
0.34190863 0.37118745 -0.10476887 0.41081166 -0.09798515 0.09024267 -0.21772628 0.26263738
0.39423418 -0.32808506 0.38871253 0.08369933 0.33040196 0.06056589 0.21563917 -0.06314169
0.34474725 0.0661013 -0.20877524 0.11399305 -0.20604578 -0.05244553 -0.18163782 0.29666513
-0.35301366 -0.20616817 -0.12628013 -0.26889384 0.042208992 -0.4416997 0.4038788 -0.3798899
0.34525776 0.07442407 -0.14521056 0.27635223 0.06969772 0.36132878 0.048888773 -0.14103746
0.12015802 -0.12127417 0.18821132 0.3992784 0.25851268 -0.19550759 0.2581572 0.08001737
0.22710884 -0.27257556 -0.4426967 -0.17278397 -0.34301963 0.36695272 0.12880984 0.18524024
0.14143458 -0.007779658 0.34998965 -0.31774795 0.028158009 -0.30523783 0.13789752 -0.15401074
0.13703182 -0.0931723 0.3709119 -0.26506096 -0.2667139 -0.26673 0.4022392 0.14903274
0.43032777 -0.36907136 -0.44357666 -0.3498803 -0.3008323 0.18113777 0.1601347 0.3715973
-0.23095053 -0.3048674 0.23727983 -0.18076405 0.2714212 -0.10612312 0.2558233 -0.34746724
-0.22568433 0.13634321 0.0945434 -0.11402005 0.266567 0.30401653 -0.32430398 -0.2387512
0.40949267 -0.15090269 -0.15854284 -0.43271765 -0.2561025 0.11171466 -0.059028655 -0.3246227
0.010490043 -0.30547994 -0.37941068 -0.24626191 -0.39140293 -0.2847545 0.44703484 0.08446662
0.13781151 -0.4171053 -0.29371476 -0.14885595 0.06993042 -0.39350897 -0.19269037 -0.26772934
0.0012393163 -0.16640791 -0.030989766 -0.30304182 -0.30696183 -0.2609018 -0.15307838 -0.35297376
0.37497175 -0.08875497 0.3847773 0.13934204 -0.3786953 0.30948412 -0.12304756 -0.17142692
-0.3712154 -0.44459835 0.12795088 -0.097690105 0.1741089 -0.36700845 0.332021 -0.3282754
-0.07722102 0.09340851 0.23087293 0.36103678 0.40738952 -0.35460216 0.11254805 -0.19235626
-0.049007326 -0.33473155 0.40734452 -0.32822925 0.23901194 0.15716687 0.14532301 -0.24178241

fc1.bias f4 [32]
00000000: 46aa cc3e 7d7e eb3d adad 673d 2cc8 c9be
00000010: a378 473e b266 89bd 68cb 51be 0082 be3e
00000020: 9364 d93d 825e 7dbe 5fc8 67be 6ef4 aebc
00000030: 05d5 7e3e 300a eabd 0ca5 82be a0d1 1cbe
00000040: fa0e abbe b9c0 173e a80e b33e 1490 d7be
00000050: de3f da3d aac7 6f3e e2f7 a53d 9a15 23be
00000060: ddf6 763e 7e35 773e d0cf 253e baf0 a0bd
00000070: 1c87 f2bd 8648 393d 6acb a1bd 8477 08be
0.39973658 0.11498735 0.056562115 -0.39410532 0.19479613 -0.06709041 -0.2048775 0.37208557
0.10614886 -0.24743083 -0.2263503 -0.021356788 0.24885948 -0.11427724 -0.25516546 -0.1531434
-0.33409864 0.14819612 0.3497212 -0.4210211 0.10656713 0.2341601 0.081039205 -0.15926209
0.24117608 0.241415 0.16192555 -0.07858415 -0.11842176 0.04523518 -0.07900126 -0.13326842

fc2.weight f4 [64, 32]
00000000: 5b35 d93d d44c 143e 4b42 bdbc ee1d 22bd
00000010: 8fc7 07bb 8eee 2cbc 1a13 2e3d 80c3 393d
00000020: a9f2 2abe ac9a 85bd a370 183e 4008 8d3d
00000030: 8fe3 60bc f345 dabd c27e ddbd 3e26 22be
00000040: 2205 6cbd 528a 633d bf91 dc3d 8c26 a73d
00000050: cbc3 23be 92c1 e4bd 8b46 ffbc 731b 2f3e
00000060: 991e ac3c 3aef 4abd daf8 8f3d 61e4 89bd
00000070: 6254 eabd 53ac fb3d 2e9e a4bd d626 11bd
00000080: a489 33be a159 ee3d f2ca 083e 4ef1 833d
00000090: ea82 02be 49a7 32be b304 13be ff18 043e
000000a0: a3f9 a93d ab53 183e d0a8 bd3d ae41 373d
000000b0: c4c4 7aba 20aa 09be 3117 1bbe 8050 29be
000000c0: 0034 943d 258a b7bd ba90 1bbd 6b5a d0bd
000000d0: ac88 0fbd b027 febd fc71 f5bd ac2e 703d
000000e0: d9f9 60bd 0e8e d83d 4e3a 77bd c2c9 04be
000000f0: 4882 ffbc c2b8 b3bd fe85 5dbd ef53 2cbe
00000100: 3e75 c03d 3862 02be 6790 ae3d 2449 a43d
00000110: abb5 fe3d 7ad9 0abe d12f 023e 4555 aebd
00000120: d7aa 773d 05ff 293e e83b ccbc 8e2f b3ba
00000130: 9d64 3dbd 8825 17be dcbd ad3d 0bb3 33be
00000140: 6ac0 e03d eab6 053e fab3 273e 16cb 2abd
00000150: 1e68 15be 08b8 113d a9e1 c43d 1b2b 34be
00000160: b805 36bd cc45 dcbd 248e 8fbc d632 b2bd
00000170: e9fc 93bd 73f8 74bd 8c05 2cbe a786 143e
00000180: 8967 073e 3f8e 26bd 1176 12bd e2c0 93bd
00000190: a331 2fbe fe27 30be 908d 863d 3cc7 debd
000001a0: 1f0a 01be 30fa 61bc b61f 71bd 8a40 6abd
000001b0: 5c50 14bc 8695 19bd 904e 79bd 3258 adbd
000001c0: 1751 13be 6a49 093e 0670 a7bd 2add 3f3d
000001d0: 73f4 99bd a262 2939 8b53 1d3e 34cc a63d
000001e0: 28c4 29be 1fae 673d 1dd5 1f3e ae7d 3e3d
000001f0: bab7 f23d 5055 243e b8e5 ddbc a248 163d
00000200: 7667 fabd 1392 0abd bb74 063e 8c98 b93d
00000210: d963 e4bd ab27 11be f266 f7bd ea09 2fbe
00000220: 25a5 0abe 8a0f 33bd 6654 f43d b864 f23c
00000230: 7437 08be 6037 11be 801a b43d dea5 06be
00000240: 4e4e b2bc 7108 b33d 1bfa a4bd a6e7 9dbc
00000250: 3e7b 5bbc 28fa 1ebd 70ea b1bd a85d 21be
00000260: edf5 12be a075 bdbd 6e86 313e 46de aebd
00000270: fd1d f3bd 4ea0 2a3d ac8f 473d d25c c63d
00000280: f76d 073e 3da5 c33d 8303 36be de6e 803c
00000290: 6b90 da3d 36d8 85bc 0357 d5bd a17c 2a3e
000002a0: 1b65 8bbd 6e1f cebd 7932 23be 1e5f 013c
000002b0: e8fe 9b3d 3648 203d 322f 0f3d f347 09be
000002c0: c70c 29be 212b b23a ac70 223e aadd d03d
000002d0: 7af4 d6bd 5a76 dcbc a59d 06be 79a7 aebd
000002e0: 7f6d 003d c765 c33d 454d 143e 7631 26be
000002f0: 0610 f23d ead4 00be e491 873d 5d2f 193e
00000300: e466 a33b c895 253e 030b 16be 4248 8abd
00000310: 50b1 d53d 5ec0 1dbd 9237 14bd 795a 8fbd
00000320: e829 fb3d 5494 b13d 5807 683d 5c73 cbbd
00000330: 118b 10be aea1 9c3c e086 563d e327 a7bd
00000340: dc97 4abd 3b0b ff3d 7664 903c ceac 023c
00000350: 522e 22bd 28c2 1fbe 0810 26be e60e adbd
00000360: 173d b4bd 1126 773d 095e 46bd c3a2 8dbd
00000370: 6596 2c3e 890b 813d 1f0c 013e 0b44 afbd
00000380: b318 96bd 2a84 823d 2e28 f6bd 08aa ecbd
00000390: 7a57 72bc f36a 84bd 6bb3 07be 68bf cb3d
000003a0: 7f8d 0e3e 28ec ea3c 1824 fcbc edab 27be
000003b0: 9dba 85bd 8256 383d f0b5 aa3d 0612 b7bc
000003c0: 9b21 8fbd 774d c03d ce18 13be 22d0 e43d
000003d0: d8e4 97bd 8a3f 39ba 0e45 31bd 2e92 af3c
000003e0: e36c 62bd d5cc f93d f9db 34bc 474d 0d3e
000003f0: 790b 2e3e 7d55 b5bd b30d 04be fd3a 113e
0.1060588 0.14482433 -0.0231029 -0.039579324 -0.0020718311 -0.010554923 0.042498685 0.04535246
-0.1669413 -0.06523642 0.14886717 0.06886339 -0.013726129 -0.10657873 -0.10815193 -0.158349
-0.057622083 0.055551834 0.10769986 0.08161649 -0.15992658 -0.11169733 -0.031161567 0.17100315
0.021010684 -0.04954455 0.070298865 -0.06733013 -0.11441876 0.122887276 -0.08037983 -0.035437427
-0.17532974 0.11638189 0.13358667 0.064425096 -0.12745252 -0.17446627 -0.14357261 0.1290016
0.082995676 0.14875667 0.09260714 0.04474037 -0.00095660635 -0.13443804 -0.15145566 -0.16534615
0.07236481 -0.08961896 -0.03797982 -0.10173496 -0.03504245 -0.124099135 -0.119846314 0.05863826
-0.054925773 0.1057397 -0.060358338 -0.1296759 -0.031190053 -0.08775474 -0.054082863 -0.16828893
0.09397362 -0.1273278 0.08523636 0.08021763 0.12436994 -0.13559523 0.12713553 -0.085123576
0.06046566 0.16601188 -0.02493091 -0.0013670789 -0.04623853 -0.14760411 0.084834784 -0.17548768
0.109742 0.13058057 0.1637725 -0.041697584 -0.14590499 0.035575897 0.09613354 -0.17594568
-0.044439048 -0.107555 -0.017523833 -0.087011024 -0.07225973 -0.059807252 -0.16798991 0.14504491
0.1322309 -0.040663 -0.03575713 -0.07214524 -0.17108779 -0.17202756 0.0656997 -0.10877845
-0.12601517 -0.0137925595 -0.058868133 -0.057190455 -0.009052362 -0.037496112 -0.06086594 -0.084640875
-0.14386402 0.13406911 -0.08175664 0.046841778 -0.07517328 0.0001615384 0.153639 0.081444174
-0.16578734 0.05656254 0.1560864 0.046506576 0.11851449 0.16048169 -0.027087077 0.03669036
-0.12226765 -0.033830713 0.13130467 0.09062299 -0.11151857 -0.14175288 -0.12080182 -0.17093626
-0.1353956 -0.04371599 0.1193016 0.029589042 -0.13302404 -0.1418128 0.08794117 -0.13149211
-0.021765854 0.087418444 -0.08055516 -0.019275498 -0.013396082 -0.038812786 -0.086872935 -0.15758383
-0.14351626 -0.09250951 0.17336437 -0.08538489 -0.11870954 0.041656785 0.048721 0.09685673
0.13225542 0.09553001 -0.17774777 0.015677866 0.10672077 -0.016338449 -0.10416987 0.16649105
-0.06806394 -0.100645885 -0.15937223 0.007896213 0.07616979 0.039131366 0.03495712 -0.13406353
-0.1650878 0.0013593176 0.15863293 0.10198529 -0.10495849 -0.026911903 -0.13146074 -0.085280366
0.031354424 0.09540897 0.14482601 -0.16229805 0.118194625 -0.1258122 0.06619623 0.14959474
0.0049866308 0.16170418 -0.14652638 -0.06752063 0.1043421 -0.038513534 -0.03618581 -0.06999678
0.12263852 0.086708695 0.05664763 -0.099341124 -0.1411555 0.019120064 0.05237472 -0.08161905
-0.04946123 0.12453314 0.017626029 0.00797577 -0.039594956 -0.15601408 -0.16217053 -0.08450107
-0.088007145 0.060339037 -0.048429523 -0.0691581 0.16854246 0.06301028 0.1260228 -0.085579
-0.0732893 0.063728645 -0.120193824 -0.115558684 -0.014791364 -0.064657114 -0.13252036 0.09948617
0.13921164 0.028677061 -0.03077893 -0.16374178 -0.06529734 0.045004375 0.08335483 -0.022347461
-0.069888316 0.09389775 -0.14364931 0.11172511 -0.07416695 -0.0007066658 -0.043278746 0.021432009
-0.055279624 0.12197272 -0.011038774 0.1379901 0.16996564 -0.08854196 -0.12895851 0.14182658

fc2.bias f4 [64]
00000000: 675f d73a 453d 51bd bae8 453d f7e3 08be
00000010: fb80 973d 4cbc 1ebe 2921 b9bd e819 c6bd
00000020: 0fa9 a63d f53c d1bb 9138 30be 1e12 efbd
00000030: c3f3 bbbd ed1f 29be dff5 9d3c 7b1d 893d
00000040: 0659 48bd 5e9a 9fbd 390e 4c3c c25b 10be
00000050: f292 cfbd e60c d9bb a80e 253e 373c 46bd
00000060: 7cd4 bc3d 330e 92bd a00b 5dbd 41a4 3abe
00000070: def2 143e d2d7 293e 1ba6 d0bb 78a3 d63d
00000080: d673 103e 8483 a93d a40a d53d 8947 33be
00000090: 4e68 2fbe c9d2 08be ae8d 7e3d fd0b 1fbe
000000a0: 1537 10be 6ed3 c0bd 8c7e 31be c316 62bb
000000b0: 80c2 183d 59ac c7bd fece f73d fb68 7cbd
000000c0: a3c3 70bd 9776 063e 80b8 2d3e ff5a c8bc
000000d0: 2fab 09be 0c60 b5bd bc59 f23c 27b2 d33d
000000e0: 6e64 a73d 9a42 9fbd 76fd 2bbe f0ca 0fbe
000000f0: 8c55 49bd ad7c 4e3c f28d 8cbd 10f9 1ebe
0.001643163 -0.05108382 0.04831765 -0.13368212 0.07397648 -0.15501517 -0.09039528 -0.0967291
0.08137714 -0.0063854405 -0.17209078 -0.116733775 -0.09177353 -0.16516085 0.01928228 0.06695076
-0.048913024 -0.07793115 0.012454563 -0.14097503 -0.101354495 -0.006623852 0.16118872 -0.04839727
0.09220216 -0.071316145 -0.053966165 -0.1822672 0.14545771 0.16586235 -0.0063674576 0.10480398
0.14106688 0.08277038 0.1040242 -0.17507757 -0.17129633 -0.13361658 0.062146835 -0.15531917
-0.14083512 -0.09415327 -0.1733343 -0.003449843 0.037294865 -0.097496696 0.121000275 -0.061623555
-0.058780324 0.13131176 0.16964912 -0.024457453 -0.13444208 -0.0885621 0.029583804 0.10336714
0.08173452 -0.07776375 -0.16795906 -0.14042258 -0.04915385 0.012602967 -0.068630114 -0.15524697
