sixth generation(prototypemixing)/pipeline_models_dg_zsl/phase1_feature_extractor_handcrafted_best.pth (torch, 11680 bytes, 4 tensors)

fc1.weight f4 [32, 5]
0.3419116 0.37119043 -0.10476962 0.41081464 -0.09798589 0.090243414 -0.21772777 0.26264036
0.39423716 -0.32808805 0.3887155 0.083700076 0.33040494 0.06056626 0.21564066 -0.063142434
0.34475023 0.06610204 -0.20877673 0.113993794 -0.20604727 -0.052445903 -0.18163931 0.2966681
-0.35301664 -0.20616966 -0.12628162 -0.26889682 0.042209364 -0.4417027 0.4038818 -0.3798929
0.34526074 0.07442482 -0.14521205 0.2763552 0.06969847 0.36133176 0.048889145 -0.14103895
0.12015876 -0.12127492 0.18821281 0.39928138 0.25851566 -0.19550908 0.25816017 0.08001812
0.22711033 -0.27257854 -0.44269967 -0.17278546 -0.3430226 0.3669557 0.12881133 0.18524173
0.14143607 -0.0077797044 0.34999263 -0.31775093 0.028158195 -0.3052408 0.13789901 -0.15401223
0.13703331 -0.09317304 0.37091488 -0.26506394 -0.26671687 -0.266733 0.40224218 0.14903423
0.43033075 -0.36907434 -0.44357964 -0.3498833 -0.30083528 0.18113926 0.1601362 0.37160027
-0.23095202 -0.30487037 0.23728132 -0.18076554 0.27142417 -0.106123865 0.2558263 -0.34747022
-0.22568582 0.1363447 0.09454414 -0.114020795 0.26656997 0.3040195 -0.32430696 -0.2387527
0.40949565 -0.15090418 -0.15854433 -0.43272063 -0.25610548 0.111715406 -0.059029028 -0.32462567
0.010490136 -0.30548292 -0.37941366 -0.2462634 -0.3914059 -0.2847575 0.44703782 0.08446737
0.137813 -0.41710827 -0.29371774 -0.14885744 0.069931164 -0.39351195 -0.19269186 -0.26773232
0.001239328 -0.1664094 -0.030989952 -0.3030448 -0.3069648 -0.2609048 -0.15307987 -0.35297674
0.37497473 -0.08875571 0.3847803 0.13934353 -0.3786983 0.3094871 -0.123048306 -0.17142841
-0.37121838 -0.44460133 0.12795237 -0.09769085 0.17411038 -0.36701143 0.33202398 -0.3282784
-0.077221766 0.093409255 0.23087442 0.36103976 0.4073925 -0.35460514 0.1125488 -0.19235775
-0.0490077 -0.33473453 0.4073475 -0.32823223 0.23901343 0.15716836 0.1453245 -0.2417839
00000000: 0a0f af3e ac0c be3e 7491 d6bd 4c56 d23e
00000010: d4ac c8bd 8ad1 b83d 07f4 5ebe cc78 863e
00000020: 74d9 c93e 28fb a7be b805 c73e f26a ab3d
00000030: d62a a93e 5414 783d e8d0 5c3e d250 81bd
00000040: 1a83 b03e 8260 873d 91c9 55be 9475 e93d
00000050: 0efe 52be 84d1 56bd a8ff 39be e2e4 973e
00000060: 99be b4be 241e 53be f84f 01be d8ac 89be
00000070: bae3 2c3d db26 e2be 98c9 ce3e 5281 c2be
00000080: 04c6 b03e 0a6c 983d 78b2 14be 6e7e 8d3e
00000090: 12be 8e3d 7a00 b93e fc3f 483d 846c 10be
000000a0: cc15 f63d fc5e f8bd dcba 403e 9c6e cc3e
000000b0: 2a5c 843e 8833 48be 922d 843e 8ae0 a33d
000000c0: 9c8f 683e 6a8f 8bbe 88a9 e2be acee 30be
000000d0: a9a0 afbe 9ee1 bb3e 1ee7 033e 02b0 3d3e
000000e0: 9ed4 103e e4ec febb 3c32 b33e 40b0 a2be
000000f0: 04ac e63c 8648 9cbe 6635 0d3e 62b5 1dbe
00000100: 7652 0c3e 82d1 bebd 8ee8 bd3e 76b6 87be
00000110: 1d8f 88be 3a91 88be b0f2 cd3e 6e9c 183e
00000120: 5054 dc3e 50f7 bcbe df1c e3be e723 b3be
00000130: 1507 9abe 927c 393e befa 233e 6442 be3e
00000140: b07e 6cbe f817 9cbe e0f9 723e 9a1a 39be
00000150: 1cf8 8a3e 7857 d9bd aafb 823e 9ee7 b1be
00000160: 2f1a 67be f29d 0b3e 5ca0 c13d bc83 e9bd
00000170: dc7b 883e 72a8 9b3e 900b a6be 967b 74be
00000180: 6aa9 d13e a086 1abe 7259 22be 8f8d ddbe
00000190: 4220 83be 0ccb e43d 6cc8 71bd 5635 a6be
000001a0: d2de 2b3c 4268 9cbe 8242 c2be 792c 7cbe
000001b0: 5b66 c8be bccb 91be 24e2 e43e 3afd ac3d
000001c0: da1e 0d3e 378f d5be 2c62 96be 166e 18be
000001d0: 1238 8f3d 667a c9be 0451 45be 3614 89be
000001e0: f270 a23a 3a67 2abe a4de fdbc b028 9bbe
000001f0: 7e2a 9dbe 5095 85be f8c0 1cbe 5eb9 b4be
00000200: b0fc bf3e 8ec5 b5bd ec01 c53e 12b0 0e3e
00000210: bee4 c1be 1875 9e3e c000 fcbd ee8a 2fbe
00000220: 5610 bebe c9a2 e3be f205 033e 2412 c8bd
00000230: fe49 323e ece8 bbbe 0cff a93e 1b14 a8be
00000240: 7226 9ebd 5a4d bf3d 586a 6c3e 34da b83e
00000250: c095 d03e ce8e b5be fc7f e63d 6ef9 44be
00000260: 4cbc 48bd 5362 abbe da8f d03e 0e0e a8be
00000270: f0bf 743e bef0 203e f2cf 143e 3396 77be

fc1.bias f4 [32]
0.40649462 0.098275155 0.057529464 -0.3941083 0.18773472 -0.06709115 -0.20487899 0.38413173
0.09970555 -0.24743232 -0.22635178 -0.021356974 0.24970633 -0.11427799 -0.25516844 -0.1531449
-0.33410162 0.15949067 0.3461609 -0.42102408 0.103865474 0.23102647 0.08109285 -0.15926358
0.23341918 0.23501623 0.16722515 -0.078584895 -0.11842251 0.047843203 -0.07900201 -0.1332699
00000000: 1020 d03e 7c44 c93d 04a4 6b3d 90c8 c9be
00000010: 883d 403e 1667 89bd cccb 51be eaac c43e
00000020: 6c32 cc3d e65e 7dbe c3c8 67be d2f4 aebc
00000030: 04b3 7f3e 940a eabd 70a5 82be 04d2 1cbe
00000040: 5e0f abbe 8651 233e 003c b13e 7890 d7be
00000050: 6cb7 d43d 3492 6c3e 0214 a63d fe15 23be
00000060: 7005 6f3e 18a8 703e 123d 2b3e 1ef1 a0bd
00000070: 8087 f2bd 3cf7 433d cecb a1bd e877 08be

fc2.weight f4 [64, 32]
0.11299668 0.15192162 -0.017500404 -0.039579697 0.0025795666 -0.010555016 0.042499058 0.049538672
-0.16055842 -0.065237164 0.14886867 0.06886414 -0.008792432 -0.106579475 -0.10815267 -0.1583505
-0.057622455 0.05969812 0.11271642 0.081617236 -0.15626049 -0.10630666 -0.02789826 0.17100464
0.025572024 -0.045779936 0.07313511 -0.067330875 -0.114419505 0.12902685 -0.080380574 -0.0354378
-0.175858 0.11831124 0.13393195 0.06442584 -0.123261616 -0.17446776 -0.1435741 0.13182221
0.08487141 0.14875816 0.092607886 0.044740744 -0.0017311093 -0.13443953 -0.15145715 -0.16534764
0.07236555 -0.08679159 -0.03557671 -0.1017357 -0.03221283 -0.124421395 -0.11550845 0.058638632
-0.052537292 0.10913168 -0.056711406 -0.12967739 -0.031190239 -0.08569194 -0.054083236 -0.16829042
0.098904744 -0.12307253 0.088851005 0.080218375 0.12629484 -0.13559672 0.12713702 -0.08357136
0.06559628 0.16601337 -0.024931096 -0.0013670905 -0.04069934 -0.1476056 0.08483553 -0.17548917
0.109742746 0.13226856 0.16717865 -0.041697957 -0.14524694 0.039744698 0.09765606 -0.17594717
-0.040125363 -0.10596955 -0.015461523 -0.08701177 -0.07226048 -0.056119226 -0.1679914 0.1450464
0.14819722 -0.02773074 -0.020131666 -0.07214598 -0.15964025 -0.17202905 0.06570044 -0.097058356
-0.11364546 -0.013792653 -0.058868505 -0.057190828 0.005680033 -0.037496485 -0.06086631 -0.08464162
-0.14386551 0.1482283 -0.07074365 0.04684215 -0.061335385 0.014365081 0.1648088 0.08144492
-0.15319441 0.070163056 0.16780381 0.04650695 0.11851524 0.17428173 -0.027087264 0.036690734
-0.122865796 -0.036429577 0.13091774 0.09062374 -0.11186214 -0.14175437 -0.12080257 -0.17445676
-0.13640758 -0.043716364 0.11930235 0.029589228 -0.13445711 -0.14181429 0.087941915 -0.1314936
-0.02176604 0.08480075 -0.08181428 -0.019275684 -0.015387405 -0.041822366 -0.089631364 -0.15758532
-0.14289847 -0.09465694 0.1707374 -0.085385635 -0.11871029 0.042849593 0.048721373 0.09685747
0.13437136 0.09844215 -0.17527406 0.015678052 0.10708283 -0.016338635 -0.10417061 0.16852807
-0.0661193 -0.10064663 -0.15937372 0.007896306 0.078335494 0.03913174 0.03495749 -0.13406502
-0.1650893 0.0031129206 0.16119082 0.101986036 -0.10292524 -0.022947107 -0.13031666 -0.08528111
0.032013915 0.096261516 0.14643617 -0.16229954 0.11819537 -0.124679 0.06619698 0.14959623
0.0024823663 0.1608328 -0.15062264 -0.06752138 0.10310532 -0.038513906 -0.03618618 -0.07367895
0.12185304 0.08670944 0.056648 -0.09934187 -0.1434982 0.01912025 0.052375093 -0.08161979
-0.049461603 0.11938907 0.014081959 0.007975863 -0.043504782 -0.16008694 -0.16621539 -0.08450182
-0.08985927 0.055075303 -0.051461488 -0.069158845 0.16854395 0.061575264 0.12602429 -0.085579745
-0.07220731 0.06497249 -0.117781706 -0.11555943 -0.008538248 -0.06465786 -0.13252185 0.104856476
0.14215703 0.028677247 -0.030779116 -0.16374327 -0.06438881 0.045004748 0.083355576 -0.022347648
-0.06988906 0.09850438 -0.1407847 0.11172585 -0.06858127 0.0027056304 -0.034933828 0.021432195
-0.053421535 0.12853889 -0.0045956904 0.13799159 0.16996713 -0.086123906 -0.12896 0.14182808
00000000: ce6a e73d 5791 1b3e 025d 8fbc 521e 22bd
00000010: f20d 293b f2ee 2cbc 7e13 2e3d 10e9 4a3d
00000020: 6d69 24be 109b 85bd 0771 183e a408 8d3d
00000030: 220e 10bc 5746 dabd 267f ddbd a226 22be
00000040: 8605 6cbd 0486 743d ded7 e63d f026 a73d
00000050: c002 20be 4eb7 d9bd e48a e4bc d71b 2f3e
00000060: 6c7c d13c be83 3bbd dcc7 953d c5e4 89bd
00000070: c654 eabd 9d1f 043e 929e a4bd 3a27 11bd
00000080: 1f14 34be 2a4d f23d 7525 093e b2f1 833d
00000090: 9670 fcbd ada7 32be 1705 13be 67fc 063e
000000a0: 10d1 ad3d 0f54 183e 34a9 bd3d 1242 373d
000000b0: 64e6 e2ba 84aa 09be 9517 1bbe e450 29be
000000c0: 6434 943d cabf b1bd e2b8 11bd cf5a d0bd
000000d0: 9af1 03bd a5d0 febd b28f ecbd 102f 703d
000000e0: 5831 57bd 6e80 df3d 384a 68bd 26ca 04be
000000f0: ac82 ffbc 417f afbd 6286 5dbd 5354 2cbe
00000100: 928e ca3d 730d fcbd 84f7 b53d 8849 a43d
00000110: 6f53 013e ded9 0abe 3530 023e 7627 abbd
00000120: 5857 863d 69ff 293e 4c3c ccbc f22f b3ba
00000130: 5ab4 26bd ec25 17be 40be ad3d 6fb3 33be
00000140: cec0 e03d 6971 073e e130 2b3e 7acb 2abd
00000150: 9dbb 14be 56cb 223d e6ff c73d 7f2b 34be
00000160: 7e5a 24bd 9006 d9bd 5452 7dbc 3a33 b2bd
00000170: 4dfd 93bd 46dd 65bd f005 2cbe 0b87 143e
00000180: 03c1 173e 942b e3bc 2aeb a4bc 46c1 93bd
00000190: bc78 23be 6228 30be f48d 863d 88c6 c6bd
000001a0: f3be e8bd 94fa 61bc 1a20 71bd ee40 6abd
000001b0: 921f ba3b ea95 19bd f44e 79bd 9658 adbd
000001c0: 7b51 13be 29c9 173e 0ce2 90bd 8edd 3f3d
000001d0: d03a 7bbd 845b 6b3c a3c3 283e 98cc a63d
000001e0: ffde 1cbe a6b1 8f3d c3d4 2b3e 127e 3e3d
000001f0: 1eb8 f23d e976 323e 1ce6 ddbc 0649 163d
00000200: 10a1 fbbd 2e37 15bd 4d0f 063e f098 b93d
00000210: fa17 e5bd 0f28 11be 5667 f7bd cba4 32be
00000220: 6eae 0bbe ee0f 33bd ca54 f43d 1c65 f23c
00000230: 20af 09be c437 11be e41a b43d 42a6 06be
00000240: b24e b2bc 04ac ad3d 3f8e a7bd 0ae8 9dbc
00000250: 741b 7cbc ee4d 2bbd a690 b7bd 0c5e 21be
00000260: fa53 12be 7fdb c1bd c9d5 2e3e aade aebd
00000270: 611e f3bd 0e83 2f3d 1090 473d 365d c63d
00000280: a598 093e 0a9c c93d 0b7b 33be 426f 803c
00000290: 3e4e db3d 9ad8 85bc 6757 d5bd 9f92 2c3e
000002a0: 8e69 87bd d21f cebd dd32 23be 825f 013c
000002b0: 5c6e a03d 9a48 203d 962f 0f3d 5748 09be
000002c0: 2b0d 29be 2402 4c3b 350f 253e 0ede d03d
000002d0: 78ca d2bd 92fb bbbc bb71 05be dda7 aebd
000002e0: 0621 033d c224 c53d 5df3 153e da31 26be
000002f0: 6a10 f23d b457 ffbd 4892 873d c12f 193e
00000300: 32af 223b 5bb1 243e d23c 1abe a648 8abd
00000310: e228 d33d c2c0 1dbd f637 14bd fde4 96bd
00000320: 168e f93d b894 b13d bc07 683d c073 cbbd
00000330: 31f1 12be 12a2 9c3c 4487 563d 4728 a7bd
00000340: 4098 4abd 4282 f43d 04b8 663c 32ad 023c
00000350: 1232 32bd d5ed 23be 5e34 2abe 4a0f adbd
00000360: 2308 b8bd a496 613d 48c9 52bd 27a3 8dbd
00000370: c996 2c3e 5836 7c3d 830c 013e 6f44 afbd
00000380: 6de1 93bd 4c10 853d 8937 f1bd 6caa ecbd
00000390: 02e4 0bbc 576b 84bd cfb3 07be febe d63d
000003a0: 9d91 113e 8cec ea3c 7c24 fcbc 51ac 27be
000003b0: 48de 83bd e656 383d 54b6 aa3d 6a12 b7bc
000003c0: ff21 8fbd aabc c93d dd29 10be 86d0 e43d
000003d0: 5674 8cbd f250 313b c616 0fbd 9292 af3c
000003e0: 8ad0 5abd b39f 033e 7297 96bb ab4d 0d3e
000003f0: dd0b 2e3e bb61 b0bd 170e 04be 613b 113e

fc2.bias f4 [64]
0.0068974067 -0.0493474 0.05189565 -0.11966243 0.07236189 -0.15269054 -0.09329734 -0.09293172
0.08554062 -0.0046282196 -0.16988724 -0.1009605 -0.08180807 -0.16401844 0.022635672 0.062992126
-0.032434516 -0.070347264 -0.0010720624 -0.14041029 -0.10763939 -0.004031607 0.15704419 -0.054360203
0.087620944 -0.06957043 -0.047057465 -0.16828139 0.14645664 0.17213212 -0.003712871 0.11231835
0.1445928 0.08780798 0.09104329 -0.16828954 -0.16611166 -0.13568303 0.055293098 -0.1529075
-0.13494134 -0.08568406 -0.16293228 0.00023819465 0.025503196 -0.10344959 0.11574705 -0.06711226
-0.049767315 0.13468157 0.15177171 -0.020279873 -0.1269039 -0.08868329 0.022510577 0.103624955
0.08800724 -0.07806138 -0.16711858 -0.15470538 -0.056242503 0.002217513 -0.07940367 -0.13977805
00000000: a403 e23b 8020 4abd 8890 543d 9311 f5bd
00000010: 7832 943d e95a 1cbe ad12 bfbd fc52 bebd
00000020: ec2f af3d 52a8 97bb ecf6 2dbe 61c4 cebd
00000030: fd8a a7bd 73f4 27be 726e b93c 0402 813d
00000040: 0eda 04bd 3a12 90bd 7284 8cba b7c7 0fbe
00000050: 0a72 dcbd 921b 84bb 31d0 203e cea8 5ebd
00000060: 9c72 b33d f17a 8ebd 54bf 40bd f551 2cbe
00000070: bbf8 153e 6743 303e a453 73bb 2a07 e63d
00000080: 2310 143e acd4 b33d e874 ba3d 1854 2cbe
00000090: 2d19 2abe 7ef0 0abe 047b 623d c993 1cbe
000000a0: 102e 0abe 207b afbd b8d7 26be e4c3 7939
000000b0: 14ec d03c 61dd d3bd ca0c ed3d 2772 89bd
000000c0: d0d8 4bbd f7e9 093e 0b6a 1b3e fa21 a6bc
000000d0: 19f3 01be 969f b5bd 1a68 b83c 5239 d43d
000000e0: 243d b43d a5de 9fbd 2221 2bbe 166b 1ebe
000000f0: 8a5e 66bd b253 113b 649e a2bd fa21 0fbe
