sixth generation(prototypemixing)/pipeline_models_dg_zsl/stage2_maturity_classifier_strawberry_ft_handcrafted_best.pth (torch, 11232 bytes, 4 tensors)

fc1.weight f4 [32, 64]
000000 98 7d e0 bd 4e 65 8b bd 1e b8 20 bc 7e 85 50 bc
       -0.10961455 -0.06806432 -0.009809522 -0.0127271395
000010 76 a4 35 3d f8 e5 b8 3d 56 da b8 bd f0 55 86 3d
       0.044346295 0.09028238 -0.09026019 0.0655936
000020 96 b2 f5 3c ca 9b d4 3d fa a2 88 3d 56 93 de bc
       0.029992383 0.10381277 0.0667171 -0.027169865
000030 e6 33 91 bc e6 5b aa bd 5e f1 e1 3c fa 54 c8 3d
       -0.017724942 -0.083183095 0.027580913 0.09781833
000040 a2 2e 30 3d e0 fc ce 3d be 7e 4c 3d 96 08 c5 3c
       0.043013223 0.10106826 0.04992556 0.024051946
000050 66 b0 dd bc 66 2a dd bd 7e f5 bf bc 68 4f d9 3d
       -0.027061652 -0.107991025 -0.02343249 0.10610849
000060 44 97 de 3d 7e 38 2d bd fe 1e d2 3d 1a 07 d3 3d
       0.108686954 -0.042290203 0.102598175 0.10304089
000070 66 70 da bd de 85 fc bd a2 01 7f bd 6e 3c 4f bc
       -0.106659696 -0.12330221 -0.062257417 -0.012648685
000080 1a 55 46 3d c2 5f 56 3d b2 2d a2 3d 4e be 7a bd
       0.048421003 0.052337416 0.07918872 -0.061216645
000090 2a 3a ab 3d 66 75 e9 3c 70 bd b5 bd f0 31 bd bd
       0.08360703 0.028498363 -0.08874023 -0.092380404
0000a0 e6 04 36 3d b0 5b ee 3d 22 f7 a9 bd 9e ab 72 3c
       0.044438265 0.11638582 -0.0829909 0.014811425
0000b0 e6 59 f2 bd 4a bf a6 3d 8e f3 16 3d 3e 68 02 bd
       -0.11833553 0.08141954 0.036853366 -0.031837694
0000c0 34 41 87 3d 5e 57 54 3d 76 8d ac 3d ee d0 4c 3c
       0.066042334 0.051841132 0.08425419 0.012500985
0000d0 fe ba a1 3a 02 b0 75 3d d2 ab 2c 3d 5c fa d8 bd
       0.0012339053 0.059982307 0.042156048 -0.10594627
0000e0 06 88 44 bd 1e 47 9e 3d c4 65 82 bd ca 06 c6 3d
       -0.047981285 0.07728408 -0.063670665 0.09669264
0000f0 9e 7f c4 bc bc 34 f5 3d 1c 7c 96 bd b6 0d b5 3d
       -0.023986634 0.11972949 -0.07347891 0.08840506
000100 cd d1 60 bd 79 63 b4 3d df ff 8d 3d b1 e1 4c 3d
       -0.05488758 0.088080354 0.06933569 0.050019924
000110 29 88 14 3d e4 94 99 3d 07 61 4d bd 2b 60 26 bd
       0.036262665 0.07499102 -0.05014136 -0.040619057
000120 37 64 0c 3d 54 ee b4 bd 14 16 e9 3b 1d 64 54 3d
       0.03427526 -0.0883452 0.0071132276 0.051853288
000130 99 39 e9 bd 88 05 e7 bb e0 bd dd 3b 2f 71 c4 bd
       -0.11387939 -0.00705022 0.0067670196 -0.095919006
000140 26 54 c8 3d 35 05 af 3b ea 3f f0 bd 03 e3 32 bd
       0.09781675 0.005341197 -0.11730941 -0.043673526
000150 a3 fc b6 3c e9 18 ba 3d 85 0f 24 bd 25 48 df 3d
       0.022337263 0.090867825 -0.040053863 0.10902432
000160 0e 47 57 bd fd 01 cf bd 9a 2d 0d bd d7 b2 a7 bd
       -0.052557997 -0.10107801 -0.034467317 -0.08188408
000170 9b 74 2b 3d a7 b2 a9 3d e3 6f d7 bd bf c2 ba bd
       0.04185925 0.08286028 -0.105193876 -0.09119176
000180 93 ed 8e 3d f6 13 d9 bc d0 13 ea 3d 81 c3 e7 3d
       0.069789074 -0.026498776 0.1142956 0.11316586
000190 9f 87 aa bd cf 24 96 3d 82 3c f6 bd b9 d1 4c 3d
       -0.08326649 0.073312394 -0.1202326 0.050004695
0001a0 27 b4 92 bd a2 01 cf b9 97 f4 f7 3d 6f 49 88 3c
       -0.071632676 -0.00039483333 0.12107199 0.016636578
0001b0 cf f2 88 bd 61 04 6a 3d cb 0e a2 bc 4f 1b e5 3d
       -0.06686937 0.057133082 -0.019782444 0.11186849
0001c0 8c cd be bd 03 af b0 bc a9 70 d6 bd 40 90 90 bd
       -0.09316549 -0.021567827 -0.10470707 -0.070587635
0001d0 d3 68 13 bd 6f 8b a9 bd e9 0c af bd 20 75 fb bc
       -0.03598864 -0.08278548 -0.08547384 -0.030695498
0001e0 dc 93 91 bd 29 c4 9b bd d5 f8 d2 3b e9 e7 c0 bd
       -0.0710828 -0.07605774 0.0064383545 -0.09419233
0001f0 f9 1b 94 3d 5d 57 a9 3d 7f e6 ea 3d fd 5b 1d 3d
       0.07231898 0.08268616 0.11469745 0.038417805
000200 6e 60 41 bc 1e e9 b2 bc ae 64 73 bd a6 1e ae 3d
       -0.011802776 -0.021839675 -0.059422188 0.085019395
000210 4c c3 8d 3d 2a db b8 3d 46 ce c6 bc f4 dc b0 bd
       0.069220155 0.09026177 -0.02426828 -0.086358935
000220 52 c5 2a 3d 60 67 e0 3d d6 6c a2 bc 46 bf ce 3d
       0.041692086 0.10957217 -0.019827288 0.10095076
000230 d6 c3 b4 3d fa 02 34 3d 36 78 0a bd 2a b3 2b bd
       0.08826415 0.04394815 -0.03380605 -0.04191891
000240 c6 49 b3 bc 7e b1 19 bc 7e c2 d2 bc 3a 5e f9 bd
       -0.021885764 -0.009380696 -0.025727507 -0.121761754
000250 1a 95 af bd d6 5d 22 bd ac b6 c4 3d be 8c 53 3d
       -0.08573361 -0.03964027 0.096051544 0.051647894
000260 d6 26 e9 bd 1a 47 b7 bd 7c 34 96 bd 7a c8 f2 3d
       -0.113843605 -0.089491084 -0.07334229 0.11854644
000270 36 83 fd 3c a2 0e cd 3d 32 b9 ce bd 34 25 ef 3d
       0.030946355 0.100125566 -0.10093917 0.11677018
000280 f2 4f d0 3d fe 10 0e 3c ea 6f 6f bd 46 b2 48 3d
       0.10171498 0.008671043 -0.05845634 0.04899814
000290 90 8e 89 bd 6a 40 54 bd 6a 10 40 3d 7c a0 c4 bd
       -0.06716645 -0.051819243 0.046890654 -0.096009225
0002a0 26 31 f9 3c 3e 71 da bb fe 91 98 3a 3e ae bb 3b
       0.030418944 -0.0066663316 0.0011640189 0.0057275584
0002b0 96 e7 f6 3c 78 03 99 bd 52 bb 52 3d 4c 26 f0 bd
       0.030139726 -0.07471365 0.051448174 -0.117260545
0002c0 be 62 57 3d aa 05 d0 bd 44 5d f6 3d c6 41 f6 3c
       0.052584402 -0.1015733 0.12029508 0.03006066
0002d0 2e d4 0d 3d ca 04 08 3d c6 f1 c6 3c 82 cb 43 bd
       0.03462618 0.033207692 0.024285208 -0.047801502
0002e0 5e 18 f9 bd ce 18 99 3d c4 09 9b 3d 4e 58 bb bc
       -0.12162851 0.07475434 0.07570222 -0.022869255
0002f0 5e 57 cd 3b 2e a1 03 bc 6e 3d e7 bc 70 a9 ae 3d
       0.0062665185 -0.008034034 -0.028227534 0.085284114
000300 1a 1e 97 bd 2a 25 f1 bd d9 88 a1 bc 21 31 97 bd
       -0.07378788 -0.117746666 -0.019718574 -0.073824175
000310 81 02 ab bd 3a 40 0f bd a1 9b bc bb 0e 37 a6 3d
       -0.08350087 -0.03497336 -0.005755857 0.081159696
000320 3f ff 91 3d 85 51 d2 3d 6c a6 bd 3d ba 1c 16 3d
       0.071287625 0.10269455 0.09260258 0.03664849
000330 08 cc e6 ba 3a c7 a1 bb 4d 3c c4 bd f5 bb 52 3c
       -0.0017608413 -0.0049370797 -0.09581814 0.012862195
000340 fa 30 f7 bc a0 e4 10 bd c8 22 d9 3d 2f 0e 67 3d
       -0.030174721 -0.035374284 0.10602337 0.05641001
000350 58 af 9e 3d c4 4b a7 3d d9 48 92 bd 3f e2 0f 3d
       0.07748288 0.08168748 -0.07142801 0.035127874
000360 c7 69 71 bc 59 ce 2e 3d 83 91 94 3d b4 66 04 bd
       -0.014734692 0.042677257 0.07254317 -0.032324508
000370 28 0a c2 3d df 39 ca 3b 8e 14 bb bc 09 a5 a9 3d
       0.094745934 0.0061714496 -0.02283695 0.08283431
000380 c7 45 c8 3d d4 97 0c bd e6 2b 95 3d b8 e6 eb bc
       0.09778934 -0.034324482 0.072837636 -0.028796539
000390 d0 36 9c bb fc e5 b7 bd cc 71 56 bd 4a 20 7e 3c
       -0.0047672763 -0.08979413 -0.05235462 0.015510628
0003a0 1a ec f3 bc 0f c2 3d bc 80 62 ee 3c 60 4b 4f bd
       -0.029775668 -0.011581912 0.029099703 -0.050608993
0003b0 13 37 89 3d 8c 0f f9 3d bc ea cd 3d 3e 68 df 3d
       0.06699958 0.121611685 0.10054538 0.109085545
0003c0 e1 2c 0a bd 7a d8 49 3b c3 dd 27 bd 17 90 75 bd
       -0.033734206 0.0030799196 -0.040982973 -0.059951868
0003d0 b2 19 ed bc 7f df 99 3d a4 55 f1 bd 7e bc 85 bd
       -0.028942917 0.075133316 -0.11783913 -0.06530093
0003e0 cb 68 85 3d 2a 92 83 3d 51 cd 06 bd 67 31 f0 bc
       0.06514128 0.06424363 -0.03291065 -0.029320432
0003f0 02 bd 86 bc 57 4d bb 3d 64 0c b7 3d 7b eb 72 bd
       -0.016447548 0.09145611 0.0893791 -0.059306603

fc1.bias f4 [32]
000000 be 66 76 3c 25 78 07 bb c6 ea e7 bd 6c 71 e6 3d
       0.015039144 -0.0020670977 -0.11324076 0.11252102
000010 06 8e f6 3d 58 cf 90 39 a6 ff b8 3c 0a c9 b8 3c
       0.120388076 0.00027620303 0.02258284 0.0225568
000020 bb f8 fb 3d b2 28 b2 39 ee 73 a8 bc 14 62 8b bd
       0.12303301 0.00033981126 -0.020563092 -0.06805816
000030 bf d7 02 3d 65 8c 6e 3d f2 13 d8 bd a7 71 2b 3d
       0.031944033 0.05823936 -0.10550679 0.041856434
000040 d5 5e fe 3c 66 1b 63 3d 3a 07 70 3d 6a 0c 06 bd
       0.031051079 0.05544605 0.05860064 -0.032726683
000050 85 b9 87 3c a8 5e b3 bd 6b 6f 98 3d ae 63 d7 bd
       0.016567955 -0.087582886 0.07443126 -0.10517059
000060 0a 97 e0 bd 4f d6 bc bd ac d5 8e bd aa 2c ba 3b
       -0.109663084 -0.092205636 -0.069743484 0.005681594
000070 38 c2 a9 3d 8f cc 8e bc 7a d4 b7 3d 04 24 a3 bc
       0.082889974 -0.017431526 0.089760736 -0.019914635

fc_out.weight f4 [2, 32]
000000 69 7d 19 3e 38 34 fa 3d 84 a5 e4 3d a3 bc 95 3d
       0.14989246 0.12216991 0.11164382 0.0731137
000010 7b fc f2 bd 3e 67 32 3e 1a 48 2c be 01 92 fc bd
       -0.11864563 0.17422196 -0.1682438 -0.123325355
000020 f5 63 d9 bd 25 56 3d bd 30 3e 9d 3d 4a f0 15 3d
       -0.106147684 -0.046224732 0.07677877 0.03660611
000030 74 65 1b be 69 5f 2f 3e 41 e5 29 3e 7b b2 b0 3d
       -0.1517542 0.1712624 0.1659136 0.086277924
000040 63 26 31 be 74 40 ca 3d 5e 98 4e 3d fe 07 b3 bc
       -0.172998 0.09875575 0.050438277 -0.021854397
000050 cc 78 17 be d9 5c 19 3e af 21 55 bd a2 6b 12 be
       -0.14792174 0.14976825 -0.052034076 -0.14298871
000060 8b b7 0b 3e 0a 43 8e 3d 8e 28 55 3d 2e f7 ea 3d
       0.13644235 0.069463804 0.05204063 0.11472927
000070 24 c5 7f 3d e1 a8 19 bd fe d1 fb bc af 17 16 3e
       0.062443867 -0.03751457 -0.03073978 0.14657472
000080 5e de bd bb 64 5e 17 be 08 2e fa bd cd 94 09 be
       -0.0057943305 -0.14782101 -0.12215811 -0.13435669
000090 a9 f2 86 3c 70 5a 03 3e 5c 93 d8 3d 13 14 3d 3d
       0.016473131 0.12827468 0.105749816 0.046161722
0000a0 38 8a 6e 3d a0 5a ac bd 5b 6e 29 3e 48 14 8a 3d
       0.058237284 -0.08415723 0.16546004 0.067421496
0000b0 b2 fa e4 bd d9 61 f2 bd ef 2b 22 be 38 4c 4a bd
       -0.11180629 -0.11835069 -0.15837072 -0.049389094
0000c0 9b 3a 04 3e 7e 0b 2a 3c be 95 ab bd 42 8e 49 3d
       0.12912981 0.0103787165 -0.083781704 0.049207933
0000d0 32 a6 fb bd 02 d6 57 3d fd 86 f5 3d f0 08 b0 3d
       -0.122875586 0.052694328 0.119886376 0.08595455
0000e0 e2 73 5c bd 56 4e 78 bd 9c e9 96 3d a2 cc d7 3d
       -0.053821452 -0.060621582 0.07368776 0.105370775
0000f0 2c f6 34 bd a2 59 b2 ba 06 54 a3 bc 27 ae ad bc
       -0.04418008 -0.0013607035 -0.019937526 -0.021201206

fc_out.bias f4 [2]
000000 eb 0f 20 be fd ee 15 be
       -0.15631072 -0.14641948
