sixth generation(prototypemixing)/pipeline_models_dg_zsl/stage2_maturity_classifier_grape_ft_handcrafted_best.pth (torch, 11128 bytes, 4 tensors)

fc1.weight f4 [32, 64]
000000 7e 1e 57 bb ae 05 7e 3d 42 a1 f5 3d 42 cf 36 bd
       -0.0032824571 0.062017135 0.11993648 -0.04463125
000010 02 2c fc bd 8e 7a f1 3d 70 f1 8c bd 96 03 ea 3c
       -0.12313081 0.117909536 -0.06881988 0.028566163
000020 56 37 9f 3d 7e 05 9f bc 9e 12 c8 3d de e6 a5 3d
       0.07774226 -0.019411799 0.09769176 0.08100675
000030 fe 28 ce bc 7a 3d 06 3d 6e 34 1b 3c 22 71 fa 3d
       -0.025166031 0.032773472 0.009472949 0.122286096
000040 7a 3c b1 3d b4 81 aa bd 1e 54 45 3c 72 13 8a 3d
       0.08654113 -0.0832552 0.012043981 0.0674199
000050 86 b6 c3 3d 2e d0 2e 3d b6 8e 59 3d 96 10 bd bc
       0.09556298 0.042679004 0.053114615 -0.023079198
000060 fe ae 31 3b c2 2d b1 bd ea bf d2 3d 9c 95 c9 3d
       0.002711236 -0.08651306 0.10290511 0.09842989
000070 1c f7 8c bd 40 2c db bd 28 a0 c7 3d 46 e5 e2 bd
       -0.0688307 -0.107017994 0.09747344 -0.11078887
000080 a8 2d a4 3d aa 5a f9 bd 7a e1 82 bd 2a c7 58 bd
       0.08016521 -0.12175496 -0.063906625 -0.052924313
000090 10 97 f0 3d b6 46 ad bc 7c d2 dc 3d f2 c1 14 3d
       0.11747563 -0.021151882 0.10782334 0.036317773
0000a0 26 02 f8 3d 9c 8f a9 3d 94 89 bc 3d 80 31 df 3d
       0.12109785 0.082793444 0.092059284 0.10898113
0000b0 5e 45 17 bd a2 c5 0c bd 86 f8 24 3d 6c 85 e1 3d
       -0.036931388 -0.034368165 0.040276073 0.11011776
0000c0 8a 6b 3c bd 8e 5f c9 bd 44 42 c8 bd 46 8b 6c bd
       -0.046000995 -0.09832679 -0.09778264 -0.05775001
0000d0 0e 65 a3 3c de fe 6c bc 3a 8a 08 bd e2 5b 6f bd
       0.019945648 -0.014465062 -0.033334948 -0.058437236
0000e0 62 2c 05 3d 1e df d2 bd cc db fb 3d ce 95 9e bc
       0.03251303 -0.102964625 0.12297782 -0.019358542
0000f0 e6 10 bf 3c 16 aa 28 3d f6 36 47 bd 7e 08 ca 3d
       0.023323487 0.04117783 -0.0486364 0.09864901
000100 65 61 fb ba f5 3f 38 3c 83 bb f5 bd 3d df 86 3c
       -0.0019178806 0.011245717 -0.11998656 0.01646387
000110 d5 bd 33 3d ee 91 86 3c c5 b8 3a bc 9b 55 c3 3d
       0.04388221 0.016427007 -0.011396592 0.09537812
000120 3f 5d c8 3d 47 37 ae 3d ed 9a a9 bc 31 03 b9 3c
       0.0978341 0.08506637 -0.020703757 0.02258453
000130 9f b6 b0 bd 33 9f bd bd 06 d9 aa bc ad ab 54 3c
       -0.08628582 -0.092588805 -0.020855438 0.012980384
000140 f0 13 93 bd af a6 d3 bd 71 db 64 3d 31 41 3f 3d
       -0.07181537 -0.10334527 0.055873338 0.04669303
000150 03 1c a7 bd 3f 52 a8 3d 8c 61 c1 bd 27 af c3 3d
       -0.0815964 0.08218812 -0.09442434 0.09554892
000160 d0 f7 85 3d 63 fa 28 bd c8 c1 f5 3d f4 b4 8d bd
       0.06541407 -0.041254412 0.119998515 -0.0691928
000170 1e f0 6d bd f9 02 ca 3d 73 fe 07 bd 15 da 52 bd
       -0.05809032 0.09863848 -0.033201646 -0.05147751
000180 f8 52 96 3c ea 26 b5 bc 4f 3f 9f 3d 43 09 d3 3d
       0.01835011 -0.022113282 0.07775747 0.10304501
000190 cf ce 67 3d 97 94 e5 3c d6 1f f9 3c 11 21 8b 3b
       0.056593712 0.028024955 0.030410688 0.004245885
0001a0 a0 60 80 3c cc 2b b5 3a 70 98 b0 3d ae 30 91 3d
       0.015671074 0.0013822257 0.08622825 0.07089363
0001b0 19 28 5e bc d9 67 45 3d 3a 0b c2 3b e1 fd 38 3d
       -0.013559365 0.04819474 0.0059217485 0.045163993
0001c0 58 25 d0 3d 8a 25 ac bd ce 65 89 3c d9 27 dd bc
       0.10163373 -0.084055975 0.016772177 -0.02699654
0001d0 38 3d f8 bd 10 bb f6 bd 3e ec 7b bc ba 31 b5 3d
       -0.121210515 -0.12047398 -0.015376149 0.08847375
0001e0 46 d5 aa bd a1 d6 2a 3d 7b 93 95 3d 17 90 b8 bd
       -0.0834146 0.041708592 0.0730352 -0.09011858
0001f0 40 d3 57 3d 2e 24 b9 3c f5 08 e7 bd 95 0e b9 ba
       0.052691698 0.02260026 -0.11281005 -0.0014118726
000200 bc 55 f0 bd 4a d2 df 3d 06 f7 6f 3d 1a 2e 44 3d
       -0.117351025 0.10928781 0.05858519 0.04789553
000210 aa 89 c4 3d 98 c7 c3 3d ec 24 fe 3d f2 3d 53 3d
       0.0959657 0.09559554 0.12409386 0.051572748
000220 92 d3 b8 bd 32 c8 ed 3d d2 39 0e 3d 8e d4 49 bd
       -0.09024729 0.1161045 0.03472311 -0.049274974
000230 66 8c 3e bd 66 8c ef 3d 2e 79 e3 3c 7e 12 ba 3d
       -0.046520613 0.11696701 0.027767744 0.09085558
000240 fe b8 1f 3c ce 79 ec 3d c4 52 bb bd 9e 0d f4 3c
       0.009748695 0.1154667 -0.09146646 0.02979165
000250 5e 58 f4 3c fe f5 bc ba 22 bb e3 3d 9e a1 cd 3c
       0.029827293 -0.0014416573 0.11119677 0.02510148
000260 3e e2 dd 3b 6e ba ae 3d 7e ae 21 bc ae 52 04 bc
       0.006771355 0.085316524 -0.009868262 -0.008076353
000270 c2 0f d3 bd fe af 56 ba 26 fd 6e bd 2a 38 94 3d
       -0.1030574 -0.0008189677 -0.05834689 0.07237275
000280 3c b4 de 3d 84 d4 ee bd 6c 47 94 bd 10 78 f6 3d
       0.10874221 -0.11661628 -0.07240185 0.12034619
000290 72 88 5a bd 8c ab e3 3d 68 0c fc 3d 32 67 00 bd
       -0.05335278 0.11116704 0.12307054 -0.031348415
0002a0 d8 3a cf bd 3c 01 80 3d c2 bd 68 3d 18 78 de 3d
       -0.101186454 0.062502354 0.056821592 0.1086275
0002b0 86 e5 93 3c 34 33 8b 3d 24 81 db bd 96 1f 8d 3c
       0.018053781 0.067968756 -0.10717991 0.017226975
0002c0 9e 01 f1 3c 2c 73 a0 3d 62 09 89 bd ae be 74 bc
       0.029419716 0.07834467 -0.06691243 -0.01493804
0002d0 c4 97 98 bd 82 4a ac bd 0a 24 55 3d 5e 26 9c 3c
       -0.07450822 -0.08412649 0.052036323 0.019061264
0002e0 e6 70 4b 3d 7e 8a 3a bb 3e 3e 49 bb de 45 9d bb
       0.049668215 -0.0028463895 -0.0030707265 -0.0047995886
0002f0 14 48 8a 3d 12 23 b1 bd ee bc dc 3c 98 5f 8c 3d
       0.06752029 -0.08649267 0.026945557 0.068541706
000300 62 e5 95 3d 03 89 78 bd 10 a9 c7 3d 61 08 ac bd
       0.07319142 -0.06067754 0.09749043 -0.08400036
000310 d5 11 84 3d b4 d3 d2 3d 6e 75 59 3b e1 04 1a 3d
       0.06448714 0.102942854 0.0033181566 0.03760231
000320 7b 18 f1 bd 94 b0 47 bd 65 ff 4b bd 66 c3 ef bd
       -0.117722474 -0.048752382 -0.04980411 -0.11707191
000330 10 85 de bc cc 4c b1 3d 00 e3 4e bc 55 64 fe 3d
       -0.027163059 0.08657226 -0.012627363 0.124214806
000340 fd dc e7 bd 34 5b 49 3d c4 c8 de 3d 26 67 f7 3d
       -0.11321447 0.049159244 0.10878137 0.12080221
000350 07 73 49 bd 2e ba e5 bd 58 58 39 bd 3c 5b bc 3d
       -0.049181964 -0.112171516 -0.045250267 0.09197089
000360 63 c9 3e 3c 29 44 f3 3d 11 58 bc bd 9b b8 a1 bd
       0.011644694 0.11878235 -0.09196485 -0.07896539
000370 76 e2 83 3d 27 64 32 3d 5c e6 a4 bd 5b 94 ef 3d
       0.06439678 0.043552544 -0.0805175 0.116982184
000380 48 9f 42 bd d1 57 d3 bd 1f 20 11 3d a3 d6 90 bd
       -0.047515184 -0.10319484 0.035431024 -0.07072189
000390 a0 7c 76 bd fe 6d 90 bd 5c 18 0e 3d 1d 08 6d 3d
       -0.060177445 -0.07052229 0.0346912 0.057869066
0003a0 1b c2 aa 3d 88 71 8f bd 76 fe f4 bc ae 89 ed 3d
       0.08337804 -0.07004076 -0.029906493 0.11598526
0003b0 39 16 82 bd 0f e8 3b bd de 39 bf bc eb 19 e4 bd
       -0.06351895 -0.045875605 -0.023343023 -0.11137756
0003c0 3c cc bb bd 6c a6 e2 3d b5 b2 c2 3c f5 ff c4 3c
       -0.09169814 0.11066899 0.023766855 0.024047831
0003d0 90 22 48 3d 6f 44 9a 3d 55 8a aa 3d 5b c6 b8 3d
       0.048861086 0.07532584 0.08327166 0.09022208
0003e0 7f 7c 51 3d 4b 92 bf 3d 88 d8 a5 3d c7 e5 b0 bc
       0.05114412 0.09354075 0.08097941 -0.021593941
0003f0 d6 d2 43 3c 99 ad 84 bd ac 0c c2 bd 8d 64 f1 3d
       0.011952123 -0.064784236 -0.09475073 0.11786757

fc1.bias f4 [32]
000000 b6 41 86 bd ae 15 00 bd fe ef cf 39 e6 b2 7f 3d
       -0.06555502 -0.031270675 0.00039660925 0.06242647
000010 e2 76 52 bd 36 a9 96 3c 28 de 8a bd 40 4c 6f bd
       -0.051382907 0.018391233 -0.06780654 -0.058422327
000020 53 64 a5 3d 4c 24 0d bd ea 50 e0 bd c0 08 a2 3b
       0.08075776 -0.034458444 -0.10952933 0.0049448907
000030 06 fa 91 bc 6c 38 15 3d 46 97 82 bd e4 0e 95 3b
       -0.017819416 0.03643076 -0.06376509 0.0045488942
000040 22 97 7c bd 88 b7 9a bd dd 02 f2 3c a8 29 22 3d
       -0.06166757 -0.07554537 0.029542381 0.039590508
000050 d6 70 bd 3c b6 f7 eb 3d 2e da 3d 3c be 27 2e 3c
       0.023125093 0.115218565 0.011587663 0.010629592
000060 9e df 85 bc 40 80 f7 bd 4f 2a 44 3d 5b 79 c9 3d
       -0.01634198 -0.120850086 0.04789191 0.098376
000070 a2 3d 3b 3c 54 a7 c7 bd 04 dc e5 3d 2e 32 e1 3c
       0.011428269 -0.09748712 0.11223605 0.027489748

fc_out.weight f4 [2, 32]
000000 b7 ee 02 3e 7f 32 9b 3d 86 6c e4 3c 27 23 58 bd
       0.12786375 0.07577991 0.02788378 -0.0527679
000010 92 a7 14 3d fe fa 68 3d 2e 96 2f bc 96 46 e9 bd
       0.03629262 0.05687999 -0.010716958 -0.11390416
000020 b8 ee bf bd 11 ad 25 be c8 98 8d bd 35 69 ec bc
       -0.09371704 -0.16179301 -0.06913906 -0.02885876
000030 f9 0c 14 3e ea 7d c3 bd 3b 1e 32 be d0 b9 c4 3d
       0.14458074 -0.095455006 -0.17394345 0.096057534
000040 65 13 1c 3e cb 30 0d be 6a 19 33 bb 70 4f 62 3d
       0.15241773 -0.13788144 -0.002732838 0.05525154
000050 9c 66 e9 3d 5c f7 00 bd d8 e4 a4 3d 8b 15 0b 3e
       0.11396524 -0.0314859 0.08051461 0.13582437
000060 c0 dc d3 3d e8 64 b0 3d 5a 21 da 3d 75 2c 23 be
       0.10344839 0.08612996 0.106508926 -0.15934928
000070 c5 01 16 3d cd 98 0b 3e be 6c 0f be 42 17 1e be
       0.03662278 0.13632508 -0.14006326 -0.1543856
000080 42 7c 15 be 4b 67 62 3d 73 ff 27 3e 97 7f 7b bc
       -0.14598182 0.05527429 0.1640604 -0.015350244
000090 56 eb 8f bd 7e 67 2b 3c 9f 41 15 be 4e 66 01 3d
       -0.07027309 0.010461686 -0.14575814 0.031591706
0000a0 04 5b ec bd 2b 27 f4 bd 1c 0c 04 be 63 84 4b bd
       -0.11540797 -0.11921533 -0.12895244 -0.0496868
0000b0 48 f1 eb 3d 21 bb 16 3d 6c f4 fb 3d 15 c9 2d be
       0.1152063 0.036799554 0.12302479 -0.16971238
0000c0 9a 6b 13 be 94 d3 dd 3d f7 94 0f 3e 81 b3 1a 3e
       -0.14396515 0.10831371 0.1402167 0.15107538
0000d0 f5 1d 28 be 48 a8 a1 3d 7b 7f 32 be 42 24 56 bd
       -0.16417678 0.07893425 -0.17431442 -0.052280672
0000e0 be b0 6a 3b ac 4c a9 3d 1d 1c 59 bd 4a 8f 1b be
       0.0035810913 0.08266577 -0.053005327 -0.15191379
0000f0 9b ea 2e be 78 2f 91 bd e7 f3 09 3e a2 e9 9b 3d
       -0.17081682 -0.07089132 0.13471948 0.07612921

fc_out.bias f4 [2]
000000 92 17 b1 3d ac 68 11 be
       0.08647074 -0.14200085
