sixth generation(prototypemixing)/pipeline_models_dg_zsl/stage2_maturity_classifier_tomato_ft_handcrafted_best.pth (torch, 11136 bytes, 4 tensors)

fc1.weight f4 [32, 64]
00000000: a650 fe3d 6ace 4bbd 1674 413d 020d e93d
00000010: 6ef8 eabb 70f3 e0bd 6eae f7bd e4d1 fb3d
00000020: dcae efbd 0eee 3dbd 1a9b ae3d e81d c7bd
00000030: 243d ef3d fee3 463c a224 1f3d 26ae a03c
00000040: be31 613c 5aac 8f3d ccd0 ddbd f65a dd3c
00000050: 52b8 67bd 1c48 f23d 8ef4 d33d 7e1f 49bd
00000060: 1c5b 8e3d 265f aebc 1815 873d 7ed0 10bd
00000070: cece 95bd 3e03 583d 5682 7d3d fa81 e63d
00000080: 9e42 223d 0a79 64bd eece 023d 6e89 f63b
00000090: d0b4 de3d 060e 523d 1859 da3d ce1e 183c
000000a0: 7411 c2bd bce9 a3bd 7026 e73d 2046 e53d
000000b0: ba3a 1a3d 2ab1 b6bd 3a10 bb3d 8a63 543d
000000c0: 8cfe c9bd 52d9 143d babd f63d 6015 a9bd
000000d0: fea3 1b3c 0247 123d ca47 38bd 2e81 a83d
000000e0: 34a8 e33d 8833 f93d 4e21 e5bd 0e06 e43b
000000f0: 90f6 d03d 8212 da3d 3ee3 03bd d696 a93d
00000100: bf98 cc3d d9b6 6dbc 3519 bd3d 20a8 853d
00000110: 4668 cebc bdd7 3abd d84a 95bd c4c9 dbbd
00000120: cb7c 8bbd 53b4 203d d5a7 1b3d b0d8 2dbd
00000130: 29c5 8abc e4a9 a33d 3b32 433c de1a a4bd
00000140: e960 cb3d bef2 8c3d 8a09 ac3c b7f8 583d
00000150: 48ea e5bd 56a9 a33d c2a0 173d 34a8 90bc
00000160: 2c36 09bd d03a c13d e389 a63c ba86 9cbd
00000170: a1a2 803d 5733 eb3c c377 18bd f049 c23d
00000180: af34 063e 0cc9 8d3a a925 38bd 06e9 96bd
00000190: a621 93bd 04a8 6b3d e015 ae3d f2a9 a8bd
000001a0: 1446 803d 5dc4 3d3c ec88 33bc bddf 3dbd
000001b0: b94a debd ef18 e9bd 603e c93d dacb ddbc
000001c0: 2214 963a a8e4 a7bd 13e6 84bc e4b0 2cbd
000001d0: b94b 983b f8f0 00be b9f5 b43b 4a13 d5bd
000001e0: c270 a8bd fae4 17bc 7e27 a3bc 5cf6 2abd
000001f0: a364 a23d 9a07 803c 9225 9e3c e972 363d
00000200: ae46 e73b 58c0 e2bd 2a68 3ebd f2bd a03d
00000210: 90d8 923d 9e1d 313d aef6 e13d 4819 85bd
00000220: 5e92 18bd ce90 98bc 86a9 fbbc f6ce dc3d
00000230: 2ecd ffbd 3e05 c23c ae46 fb3d fa4d 8ebd
00000240: d675 cb3d 4690 dcbd 2630 ad3c d8bb 91bd
00000250: 96fd 213d 8e01 e03c 5621 e13c 764a e8bc
00000260: 4a97 1ebd 10e9 f7bd 86de a93c 2e60 f43d
00000270: e8a2 c0bd 8af6 44bd aa5a 063d 02f1 823d
00000280: eef3 393d 9ede a53d 7e75 813c feee fbbc
00000290: a264 d5bd 58e0 ffbd 460a c4bd 3a9a 803d
000002a0: 8410 e63d 4aae f33d f0b8 bf3d 4e65 d33b
000002b0: 8647 b03d baa6 423d 1456 adbd 462d c0bc
000002c0: 9097 edbd 3ac2 db3d a692 de3c d214 eb3d
000002d0: 9eff 77bc c047 cb3d 72a6 6f3d eef7 79bc
000002e0: ae75 87bb 7673 b63d 56ab 86bc 380e c73d
000002f0: 56a4 e03c 3293 48bd 0e52 6dbd 620a 79bd
00000300: 7635 b53d 2b8e b03d 37ca 4ebd b9a0 fabd
00000310: 3623 803d 5b06 a5bc f702 fcbd 8628 933c
00000320: 3c41 88bb 3764 c93d 188f 953c 6dca aebd
00000330: a502 fdbc 66c9 c8bd a37e 4d3d c2af 373d
00000340: 8e29 863d 326c cebd 6a16 7bbd 42be acbd
00000350: da3b e5bd 26d3 ddbd 6a86 bdbd 9a5f a13d
00000360: 931b f1bc c05e 00bd 96d4 f03c 63b1 c93c
00000370: 1c0d 843d 49cc a3bd 9b6d f43d eea6 dfba
00000380: da37 51bd 9630 b63d 67e4 c3bd f58f a9bd
00000390: 01a2 7e3d bb8f 243d 47db 28bd 1da9 95bc
000003a0: b6d6 febc 5b1b 723d 269d 893c e3b8 193d
000003b0: 0f69 e43d f305 c1bd 8ff7 b3bd df5c 1bbd
000003c0: 263d 47bd e2ff c6bd d489 fe3d 7cd1 e63d
000003d0: 3bbf bd3d 9fa0 aebd 4ae3 bcbc 853b b6bd
000003e0: d2b1 16bd 615f c43d 3438 f23b e7b3 0f3d
000003f0: 0386 edbd a1d9 743d 46a7 9b3d 6985 66bd
0.12417726 -0.0497574 0.04722985 0.11379434 -0.0071707284 -0.10983932 -0.12093817 0.12295893
-0.11703274 -0.046369605 0.08525677 -0.09722501 0.116815835 0.0121393185 0.038853295 0.01961429
0.01374477 0.07015295 -0.108308405 0.027020913 -0.056572266 0.1183016 0.103493795 -0.0491023
0.069509715 -0.021285605 0.0659582 -0.035355084 -0.073148355 0.052737467 0.061891876 0.1125526
0.039614312 -0.055779494 0.031935625 0.007523707 0.10874331 0.051282905 0.106615245 0.009284688
-0.09475985 -0.08003566 0.11286628 0.11195016 0.037653662 -0.0892051 0.09133954 0.05185274
-0.09863004 0.036340065 0.12047906 -0.0825603 0.009499548 0.03571225 -0.04499034 0.08227764
0.111160666 0.12168032 -0.11187993 0.0069587296 0.10203278 0.10648061 -0.032199137 0.08280723
0.099900715 -0.014508926 0.092333235 0.06526208 -0.025196206 -0.0456159 -0.07289666 -0.10731843
-0.06810912 0.03923447 0.038001854 -0.042442977 -0.016939716 0.079913884 0.011913831 -0.08012937
0.099305935 0.06882237 0.021000642 0.052971568 -0.11226326 0.07991283 0.037018545 -0.01765833
-0.033498928 0.09435046 0.020329421 -0.076428846 0.06281019 0.028711004 -0.03722359 0.09486759
0.13106035 0.0010817363 -0.04495779 -0.073686644 -0.07184152 0.05753328 0.08500266 -0.082355395
0.06263366 0.011582461 -0.010957938 -0.04635595 -0.10854096 -0.11381709 0.0982635 -0.027074743
0.0011450092 -0.081979096 -0.01622299 -0.042160884 0.0046476987 -0.12591922 0.0055224565 -0.1040407
-0.08224632 -0.009270901 -0.019916292 -0.041738853 0.07929351 0.015628625 0.019305024 0.04454318
0.007057986 -0.11071843 -0.046486057 0.07848729 0.07170212 0.043241136 0.110333785 -0.06498963
-0.03724896 -0.018623736 -0.030720484 0.10781662 -0.12490307 0.02368414 0.122693405 -0.069484666
0.09934585 -0.107697055 0.021141123 -0.071159065 0.03954848 0.027344491 0.027481716 -0.028355818
-0.0387185 -0.12105 0.02073599 0.11932407 -0.09406072 -0.04808668 0.032801308 0.06393625
0.045398645 0.080991015 0.015803095 -0.030753609 -0.10419585 -0.12493962 -0.09572272 0.062794164
0.11233619 0.118984774 0.09361446 0.0064512854 0.08607392 0.047522284 -0.08463684 -0.023459088
-0.11601174 0.10730405 0.027169537 0.114785805 -0.0151366275 0.099257946 0.058508344 -0.015256865
-0.0041339016 0.08908741 -0.016439121 0.09719509 0.027422111 -0.0489685 -0.05793958 -0.060800917
0.088480875 0.086208664 -0.050485816 -0.12237687 0.06256716 -0.020144632 -0.12305253 0.017963659
-0.004158167 0.098335676 0.018256709 -0.085347034 -0.03088505 -0.09804039 0.0501696 0.04484535
0.06550895 -0.1007923 -0.061300673 -0.08434726 -0.111930564 -0.10831289 -0.09254153 0.07879563
-0.029432094 -0.03134036 0.029398244 0.024620717 0.06447813 -0.07997949 0.11934968 -0.0017063299
-0.051078655 0.08895986 -0.09565049 -0.08279411 0.062166218 0.040176135 -0.041224744 -0.018269116
-0.031108242 0.05910812 0.016798567 0.037529837 0.11152851 -0.09424963 -0.087874524 -0.037930366
-0.0486423 -0.097167745 0.124286324 0.11270425 0.0926499 -0.0852673 -0.023057599 -0.08898071
-0.036790676 0.095885046 0.007391954 0.035083678 -0.11597826 0.05977786 0.07600264 -0.056279574

fc1.bias f4 [32]
00000000: bcbb a5bd 821c 403d 70af f8bd 4d0d bb3d
00000010: a60f 773d eedc 793d 3cf6 bd3d c207 c53d
00000020: 0a7a 6cbd d926 6a3d 9ba5 753d 5ebe 8f3d
00000030: 4196 c7bc bdac 77bd 0d78 94bd eebf db3c
00000040: f9a4 aa3a ae56 cf3b a7d8 d73d b600 d0bd
00000050: 4596 cc3c 164e b83c 89a7 17bc 8fae c83d
00000060: b026 b73d c05a acbd f614 b63c 760e 9abd
00000070: 128d 8dbd f6e0 d5bd a911 233d 8745 2ebb
-0.08092448 0.046902187 -0.12142837 0.09133396 0.060317658 0.06100171 0.09275481 0.0962062
-0.057733573 0.057165954 0.059972387 0.070187315 -0.024363639 -0.06046747 -0.0724946 0.026824918
0.0013019136 0.0063274717 0.1053937 -0.101563856 0.024973998 0.022498172 -0.009256252 0.097989194
0.08942926 -0.08415747 0.022226792 -0.075222895 -0.06911673 -0.104432985 0.039811764 -0.0026591734

fc_out.weight f4 [2, 32]
00000000: e6f3 e5bd 303a 2bbd 9e92 55bc 05a3 6f3d
00000010: 013b 133e 4f62 f0bd 8e32 ccbc b14e 233e
00000020: f0ba ee3d 0015 8d3d e638 76bd 9326 823c
00000030: 5bdc cf3a 4763 8ebb bc2c da3d 58a7 76bd
00000040: 636f 44bd 9c55 fc3d dff4 1a3d 4add 2bbe
00000050: 8903 1fbd 843d f43d e7fb d43d e2e8 d23d
00000060: 4768 e5bd 6f41 07be 2a43 673d 93ea 0a3e
00000070: dffa 133e 0419 8b3d 2fd9 c73d 4e27 07be
00000080: 320a 2e3d 88a3 3cbc ae63 01bb 36f2 bb3d
00000090: 62cb 00be 66b1 8b3c 4cd5 44bd cf81 cd3d
000000a0: 5da0 21be 53ec adbd 7271 f4bd dfd7 163e
000000b0: 24ac f63d 9136 1d3e dcbf 3b3e 2a95 5c3d
000000c0: 8696 dc3c 2a47 4a3d 48f2 103d deeb ac3c
000000d0: 875e 04be b944 0b3e a7c4 eebd fb9f 0d3e
000000e0: 4e56 b73d 4ab7 3b3d 20a0 873d 7ee9 1e3d
000000f0: 89a4 b1bd 8581 c0bd 7722 aabd 0f8d c5bd
-0.112281606 -0.04180354 -0.013035445 0.058505077 0.14377977 -0.11737501 -0.02492645 0.15947987
0.11656749 0.06888771 -0.060112856 0.015887534 0.0015858518 -0.004345331 0.10653064 -0.060218185
-0.04795779 0.12321016 0.037831184 -0.16783634 -0.03882173 0.11925796 0.10399609 0.10298325
-0.1120153 -0.13208555 0.056460537 0.13566045 0.14451168 0.06791881 0.09758221 -0.13198587
0.04249019 -0.011513598 -0.0019743252 0.091770574 -0.12577584 0.017052364 -0.04805498 0.10034525
-0.1578383 -0.08492341 -0.119357005 0.14730786 0.12044552 0.15352847 0.18334907 0.05385319
0.026927244 0.049384274 0.035387307 0.021108564 -0.12926684 0.13600434 -0.11658602 0.13830559
0.08952008 0.045829095 0.06622338 0.038796894 -0.08673961 -0.09399704 -0.08307355 -0.096460454

fc_out.bias f4 [2]
00000000: 6ee0 873d 2d11 e03c
0.066346034 0.02735194
