seventh generation prototypemixing/pipeline_models_dg_zsl_phase_split_v2/stage2_maturity_classifier_strawberry_ft_cnn_best.pth (torch, 19296 bytes, 4 tensors)

fc1.weight f4 [32, 128]
-0.053599 -0.021151304 0.07851783 -0.033851568 0.06719569 0.03209184 0.037673123 -0.08240864
-0.06606109 0.057828195 -0.05286227 -0.033246793 0.009409271 0.08581237 0.074262865 -0.068864316
-0.081735425 0.08093054 0.0409367 0.06784169 -0.0562548 -0.067604855 -0.02514261 -0.043566268
0.06260107 -0.035355113 0.027304098 0.07335811 0.060735352 0.047092773 -0.040995784 0.0037182346
-0.07885848 0.033268154 -0.00434272 -0.019682907 0.085620575 -0.0014066845 -0.040073518 0.086664565
-0.08738409 -0.046233132 0.010187991 -0.0770431 0.017642334 0.055191405 -0.044237364 0.05885286
0.07543003 0.013007715 0.018264525 -0.031382468 -0.03627845 -0.02465672 0.06910371 -0.03641337
-0.08365911 -0.044138823 -0.06666362 -0.048437327 0.000102207065 -0.023069933 0.010872282 -0.07175037
0.05637508 -0.032436214 0.022740535 -0.060191147 0.06453418 -0.0863965 0.08320523 0.06817479
-0.009824075 0.021332048 -0.014900893 -0.059162278 -0.006728269 0.08332924 -0.03681426 0.08635273
0.036326014 0.050572358 0.046280585 -0.083926365 -0.062381014 0.07994836 -0.030272122 -0.067235604
0.036137372 -0.04027381 0.080622144 -0.0531822 -0.01800581 0.037488095 -0.06808391 -0.051036008
-0.0020291805 -0.03857993 -0.032871116 -0.015038468 0.0031615272 0.041014664 -0.05333024 0.070738874
-0.07630844 -0.044149846 0.088149674 -0.015649326 -0.0010929555 -0.07508728 0.082446955 0.07505197
-0.021256827 -0.043175682 0.06727553 -0.048892934 -0.0115291625 0.073019065 0.07092809 -0.047366187
0.023708865 0.020586431 0.029620327 -0.08664352 -0.051901378 0.022298925 0.014661245 0.07489405
-0.043435276 0.081347965 0.06469887 0.068934776 0.07419365 -0.07054682 0.02438099 0.0012055486
0.030531563 0.03755351 0.043599866 0.036940508 0.08160878 -0.0069072917 0.07378297 0.041500963
-0.048029598 0.040406086 0.061454795 -0.06274026 -0.025506966 0.074398555 0.017868325 0.041827373
-0.0750007 -0.04105654 0.024360456 0.01947654 -0.010088734 0.010385513 -0.05773955 -0.086299635
-0.023460366 0.043947093 0.028160855 -0.02393999 0.039115332 -0.030014869 0.07779313 0.01659692
0.012775265 -0.03363444 -0.062045008 0.08551153 0.046805196 -0.060535107 -0.020625688 0.071175866
0.004262015 -0.03549362 0.026686043 -0.050586954 0.031085335 -0.077416025 -0.016544871 0.033661574
0.034462675 -0.06844553 0.045093648 -0.05137017 0.040879957 -0.06329173 0.012175456 0.07661436
-0.011220984 0.02700255 -0.07734695 0.05191783 -0.07546765 0.087122165 -0.019565724 0.02743803
-0.051500183 0.07992368 -0.056897126 -0.016925707 -0.010389484 -0.0715671 0.014802866 -0.019264378
0.035860337 0.033658355 0.05971303 -0.009417169 0.03487692 -0.009128332 -0.034880456 -0.0020107552
0.051382788 0.034901224 0.027644247 0.025487252 0.071115024 0.04687784 -0.036798425 0.03459263
0.06959849 0.07391057 -0.048324365 0.008653805 0.04253795 -0.07739882 0.0707039 0.041690104
-0.039141335 0.08212391 -0.060122512 -0.01511427 -0.0027339533 0.078977995 0.014067456 0.03387101
-0.050332252 0.011046164 0.06350251 -0.05018346 -0.08611423 -0.05346213 -0.07002005 0.052840434
-0.002797231 0.053133525 -0.04508718 -0.033683393 0.044674613 0.051475473 0.029902808 -0.013721652
00000000: a08a 5bbd 8045 adbc f5cd a03d f1a7 0abd
00000010: e59d 893d bc72 033d 224f 1a3d dcc5 a8bd
00000020: 094b 87bd 42dd 6c3d 1c86 58bd ca2d 08bd
00000030: 5829 1a3c 65be af3d 2117 983d bc08 8dbd
00000040: e764 a7bd e9be a53d 3ead 273d 95f0 8a3d
00000050: 6f6b 66bd 6a74 8abd e0f7 cdbc 8b72 32bd
00000060: fd34 803d 86d0 10bd d8ac df3c c73c 963d
00000070: a2c5 783d 5ae4 403d 32eb 27bd a0ad 733b
00000080: 8e80 a1bd 3044 083d 604d 8ebb 0c3e a1bc
00000090: d759 af3d 8060 b8ba 2124 24bd 317d b13d
000000a0: 6ef6 b2bd f45e 3dbd 88eb 263c c6c8 9dbd
000000b0: a886 903c 6210 623d 3d32 35bd b20f 713d
000000c0: 0f7b 9a3d 501e 553c 7c9f 953c e78a 00bd
000000d0: b698 14bd e4fc c9bc 3f86 8d3d 3026 15bd
000000e0: 7855 abbd e9ca 34bd f086 88bd 3866 46bd
000000f0: 0058 d638 28fd bcbc a821 323c dcf1 92bd
00000100: 8ee9 663d d6db 04bd 5c4a ba3c fe8a 76bd
00000110: 7f2a 843d a6f0 b0bd 8167 aa3d 399f 8b3d
00000120: 28f5 20bc 8cc0 ae3c e022 74bc 2554 72bd
00000130: d078 dcbb 85a8 aa3d 8dca 16bd b3d9 b03d
00000140: 96ca 143d f624 4f3d b690 3d3d 96e1 abbd
00000150: 3c83 7fbd f7bb a33d 3efd f7bc d2b2 89bd
00000160: c804 143d 27f6 24bd 391d a53d 94d5 59bd
00000170: ec80 93bc 1e8d 193d 946f 8bbd 220b 51bd
00000180: 00fc 04bb fd05 1ebd dda3 06bd e863 76bc
00000190: a031 4f3b fefe 273d cf70 5abd 8bdf 903d
000001a0: 9947 9cbd 78d6 34bd d187 b43d 0433 80bc
000001b0: 8041 8fba 5cc7 99bd f3d9 a83d d9b4 993d
000001c0: cc22 aebc fcd8 30bd c1c7 893d f543 48bd
000001d0: d0e4 3cbc 058b 953d bf42 913d 0c03 42bd
000001e0: 1839 c23c e0a4 a83c 54a6 f23c 2872 b1bd
000001f0: 8a96 54bd 3cac b63c b835 703c 0d62 993d
00000200: 30e9 31bd c399 a63d d780 843d ad2d 8d3d
00000210: d7f2 973d da7a 90bd a4ba c73c 8003 9e3a
00000220: 541d fa3c b6d1 193d c695 323d ee4e 173d
00000230: 8122 a73d 9056 e2bb 871b 973d eafc 293d
00000240: afba 44bd da80 253d 06b8 7b3d f77d 80bd
00000250: fcf3 d0bc 455e 983d 9860 923c 2e53 2b3d
00000260: f899 99bd e72a 28bd 948f c73c 448d 9f3c
00000270: 384b 25bc 0028 2a3c 4e80 6cbd ddbd b0bd
00000280: f42f c0bc de01 343d 98b1 e63c cc1d c4bc
00000290: 6637 203d bee1 f5bc 0152 9f3d 44f6 873c
000002a0: 584f 513c 44c4 09bd e822 7ebd ab20 af3d
000002b0: ceb6 3f3d a9f3 77bd 34f7 a8bc a7c4 913d
000002c0: 60a8 8b3b c261 11bd b09c da3c 4434 4fbd
000002d0: aca6 fe3c 4b8c 9ebd 1c89 87bc b8e0 093d
000002e0: bc28 0d3d 2c2d 8cbd 1eb4 383d 8769 52bd
000002f0: be71 273d 189f 81bd 907b 473c fde7 9c3d
00000300: 38d8 37bc 7434 dd3c 1468 9ebd caa7 543d
00000310: c98e 9abd 1b6d b23d 4c48 a0bc b8c5 e03c
00000320: dbf1 52bd 07af a33d f60c 69bd c8a7 8abc
00000330: a838 2abc c691 92bd b887 723c 54d0 9dbc
00000340: 4ae2 123d 58dd 093d a695 743d 784a 1abc
00000350: 1adb 0e3d 008f 15bc cfde 0ebd e0c6 03bb
00000360: c276 523d 96f4 0e3d 3076 e23c a4ca d03c
00000370: c1a4 913d fa02 403d f2b9 16bd 00b1 0d3d
00000380: a789 8e3d 6d5e 973d c5ef 45bd b0c8 0d3c
00000390: 463c 2e3d 4683 9ebd 35cd 903d 3ec3 2a3d
000003a0: aa52 20bd 9530 a83d 0643 76bd d8a1 77bc
000003b0: 202c 33bb 37bf a13d 307b 663c 54bc 0a3d
000003c0: 3129 4ebd f8fa 343c 9b0d 823d 2c8d 4dbd
000003d0: a85c b0bd 1bfb 5abd ac66 8fbd 366f 583d
000003e0: c051 37bb 8aa2 593d 56ad 38bd 99f7 09bd
000003f0: bafc 363d f2d7 523d bcf6 f43c c8d0 60bc

fc1.bias f4 [32]
-0.020526603 -0.042046856 -0.007478794 0.01151488 -0.08018494 0.055914573 0.03729808 -0.047892768
-0.0006523058 -0.0005481839 0.028520226 -0.039640225 -0.06343607 0.024375154 0.016997311 0.06497986
0.059225466 0.013511939 0.015445948 -0.07777013 -0.033342287 0.06938441 -0.08601706 0.048634652
-0.08423722 -0.028037904 0.08806652 0.03219184 -0.075584844 0.042089414 0.05662286 -0.07395503
00000000: 6827 a8bc 5339 2cbd ac10 f5bb e8a8 3c3c
00000010: 0038 a4bd ae06 653d dfc5 183d 352b 44bd
00000020: 80ff 2aba 00b4 0fba 40a3 e93c ca5d 22bd
00000030: c5ea 81bd 67ae c73c f23d 8b3c 2914 853d
00000040: 6796 723d 2e61 5d3c 0011 7d3c f245 9fbd
00000050: ec91 08bd 6a19 8e3d b629 b0bd 2135 473d
00000060: 9084 acbd bfaf e5bc 385c b43d 97db 033d
00000070: 3acc 9abd f365 2c3d 5fed 673d bc75 97bd

fc_out.weight f4 [2, 32]
-0.06179303 -0.113572985 -0.023566091 -0.11384361 0.008556381 -0.047849923 0.12427725 -0.12801136
-0.16525166 -0.025853068 -0.024211468 -0.13000026 0.09369595 -0.15828143 0.13358444 0.010686459
0.037863143 -0.095524475 -0.17253257 -0.027727418 -0.13501981 0.048074212 0.12714748 0.122710444
-0.13464622 -0.13639158 -0.08589196 -0.033312373 0.16341211 0.048736114 -0.15693012 0.01631686
-0.0041622818 -0.17200713 0.12676324 -0.11008788 0.12435891 0.060638547 0.09687792 -0.17752297
-0.10772414 -0.1757636 -0.053367365 0.1402427 -0.104898944 0.10862691 0.1181614 -0.033461373
-0.050376512 -0.14220415 0.01874077 0.13091734 -0.039505392 -0.022919063 0.06358948 -0.026003102
0.14180009 -0.15807317 0.10528749 0.12309958 0.08383523 0.11200185 -0.086243324 0.1136681
00000000: b01a 7dbd f498 e8bd ad0d c1bc d726 e9bd
00000010: 1030 0c3c 48fe 43bd 1285 fe3d 6915 03be
00000020: bb37 29be d0c9 d3bc 2157 c6bc ca1e 05be
00000030: aae3 bf3d 8714 22be 5cca 083e 4216 2f3c
00000040: 6216 1b3d 56a2 c3bd 61ac 30be 9c24 e3bc
00000050: a242 0abe 77e9 443d f332 023e 9d4f fb3d
00000060: b3e0 09be 3caa 0bbe 20e8 afbd 8e72 08bd
00000070: 8155 273e 859f 473d 4ab2 20be f0aa 853c
00000080: c063 88bb a322 30be 39ce 013e c175 e1bd
00000090: e2af fe3d 2060 783d ee67 c63d 95c8 35be
000000a0: 799e dcbd 60fb 33be bd97 5abd c89b 0f3e
000000b0: 42d5 d6bd c977 de3d 9bfe f13d cb0e 09bd
000000c0: 9a57 4ebd f79d 11be 3e86 993c 320f 063e
000000d0: 68d0 21bd c2c0 bbbc 343b 823d 7504 d5bc
000000e0: 0b34 113e efdd 21be f8a0 d73d a21b fc3d
000000f0: ceb1 ab3d 3a61 e53d 57a0 b0bd d2ca e83d

fc_out.bias f4 [2]
0.12805603 -0.03634613
00000000: 1f21 033e aedf 14bd
