seventh generation prototypemixing/pipeline_models_dg_zsl_phase_split_v2/stage2_maturity_classifier_grape_ft_cnn_best.pth (torch, 19256 bytes, 4 tensors)

fc1.weight f4 [32, 128]
00000000: 1001 ac3d b553 9a3d e7b0 743d 48b4 0f3d
00000010: 315f 1abd 6751 013d 6fd9 47ba 0b05 8d3d
00000020: 113c 4ebd 13b5 84bc f09d 15bc 61d4 6abd
00000030: 1766 0bbc 69f8 c23d 7e13 833d 87d4 40bd
00000040: 00e4 19bd ccb3 783d 53a0 7dbd 9f0c 583d
00000050: 9171 bfbb eda1 2fbd 8ad9 7bbd 14ab b3bd
00000060: 658b 863d 2bb6 2e3c 6634 cfbd 2a9a 89bc
00000070: bdc8 5b3d aec6 a8bc 13ed 9a3d a10c 3cbd
00000080: 3cf2 bebc 82ba 0d3d 5776 b6bd de18 833b
00000090: 4153 923d a926 d33d 50df ba3c cc7f 933d
000000a0: 7d21 3dbd f846 6e3d 6469 40bd b1be dfbd
000000b0: 8722 05bc 66fc 0a3d 9a58 aabc 14a6 e63b
000000c0: db70 493d b848 c5bd 5168 a0bc 7ce0 b6bd
000000d0: 56c6 473d 43b8 5cbd 5905 ce3c 8c0e 893d
000000e0: 6392 6cbd 8e2c 96bd 86f3 fabb f65b 4f3d
000000f0: b11e 9ebd 769e 9fbc 01d6 bebc 7ae7 bb3d
00000100: b46c 433d 5df6 44bd a2ef 28bd a9b2 ffbd
00000110: 0805 663d c5a1 a93c 6582 5abd 471d 993c
00000120: 2672 b9bd 41be 9c3c 4717 68bd 6eca 20bd
00000130: 9a42 143d 2f38 ce3b 6b3f 443d 85a5 a5bd
00000140: 6b29 d53c 42a4 24bd 5926 6a3d 4123 34bd
00000150: 4ad9 cc3b 1f62 163d f788 e23c 43dd 423c
00000160: 1ec6 53bd 4ca7 043c 2034 86bd 4fe7 66bd
00000170: 92c7 68bd 0aa0 503d 35ff a03d ec7a 7dbd
00000180: 8950 043d be75 da3b ab7f bbbc e2f6 bf3d
00000190: 6be6 b53b 5980 013e 02fc 82bd 79a0 d2ba
000001a0: 2ab9 ef3c 541f 8fbc 6304 febc 058d ef3d
000001b0: c5a7 b93c dd93 723d 9e3c 5abb 7ed5 35bc
000001c0: 1639 e0b9 7b3c 83bd bee6 d83c 7e87 743d
000001d0: 0fda 8f3b aaf8 133d dc3d e83c 9a65 6b3d
000001e0: b7fd 363c ab7f 0c3d 384f 713d 568c 623c
000001f0: 283e 4f3d 91e3 083c 3550 a23d f8ae 58bd
00000200: 6bff 54bd 74ef 273d 2db6 bebc 8ce2 b3bd
00000210: 1203 41bd 2fb7 5abc 6455 c73d e9cc b6bd
00000220: 7037 963d 38fd 7a3c 02b3 19bd 7850 0cbd
00000230: 1f47 b43d 30fb 3ebc 791d 75bd e446 ebbc
00000240: 43d2 adbc ac3c 663c 690e f339 c6bb ad3c
00000250: 4eb0 113e 90fe 4dbc 1e73 9cbd f6a9 a3bb
00000260: 9c82 91bd 8282 343b 43c0 13bd 22f4 a7bd
00000270: 55ef 4dbd 9df6 0e3e 3622 2abd e5a8 aa3d
00000280: 4b73 53bd d711 b4bd 78e0 283c 4563 603d
00000290: bec8 e53c 494f 65bd 2edf b53d c6b4 c1bb
000002a0: 2747 553d c8e5 c13d 74a3 f23c 0ff7 973d
000002b0: 90f9 8a3c 5d17 663d 88ac 01be 1482 a13d
000002c0: 0b7a 41bc a01f 323d aecf 103d d865 8fbb
000002d0: 37bd 943d 0b68 313c aa25 b73c 6bca 85bd
000002e0: f3fa 383d a45c b2bc cb8a 9cbd a3f1 b13d
000002f0: faa2 8fbd 2e31 0abc 6a3b 393d 70a8 623d
00000300: 4574 153d 2aec 6a3d 8e4c 4bbd 1d29 733d
00000310: 2970 8fbd 2480 793c 94b9 da3c 8764 8c3d
00000320: d55e 7e3d ee86 ac3d b87b c7bd 9ecf 84bc
00000330: c335 a0bd 5de4 203c 5361 33bd d3a1 cd3d
00000340: 0ae0 cb3c 579c da3d 580e 1abd a687 583d
00000350: 28db c6bd 3269 323d c455 393d aab0 b93d
00000360: eaac a5bd e57b 243d 8125 7c3d 84b1 31bd
00000370: aa32 18bb 59f7 7a3d 7ec5 afbd 51ca 1ebd
00000380: 7e40 80bb 5d97 a33d ff91 863d 0be2 923d
00000390: afbe 6abd 16ed 5dbd 5210 2c39 7549 acbc
000003a0: 0732 683d 135f 24bd e06b 3dbd df57 5bbc
000003b0: cbf8 e3bb 84f2 883c 62ab e5bb feac 2f3d
000003c0: 420d 5b3d deea 1fbd 31c0 cbbd 5923 20bd
000003d0: 7066 f03c 9381 523d dcc1 483d c166 40bb
000003e0: 73f8 dabc e7ce adbd 5ba1 16bd f6fe 493d
000003f0: 8c9d 8e3d 9366 2cbd 63af c63c 1485 743d
0.0839864 0.07535497 0.05973902 0.03508404 -0.037688438 0.031571772 -0.00076236477 0.068857275
-0.050350253 -0.016199624 -0.0091318935 -0.057331447 -0.008508227 0.09520037 0.06400202 -0.047077682
-0.037570953 0.060718343 -0.061920475 0.05274641 -0.0058423956 -0.042879034 -0.06148676 -0.08772865
0.06569556 0.010663549 -0.10117416 -0.016797144 0.053658236 -0.02060255 0.075647496 -0.04591048
-0.023308866 0.034601696 -0.0890929 0.004000767 0.07144786 0.10310108 0.022811562 0.0720211
-0.046174515 0.05817315 -0.04697551 -0.109250434 -0.008125908 0.033932112 -0.020794202 0.007038841
0.049179893 -0.096330106 -0.019580992 -0.08929536 0.048773132 -0.053886663 0.025149034 0.06692228
-0.057756793 -0.07332717 -0.007658425 0.05062481 -0.07720698 -0.01948474 -0.023295404 0.0917501
0.04771109 -0.048086513 -0.041244157 -0.124852486 0.056157142 0.02070702 -0.05334701 0.018690718
-0.09054975 0.019133689 -0.056662824 -0.039255552 0.03619633 0.0062933187 0.047912043 -0.08088211
0.026020726 -0.04019571 0.057165477 -0.043978933 0.006251489 0.03671467 0.0276532 0.011893573
-0.05170261 0.008096527 -0.06552911 -0.056372937 -0.05683095 0.050933875 0.07861177 -0.061884806
0.032303367 0.006666868 -0.022888025 0.09373261 0.0055511496 0.12646617 -0.06395723 -0.0016069553
0.029263098 -0.017470993 -0.031007951 0.11696819 0.022663007 0.059223045 -0.003330029 -0.011098264
-0.00042767142 -0.0640802 0.026477214 0.059699528 0.0043900083 0.036125816 0.02834981 0.05746994
0.011168889 0.03430144 0.05891344 0.013827404 0.050596386 0.008355037 0.079254545 -0.05290124
-0.052001398 0.040999845 -0.023280228 -0.08783445 -0.04712207 -0.013349338 0.09733084 -0.08925802
0.073347926 0.015319161 -0.03752423 -0.03425643 0.08802628 -0.011656567 -0.05984256 -0.028720327
-0.021218425 0.014052551 0.00046359308 0.021207701 0.14227411 -0.012572899 -0.07639144 -0.004994626
-0.0710499 0.002754361 -0.036072027 -0.082008615 -0.050277073 0.13961263 -0.041536532 0.08332995
-0.051623624 -0.08792465 0.010307424 0.05478217 0.028049823 -0.055983815 0.08880459 -0.0059114425
0.05206981 0.094676554 0.029618956 0.074201696 0.016964704 0.056174625 -0.12663472 0.078861386
-0.0118088825 0.04348719 0.03535431 -0.0043761544 0.07262652 0.010828028 0.022356827 -0.06532749
0.0451612 -0.02177269 -0.0764366 0.08688667 -0.07013507 -0.008434577 0.045222677 0.055336416
0.036487836 0.05735413 -0.049633555 0.05936538 -0.07003815 0.015228305 0.026699819 0.068551116
0.062102158 0.08424173 -0.09740394 -0.01621228 -0.07822754 0.009820071 -0.043793987 0.10040631
0.024887104 0.10674351 -0.037611336 0.05286374 -0.097097695 0.043557353 0.045247808 0.09066899
-0.08089621 0.040157218 0.061559204 -0.043382183 -0.0023223558 0.061271045 -0.085825905 -0.038767163
-0.003913938 0.07987855 0.06570815 0.071720205 -0.057310756 -0.05418118 0.00016409278 -0.02103112
0.056688335 -0.040129732 -0.046245456 -0.013387649 -0.0069571487 0.016717203 -0.007008956 0.042889588
0.05347944 -0.039042346 -0.09948767 -0.03909621 0.029345721 0.051393103 0.049013004 -0.002935812
-0.026729798 -0.08486729 -0.036774974 0.049315415 0.069636434 -0.04209001 0.024253553 0.059697226

fc1.bias f4 [32]
00000000: d506 4d3d 58c2 d6bb 0721 b93c ca98 0b3d
00000010: 1c22 6c3d 1fca dcbd 9feb 2b3c dfed d73d
00000020: 5048 003d 4c67 073c 85e8 8cbd 0b8e a73d
00000030: de3a 86bd bc27 94bc 8081 1ebd d14b d33d
00000040: cab8 33bc 7b22 083d 19f2 9d3d e0be b8bd
00000050: 18cc 773d eb30 98bd 8058 61bc 75f9 02bd
00000060: fa46 02bd 49d1 c1bc 6023 69bb 16fa 9b3d
00000070: 7c9f bfbc 44f1 eabc aa91 223d a268 01bd
0.050055344 -0.0065539293 0.022598756 0.034081258 0.057649717 -0.10780739 0.010493188 0.10543417
0.031318963 0.008264374 -0.06880287 0.081813894 -0.06554197 -0.018085353 -0.03869772 0.10317195
-0.01096935 0.03323601 0.07712192 -0.090207815 0.060497373 -0.07431205 -0.01375401 -0.031976182
-0.03180597 -0.023659365 -0.0035574064 0.076160595 -0.023391478 -0.028679498 0.039689697 -0.031593926

fc_out.weight f4 [2, 32]
00000000: 6e68 96bd fbea 583e 9785 d13d 4ce2 933d
00000010: e663 193e ff38 353e b268 febc 7972 62be
00000020: ec41 093e 245f 5a3d 5cf4 6e3d 27e4 3d3d
00000030: 8a1f 603e ae8b 2b3c dc7e cf3d 14c1 41be
00000040: 5713 13be d07a 22be 98a7 05bd 13a3 2a3e
00000050: 5165 0ebe 33b0 19be 10d1 10be c1f1 9abd
00000060: a25c e33d c14d 603e 2432 603d 8b1a 6dbe
00000070: e237 59be 9cb6 1cbe f54f ba3d 2724 2fbe
00000080: 0884 3a3e 1642 823d c23f 0cbe 646b c33c
00000090: ba5b 57bc 6f5d 26be 747e 5ebe 7ed5 363d
000000a0: 38ef d3bd 0889 37be 122e 02be 9669 523e
000000b0: 6f43 19be 02cf d4bd 390a d0bd ae77 5dbb
000000c0: f07c 6d3e c994 093e 4e0a c03d a2f9 2bbe
000000d0: 343e c23d b1b3 2d3c 6c79 a2bd f859 063e
000000e0: b6d9 1fbd ba0b bcbc cf5f 90bd 582f e53c
000000f0: b1d1 1e3d ee06 bc3d b9d5 1ebd 3abc 833d
-0.07344137 0.21183388 0.10230558 0.07220897 0.14979514 0.17697524 -0.031055782 -0.2211398
0.13404053 0.05331339 0.058338508 0.04636016 0.21887031 0.010470314 0.101316184 -0.1892131
-0.14362846 -0.15867162 -0.032630533 0.1666377 -0.13905837 -0.15008621 -0.14142251 -0.07565642
0.11101653 0.21904661 0.054735318 -0.23154657 -0.21212724 -0.15304035 0.09097282 -0.17103635
0.18214428 0.06360261 -0.13696197 0.023854919 -0.013144428 -0.1624658 -0.21727926 0.044637196
-0.10348362 -0.17923367 -0.12712887 0.2054809 -0.1496713 -0.10391046 -0.101582 -0.0033793258
0.23192191 0.13435663 0.093769655 -0.16794446 0.094845206 0.010601924 -0.07933316 0.13120258
-0.039025985 -0.02295481 -0.07049524 0.027976677 0.038774196 0.09181009 -0.03877804 0.06432386

fc_out.bias f4 [2]
00000000: 9149 c23c 1077 8dbd
0.02371672 -0.06907475
